result_WS/Dataset-mask/model_weight.pth.tar (torch, 183590 bytes, 127 tensors)

conv0_0.0.conv1.weight f4 [4, 3, 3, 3]
000000 d7 03 8a bd bf 94 0f 3f be 28 37 3d 05 89 c5 bd
       -0.06739014 0.56086344 0.04471659 -0.09645275
000010 07 5e 9a 3e 74 01 e7 bd a6 8c 9b be 77 c4 7d 3e
       0.30149862 -0.11279574 -0.30380744 0.24781977
000020 b7 c9 57 3d c1 88 eb bd cc 9a 5a 3e 79 f5 08 3d
       0.052682605 -0.11500693 0.21348113 0.033437226
000030 87 40 3c be 44 35 80 3e 81 f6 20 be e6 2d be 3c
       -0.1838399 0.25040638 -0.15719034 0.023215245
000040 56 79 0c be cd 70 b6 bd 10 fc 74 3e c9 1d 58 3e
       -0.13718161 -0.08908234 0.23924279 0.21105112
000050 eb ea 26 3d 76 49 51 be 7a 01 49 be 3d 7b df bd
       0.04075138 -0.2043818 -0.1962947 -0.10912178
000060 d7 51 5a be f9 00 21 bd 48 0f 0a 3e be c8 6f 3d
       -0.21320282 -0.03930757 0.13482392 0.058541052
000070 52 63 cb bc 74 a1 1e 3c 70 76 40 3e 1c c9 18 be
       -0.024827633 0.009682048 0.1879518 -0.14920467
000080 5e 4b 9c be 76 29 1b 3d 17 76 29 3e b3 6f 7c be
       -0.3052625 0.037881337 0.16548954 -0.24651985
000090 44 e1 84 bc 60 31 97 bc df 40 ce 3d f8 81 fe bd
       -0.016220696 -0.018456161 0.10070967 -0.12427133
0000a0 7d 14 54 be 0c a0 36 be c0 30 9a bb 5f 67 b4 3e
       -0.2071094 -0.1783449 -0.0047055185 0.35235116
0000b0 5f 73 18 3d 16 a1 2d 3e 3f 63 b2 3b 63 41 6f 3e
       0.0372194 0.1695598 0.00544396 0.23364787
0000c0 04 0f 0c 3e df d6 03 3e 97 13 06 be 57 6c 16 be
       0.13677603 0.12874936 -0.1309341 -0.14689766
0000d0 52 42 a8 be da bc 0b 3d 45 70 74 bc 50 87 8c 3d
       -0.32863098 0.03411565 -0.014919345 0.06861746
0000e0 32 f6 29 3e 0a c0 92 3e 47 ad 1a 3e 32 19 8d be
       0.16597822 0.2866214 0.15105163 -0.27558285
0000f0 7a 20 6f 3d 5a 09 06 be fd 51 8c bd 23 3d fe 3d
       0.05838058 -0.13089505 -0.068515755 0.12414005
000100 e2 1e 90 bd 1a 3e 2b 3e d3 25 fc 3d 2a 80 04 3d
       -0.070371404 0.16722909 0.12311902 0.03234879
000110 e8 2b 54 be 82 13 9d 3d cb a8 d9 3d ee af 84 bc
       -0.20719874 0.076697364 0.10627898 -0.016197171
000120 77 ad 8c 3c 4a d6 93 bd af 3e 2f 3e a7 45 64 3e
       0.017172558 -0.07218607 0.17113756 0.22292195
000130 40 2e 93 bd 02 59 9e be ac e4 83 be 14 d7 38 3e
       -0.07186556 -0.30927283 -0.257604 0.18050796
000140 01 03 2e be 43 df 23 bd 00 a7 7f bd af 76 7b be
       -0.16993333 -0.04000784 -0.062415123 -0.24556993
000150 18 01 7b bd cf 46 c3 be 7e 37 6e bd 5b 36 e0 bd
       -0.06128034 -0.3813996 -0.05815839 -0.109478675
000160 a3 59 03 3e 59 0a e0 3c 36 67 c7 bd 97 96 96 3e
       0.12827162 0.027348684 -0.09736483 0.29411766
000170 3a c7 d4 bb 0d 30 9a 3d 5c 44 92 3e 31 d7 38 bd
       -0.006493476 0.07528696 0.2856778 -0.045127098
000180 6f 29 76 3e be b4 6c be 4f c5 80 be 4e 05 2b 3e
       0.24039243 -0.23115823 -0.25150535 0.16701242
000190 65 89 ca 3d 86 23 37 bd 74 37 4d 3e c6 15 1c be
       0.09889487 -0.044711612 0.20040685 -0.15242681
0001a0 82 68 dc be c4 85 81 3e 2f ee 0d 3d 84 77 9d bd
       -0.43048483 0.25297368 0.034650978 -0.076888114

conv0_0.0.conv1.bias f4 [4]
000000 79 af 89 3c 80 3f ed 3d f0 51 6d 3d 08 ec a2 bd
       0.016807305 0.11584377 0.05793947 -0.07955176

conv0_0.0.bn1.weight f4 [4]
000000 17 84 55 3f a1 c5 86 3f da 11 7b 3f 43 76 79 3f
       0.8340468 1.0529062 0.98074114 0.9744608

conv0_0.0.bn1.bias f4 [4]
000000 18 e5 bf 3e de 08 02 bd 2a 28 37 3e 3a 22 5c be
       0.37479472 -0.031746738 0.17886415 -0.21497431

conv0_0.0.bn1.running_mean f4 [4]
000000 fd de 0c bd 26 74 1a 3e fe 1a 5d 3c 2b c1 4c bb
       -0.034392346 0.1508337 0.013495205 -0.0031243067

conv0_0.0.bn1.running_var f4 [4]
000000 1b 55 df 3d fd 1e 45 3d 6f 01 a6 3d df 43 62 3e
       0.109049045 0.048125256 0.08105742 0.22096203

conv0_0.0.conv2.weight f4 [4, 4, 3, 3]
000000 4e 59 b8 be e5 ee 77 3e 85 81 31 be 45 1f 55 bd
       -0.36005634 0.24212225 -0.17334564 -0.052031774
000010 77 ef fc 3c fd f5 ed bd d2 45 55 3e 95 71 aa 3e
       0.030875904 -0.11619184 0.20827416 0.3328978
000020 26 0c 6e bd 98 68 f4 bd 01 09 ba be f8 8c 59 be
       -0.058117054 -0.11934012 -0.36334994 -0.21245182
000030 43 ef e9 bd e0 6d bf be a2 42 74 be 80 7c be 3c
       -0.11422589 -0.37388515 -0.23853543 0.023252726
000040 08 9f 2c bd 93 a8 e0 be e0 15 91 be 16 3c 18 be
       -0.04214385 -0.43878612 -0.28337002 -0.14866671
000050 2a 89 85 3c 30 1a 0a 3e a4 19 1d 3d cb c7 78 bd
       0.016300756 0.13486552 0.03835453 -0.060737412
000060 6e 82 3a 3d c4 e0 54 3e 9c 2f 42 3d ab 92 56 be
       0.045534544 0.20788866 0.047408685 -0.20954387
000070 f5 c6 7d be 04 b0 01 be 13 8a 37 be 41 87 0f bf
       -0.24782927 -0.12664801 -0.17923765 -0.56065756
000080 6a 78 3a bd 2a 55 c2 be d6 6e 63 be f3 db 4d be
       -0.045524992 -0.379556 -0.2221025 -0.20103435
000090 57 2c 1f 3d 7e 4a a7 3c 78 b0 38 3e 48 d2 eb 3a
       0.038860645 0.020421263 0.18036067 0.0017991746
0000a0 77 03 89 be 33 4e c7 bd fc 05 e7 3d ef 81 96 bd
       -0.26760456 -0.09731712 0.11280438 -0.073490016
0000b0 dd 65 73 3e c0 0b d9 bd 25 b2 67 3e 71 ef ac 3d
       0.23769327 -0.10597944 0.2262655 0.08444107
0000c0 8c ef b0 3d 2f f8 d3 bd 13 35 1a be 21 ed c1 3d
       0.0863944 -0.10350072 -0.15059309 0.09469057
0000d0 21 25 8c 3d 74 84 f1 3d 69 95 8b 3e d6 44 71 bd
       0.06843019 0.117928416 0.27262428 -0.058903538
0000e0 94 16 17 3d 90 88 57 3e 30 f3 ca bd d4 56 84 be
       0.036886767 0.21048188 -0.099096656 -0.25847495
0000f0 f6 98 e3 bd ee 6f 86 3d bb 77 4d 3e 37 c1 a1 be
       -0.11113159 0.06564318 0.20065205 -0.31592724
000100 78 4c 98 bb 63 70 71 be 30 bb c0 3e 52 83 f0 bd
       -0.0046477877 -0.23578028 0.37642813 -0.11743797
000110 7e eb 77 3e d2 96 96 3d 91 c4 5b 3d 65 6b 30 3e
       0.24210927 0.073529854 0.053654257 0.17228468
000120 df 44 28 3d a1 81 80 bd d2 4d b4 bd 37 f4 e3 bc
       0.041081306 -0.06274725 -0.088039055 -0.027826412
000130 c7 fb 3b 3d e2 d9 66 3d 99 67 4f bd 81 68 6a 3e
       0.04589441 0.056360133 -0.050635908 0.22891428
000140 e7 10 6a 3d ec 6d 80 be 3e 95 6d 3e b1 33 a6 bb
       0.057145026 -0.25083864 0.23201463 -0.00507208
000150 57 33 cc be 3d ed aa bd 47 1f 7a bd 5e 4f 58 3e
       -0.3988292 -0.08346031 -0.061064985 0.21124026
000160 68 c2 db bd 51 58 57 3e 5d ba b9 be bc 1f 56 bd
       -0.107304394 0.21029784 -0.36274996 -0.052276358
000170 53 fd b1 bc b4 d0 7e be c2 c9 7f 3d 3e c1 e7 3d
       -0.02172724 -0.24884301 0.06244827 0.11316155
000180 2f ca bc bd f6 b1 db 3d df 90 4c be 67 29 46 be
       -0.09218251 0.10727303 -0.19977139 -0.19351731
000190 79 87 51 be 7a 14 08 3e a2 0e 7a be 71 2d 4f be
       -0.20461835 0.13289061 -0.24419644 -0.20232178
0001a0 99 f8 a5 3e ce aa 6e bc c5 87 1d 3d 32 74 e2 bd
       0.32416227 -0.01456709 0.038459558 -0.11057319
0001b0 77 35 9f bc 0e dd 8b 3b 89 3c 9b bd bd 95 85 3d
       -0.019434674 0.004268295 -0.075799055 0.06522701
0001c0 14 3a 86 bb b2 f0 16 be 80 fe 33 3e 2b 1b 99 3e
       -0.004096279 -0.14740255 0.17577553 0.2990354
0001d0 3f 09 4d 3e d4 bc e4 bd 55 a5 10 3d d7 8c 46 bd
       0.20023058 -0.111688286 0.035313923 -0.04847416
0001e0 c9 e6 7f 3e 25 14 d7 be 86 e9 09 3e a9 e3 0b be
       0.24990381 -0.42007557 0.13467988 -0.13661064
0001f0 70 9b 99 3e 66 cb bd be 95 2b 02 be 5e 35 29 3d
       0.30001402 -0.37069243 -0.12711938 0.04131066
000200 ea 01 2d 3d ac cc 2e bd 69 9d 42 be 8e fa 80 3d
       0.042238154 -0.04267566 -0.1900536 0.062977895
000210 39 79 15 3d ac 79 15 3e b4 9b 8f 3e d9 6f b3 be
       0.03649256 0.14597195 0.2804848 -0.3504627
000220 93 1d 81 3e 42 6a 77 3c a2 fa 4d 3d 54 f1 64 be
       0.25217876 0.015101017 0.05028785 -0.22357684
000230 d4 a2 0a bd 92 00 93 bd 53 41 df 3c 60 a6 9e be
       -0.03384669 -0.07177843 0.027252829 -0.3098631

conv0_0.0.conv2.bias f4 [4]
000000 7f a2 3d 3c 8c 00 2e be 55 77 b3 bd ea 12 84 be
       0.011574387 -0.16992396 -0.08762995 -0.2579568

conv0_0.0.bn2.weight f4 [4]
000000 f4 a7 36 3f 3f 61 70 3f 88 e5 8c 3f 64 de 3a 3f
       0.71350026 0.93898386 1.1007547 0.7299559

conv0_0.0.bn2.bias f4 [4]
000000 b3 ea da bc b6 b6 a4 bd 37 cf 0e 3f d0 66 96 bc
       -0.026723241 -0.08042662 0.55784935 -0.018359572

conv0_0.0.bn2.running_mean f4 [4]
000000 3d d9 ac bf a2 28 69 3e 6b b3 0e bf 86 53 65 be
       -1.3503796 0.22769406 -0.5574252 -0.22395143

conv0_0.0.bn2.running_var f4 [4]
000000 ad cc e7 3f 41 86 8b 3d ff cb 0b 3e c1 83 25 3f
       1.8109337 0.06812716 0.13652037 0.64654166

conv0_0.0.shortcut.0.weight f4 [4, 3, 1, 1]
000000 e1 04 46 be 51 1a 15 3e d6 10 32 3f 14 39 b6 3d
       -0.19337799 0.1456082 0.6955694 0.088976055
000010 0c 12 8b 3e 1c 50 fb be fe b3 aa 3e fd 00 04 be
       0.27162206 -0.49084556 0.33340448 -0.12891002
000020 c2 a6 8e 3e 53 86 79 3f 72 d4 6a 3f 63 c9 75 bd
       0.278616 0.9747059 0.91730416 -0.06000651

conv0_0.0.shortcut.0.bias f4 [4]
000000 e3 41 56 be 5e 3c 08 3f 8b 40 92 3e cc 1a 6f 3e
       -0.20923571 0.53217113 0.28564867 0.23350066

conv0_0.0.shortcut.1.weight f4 [4]
000000 c1 03 8a 3f 62 24 89 3f 75 ae 6c 3f ba 00 85 3f
       1.0782396 1.0714228 0.924537 1.0390847

conv0_0.0.shortcut.1.bias f4 [4]
000000 5e 2d 30 3e dd b5 6b bd be 09 d9 3e 7b 02 a7 3e
       0.17204806 -0.057546485 0.42390245 0.3261908

conv0_0.0.shortcut.1.running_mean f4 [4]
000000 bf ef 9e be 07 87 0d 3f b8 43 57 3e 75 bb 55 bd
       -0.31042287 0.5528416 0.21021926 -0.052180726

conv0_0.0.shortcut.1.running_var f4 [4]
000000 c9 0d bf 3e 9e cb 76 3c ea 94 54 3e da 21 3f 40
       0.37315205 0.015063195 0.20759931 2.9864411

conv1_0.0.conv1.weight f4 [8, 4, 3, 3]
000000 a0 5e 11 bc d3 b1 0e be eb 8f 11 3e 0f 28 c7 3d
       -0.008872658 -0.13935022 0.14215057 0.097244374
000010 08 a7 8a 3d 5a 63 0c be d9 25 6e 3d af 61 0b 3d
       0.0677014 -0.13709775 0.058141563 0.034028705
000020 d0 0f f7 3d 58 58 cb 3d 1a 71 7c 3d 6e 04 36 3d
       0.12063563 0.099289596 0.0616313 0.04443782
000030 57 30 97 be d4 cf 45 be 4e e4 81 bd 26 66 3f be
       -0.29529068 -0.19317561 -0.06342374 -0.1869131
000040 5b 8a 46 3c 22 9d 65 3d 47 08 cb 3b 98 80 7e bd
       0.012117947 0.056058057 0.006196055 -0.062134355
000050 1d 37 05 3e 26 9c a2 bd 90 05 d2 bb 8a 7f 98 3d
       0.13009305 -0.07939939 -0.0064093545 0.07446201
000060 b9 ef e9 bd b0 cc f9 bd ef ed 95 be 1f 3a 94 bd
       -0.114226766 -0.12197244 -0.2928309 -0.07237648
000070 d5 e2 3c 3e f7 dd 37 bd 55 8a a5 bc b2 9d cf bd
       0.18445905 -0.044889417 -0.020207563 -0.101375
000080 2f bb 29 3c c1 cc 37 3e b0 6e 03 bd e6 28 bb bd
       0.010359569 0.17949201 -0.03208798 -0.0913866
000090 83 c0 33 3e a6 22 0d 3e 45 15 1c 3e df e4 ef bd
       0.17553906 0.13782749 0.15242489 -0.117135756
0000a0 ac 35 87 bd 93 bf 9c 3d c0 3a 29 3c 0f ca b8 bd
       -0.06602034 0.076537274 0.0103289485 -0.090229146
0000b0 1b dd 06 3e 74 81 a3 3b e2 ac 5a 3d 3c 62 07 be
       0.13170283 0.0049897972 0.05338753 -0.13221067
0000c0 3e 21 95 bd 51 1c 37 bd 8b d7 af bd b7 cd df 3c
       -0.07281731 -0.04470474 -0.085860334 0.027319772
0000d0 8c cd e2 bd 96 9e 01 3d 22 9a c7 3d d3 3e 03 bd
       -0.11074361 0.03164538 0.097461954 -0.032042336
0000e0 ff 95 fd 3c 6e 72 fe bc d4 00 e6 3c 0d 2d 44 3e
       0.030955313 -0.031060424 0.028076567 0.1915781
0000f0 30 e0 ad bc 67 7e 4e bd fa cc 8c bc 24 14 31 bd
       -0.021225065 -0.050413515 -0.017187584 -0.0432321
000100 e0 19 8b 3d 2f a4 db 3e 17 94 32 be 4f 18 a3 be
       0.06792045 0.428987 -0.17439304 -0.31854483
000110 71 e5 69 bd 50 7b ea bc a6 bd 67 3b 06 af 84 3c
       -0.057103578 -0.028623253 0.0035360842 0.016196739
000120 87 85 80 bd b7 df b6 bd 1b ff 5b 3e 87 b6 c9 bd
       -0.06275468 -0.08929389 0.21484034 -0.098492675
000130 24 3f 4b 3e 25 4d af 3e 0c 53 2e be bb 8c 98 bd
       0.19848305 0.34238544 -0.17023867 -0.07448717
000140 3b 8a 9f 3b fb 23 27 be d0 df 38 bd 45 35 de 3c
       0.0048687733 -0.16322319 -0.04513532 0.02712501
000150 ee 1b 8b bd 0d 00 f6 bd dd a8 1e be fc b8 cd bd
       -0.067924365 -0.120117284 -0.15494104 -0.100450486
000160 a8 5c 0a 3e 1c af b4 bd ac a9 96 3d e3 14 b1 bd
       0.13511908 -0.08822462 0.07356581 -0.08646562
000170 15 1c b5 3d e5 b8 4f be 1c d3 27 3e 91 50 f1 bd
       0.08843247 -0.20285375 0.16389126 -0.11782945
000180 fa f9 f9 3d 04 d7 9e bd 13 44 d4 bd cc f1 35 3b
       0.12205882 -0.07755855 -0.103645466 0.002776253
000190 fa 58 09 bc 5f 66 34 be 21 8c 9c bd 2b 58 ba 3d
       -0.00838303 -0.17617176 -0.07643915 0.09098848
0001a0 1f fc 08 3e 52 5b 44 3d 9d 29 25 be b3 1f 16 3e
       0.13377427 0.047938652 -0.16129155 0.1466053
0001b0 00 f7 8b 3d 9d fc 6b be e0 9e 39 3e 34 1e 12 3e
       0.06834221 -0.23045583 0.18127012 0.14269334
0001c0 f3 06 00 3e b5 44 9a 3b 4b fb 93 3d 06 20 e6 bc
       0.12502651 0.0047078975 0.07225665 -0.028091442
0001d0 c8 f3 d0 bd 03 d7 73 3e d3 4c 23 3e 65 17 03 3e
       -0.102027476 0.23812489 0.15947275 0.12801893
0001e0 99 f2 98 bd 65 30 16 3e 76 68 27 bd 7e 53 1c be
       -0.07468147 0.14666899 -0.040871106 -0.15266225
0001f0 62 e7 26 be 8e c5 d0 bd 50 7c e7 3d 73 e5 90 3d
       -0.16299203 -0.101939306 0.113030076 0.07075014
000200 65 fa f5 bc 53 61 43 3e 46 5d cb 3d aa 5b c5 bb
       -0.030026624 0.19080095 0.099299 -0.00602289
000210 71 2c cd bd 95 ff eb bd 2f b6 12 3d e1 4b 55 bc
       -0.10018242 -0.11523358 0.035818275 -0.013018579
000220 c9 9c 6c 3e 61 d9 1c 3d 64 34 81 3e ef e0 d0 bd
       0.23106684 0.038293246 0.25235283 -0.10199153
000230 63 a0 6c 3d 5b 5a 4f 3e 19 ba 9b 3e 83 2f a3 3e
       0.057770144 0.20249312 0.3041542 0.31872186
000240 6d 53 21 3e f5 62 38 bd 21 e8 e1 bd 4f bb d6 bd
       0.1575448 -0.045016248 -0.11030603 -0.10484945
000250 49 0d e0 3d 8e b4 2c 3e be a8 be 3d bb be d1 bd
       0.10940034 0.16865751 0.09309529 -0.10241457
000260 37 fd 80 3c d5 ff 8c 3d ac f3 29 be c7 ad c0 3d
       0.015745742 0.068847336 -0.1659686 0.094081454
000270 00 57 01 be ca 0b 1e be 79 d6 86 be cf 51 e3 bd
       -0.12630844 -0.15434185 -0.26335505 -0.11099588
000280 87 d2 05 3e ab da ec bd bb 60 2d bd e2 d4 be 3d
       0.13068591 -0.11565145 -0.042328577 0.09317948
000290 84 31 41 be a8 22 33 be 09 b3 1a be c6 65 aa 3e
       -0.18866545 -0.17493689 -0.15107359 0.33280772
0002a0 59 1a be bd 78 a3 cc bd 28 d6 a6 3e 51 1d 00 be
       -0.09282369 -0.09992117 0.32585263 -0.12511183
0002b0 b0 ff 72 3d a5 af ac bc 54 7f e5 3b 6d 10 45 3e
       0.059325874 -0.021079848 0.007003704 0.19244547
0002c0 ec d2 af 3d 93 a3 83 be 42 67 ee bc 9c 29 06 be
       0.08585152 -0.25710735 -0.029101972 -0.1310181
0002d0 c6 0b d6 3d da 10 3e 3e 88 3a 04 3e 7f 88 46 3d
       0.10451464 0.18561116 0.12912953 0.048470017
0002e0 0d e8 b1 bd 41 81 26 3e 6b 8d bf 3d ed 2c f3 bd
       -0.08686838 0.16260244 0.09353145 -0.11873803
0002f0 de cf c4 3d ec 93 9c be 72 95 ea bd 36 70 73 bd
       0.0960996 -0.30581605 -0.11454286 -0.059433185
000300 98 95 1c bd f3 ed f6 bd 79 dc 80 be f7 1c 1f be
       -0.0382286 -0.12057104 -0.25168207 -0.15538393
000310 ac c5 e2 bc 73 93 b9 be 83 d6 34 be 35 f1 a9 3e
       -0.027682148 -0.36245307 -0.17659955 0.3319184
000320 3d 6d 44 be 3a c4 af 3c 72 6f 99 be 5c 61 99 bc
       -0.19182296 0.021455873 -0.2996784 -0.018723182
000330 2c 21 34 bc 88 54 cf 3d b0 99 15 3c 45 dd 13 bd
       -0.010994237 0.10123545 0.00913088 -0.03609969
000340 e9 2d 92 bd 88 e2 11 be 37 e5 7f ba 8b 1c d0 bd
       -0.07137663 -0.14246571 -0.00097616337 -0.10161694
000350 b9 82 ef 3c 3e f7 68 bd e4 fc fb bb f2 dc 3c bd
       0.029237138 -0.056876414 -0.007690059 -0.046109147
000360 b3 f3 8e 3c 4f b8 d9 3c 04 c7 bd 3b 17 b4 ef 3c
       0.01745019 0.026577143 0.005791547 0.029260678
000370 a9 62 ea 3c 83 e2 0f be 65 92 a4 3d 97 e9 0b be
       0.028611498 -0.14051251 0.08035735 -0.13663326
000380 83 9b 3c 3e 1f d4 95 3c fb 82 0f bc c5 ba 2a bd
       0.18418698 0.018289624 -0.0087592555 -0.041682024
000390 66 b3 d4 3d e3 aa 9f 3c 32 95 4f 3c 32 28 e4 3d
       0.1038578 0.019490665 0.012669848 0.11140479
0003a0 06 41 bf bb cb 8e 98 be da 96 95 be 52 89 21 be
       -0.005836609 -0.29796442 -0.29216653 -0.1577504
0003b0 a2 d5 3c 3c 3c 65 4e 3e a6 19 56 be 7e 05 29 3e
       0.011525543 0.20155805 -0.20908222 0.16506001
0003c0 eb b9 e9 be 91 77 7c be 56 fa a5 3d 80 49 c0 be
       -0.45649657 -0.24654986 0.081043884 -0.37556076
0003d0 43 15 16 3e 4a 54 ac bd ef f6 92 3c e0 1a e6 3d
       0.14656548 -0.08414514 0.017940013 0.11235595
0003e0 7a 3b 83 bd ca 74 26 3a 03 71 98 bd 5e 7c bd 3d
       -0.06407829 0.00063498004 -0.0744343 0.09252237
0003f0 34 fe 93 bd 36 1c f1 bd 99 21 24 3c f9 49 aa bd
       -0.0722622 -0.11772959 0.010017776 -0.083148904

conv1_0.0.conv1.bias f4 [8]
000000 f8 77 25 3d 30 9d 19 3d b9 1b 94 bd 84 6a 16 3e
       0.040397614 0.03750342 -0.0723185 0.1468907
000010 b2 79 ad bd 78 a4 e2 3c aa a1 b3 3d 8b 92 71 3e
       -0.08470477 0.027666315 0.08771069 0.23591058

conv1_0.0.bn1.weight f4 [8]
000000 4a 18 69 3f bd 32 7f 3f 13 7d 74 3f 27 d8 7d 3f
       0.9105269 0.99686795 0.9550335 0.9915795
000010 15 5c 73 3f a6 0f 88 3f 12 0f 94 3f a0 eb 81 3f
       0.9506238 1.0629776 1.1567099 1.0150032

conv1_0.0.bn1.bias f4 [8]
000000 04 4f dc 3d f3 e9 91 3e ee 24 5e 3d 1e 3e 73 bd
       0.107572585 0.28498802 0.054234438 -0.05938541
000010 46 4c ed 3e 59 b6 ca 3d d7 ca 8a bd 7f 45 1e 3e
       0.46347255 0.09898061 -0.0677697 0.15456198

conv1_0.0.bn1.running_mean f4 [8]
000000 c9 44 d4 be f2 04 9f 3e 4e b8 7a be 13 e7 d9 3f
       -0.4145873 0.3105846 -0.24484369 1.7023643
000010 89 7d c8 be 2c c5 2c bf 35 07 70 bf 6c c7 1d 3e
       -0.39158276 -0.6748836 -0.93761 0.15408105

conv1_0.0.bn1.running_var f4 [8]
000000 10 be 26 3e cb db b1 3e 13 3d 5a 3e 40 ef 71 40
       0.1628344 0.34738 0.2131236 3.7802277
000010 53 e0 6f 3e 75 6b 0e 3f f5 96 61 3f b8 ae 8d 3e
       0.23425417 0.55632716 0.8812097 0.27672362

conv1_0.0.conv2.weight f4 [8, 8, 3, 3]
000000 c2 d5 94 be 49 2e fe 3d 06 1b 32 bd 08 60 6e 3e
       -0.29069334 0.12411172 -0.043482803 0.2327882
000010 3b 2a e8 bd 8c 17 e9 bd 73 4b 9e 3d 0a d7 d3 bb
       -0.1133618 -0.11381444 0.077292345 -0.0064648436
000020 c2 f8 72 b6 d1 a5 c6 bc 10 29 e0 bb c9 f2 21 be
       -3.6205606e-06 -0.02424899 -0.0068408325 -0.15815271
000030 d6 55 8b 3d 4d 9c b0 bd 16 7c c8 3d d6 6d 8a bd
       0.06803481 -0.08623562 0.097892925 -0.06759231
000040 da 7c 11 bc 2d a0 da bc 2c 07 e6 3d 88 f9 e9 3c
       -0.008879865 -0.026687706 0.11231837 0.028561369
000050 8c 72 46 be bc 11 e0 3d 55 6a 1c bd 72 af 94 bd
       -0.19379634 0.109408826 -0.038187344 -0.07260026
000060 26 51 01 bc bf 77 c7 bd 9b d7 ff 3d 73 d8 e8 bc
       -0.007892882 -0.09739637 0.12492295 -0.028423524
000070 42 68 8f bd a2 51 2e 3d 06 2b e8 3d 83 ab 90 bd
       -0.070023075 0.04255832 0.11336331 -0.07063963
000080 75 ab 4c 3d 27 4e c8 bc 3f 88 65 bd ea 6f 1f be
       0.0499682 -0.024451328 -0.056038138 -0.15570036
000090 e2 9d cc 3e c2 05 89 be d1 26 90 bc 9a 46 4b 3d
       0.39964205 -0.26762205 -0.017596634 0.049627878
0000a0 42 9a 39 3c 30 c3 0d be ed a9 4f be 28 20 34 3d
       0.011328282 -0.1384399 -0.20279665 0.04397598
0000b0 96 21 04 bc e3 7b 3c bd 58 37 57 be 61 52 a3 bc
       -0.008064648 -0.046016585 -0.21017206 -0.019936742
0000c0 54 3d 82 3d a5 b7 35 be f4 3b 00 bd 85 eb 25 be
       0.06359354 -0.17745836 -0.031307176 -0.16203125
0000d0 b4 f6 1c 3e 7b 80 39 3d 94 48 94 3e 4f 72 8c be
       0.15328485 0.045288544 0.28961623 -0.2743096
0000e0 93 2f 86 be 0b 70 c0 3d 89 bd c3 bd f0 f9 5b 3e
       -0.2620817 0.093963705 -0.09557635 0.21482062
0000f0 d3 51 d0 3d db 0c f2 bd f8 36 06 be de 60 c2 3c
       0.10171857 -0.11818858 -0.13106906 0.02372783
000100 9b aa d0 3d e3 0b 8e 3d 4e 0c 47 3e 8e 57 ae bd
       0.101887904 0.06935861 0.19438288 -0.085127935
000110 fa 83 08 be 2c f7 18 ba 29 59 50 3d f1 44 38 be
       -0.13331595 -0.00058351713 0.05086628 -0.17995049
000120 a3 cd 9d 3d 0b 66 0b 3e 1a 07 18 3e 03 53 4f bc
       0.07705238 0.13613145 0.14846459 -0.012654069
000130 22 09 87 3c 65 84 5e bd 5f 2d 3a be 86 77 e9 3a
       0.016483847 -0.05432548 -0.1818137 0.001781211
000140 4b d5 97 be 1c 43 95 bd 86 5a eb bd 70 41 b9 3c
       -0.29654917 -0.07288191 -0.11491875 0.02261421
000150 eb 67 b2 3d 42 75 84 bd d0 28 cd bd 97 34 54 be
       0.08711227 -0.06467678 -0.1001755 -0.20723186
000160 f5 6d 98 3d e6 28 80 bd d6 59 08 bc ac 2c b3 3d
       0.07442848 -0.06257801 -0.0083222 0.08748755
000170 03 b0 5f 3e 68 d8 28 3e 89 19 c7 3d 7a a4 0f bb
       0.21844487 0.16488802 0.09721667 -0.0021918104
000180 2b 11 fe bc 71 b6 80 bd cf 34 2e be 4d f8 c6 3d
       -0.031014046 -0.06284798 -0.17012332 0.09715328
000190 40 07 4e 3e 4b ed 4f 3d 13 75 ce bd 49 2a 92 3e
       0.20119953 0.05076341 -0.10080924 0.28547886
0001a0 4c 4c 96 3d eb bf f4 bc 4b 87 1e 3d 51 a0 2a be
       0.07338771 -0.02987667 0.038703244 -0.16662718
0001b0 17 18 4f be f2 05 88 3d 05 66 cf 3d 11 ec dc 3d
       -0.20224033 0.06641759 0.101268806 0.107872136
0001c0 e9 1e 10 be 27 f2 75 bc cb 1e bf bd e0 9b 12 bd
       -0.14074291 -0.015011347 -0.09332045 -0.035793185
0001d0 d7 ed 8e 3d 32 64 e9 3c 48 5a 49 bd 1b 92 18 3c
       0.06978958 0.02849016 -0.049158365 0.009312178
0001e0 07 b9 fb 3c 39 40 11 3d 42 47 16 be e3 7b 25 be
       0.030727876 0.035461638 -0.1467562 -0.1616054
0001f0 5b 29 88 bd 96 e4 4a be 7d 45 51 bd 24 8f b2 3c
       -0.06648513 -0.19813761 -0.05109166 0.02179677
000200 c2 6a 58 bd 5f a1 2a be 4d e2 bc bd 82 98 31 3e
       -0.052836187 -0.1666312 -0.09222851 0.17343333
000210 52 f7 59 be 37 84 9c be 84 5a 3f be a9 c4 98 3c
       -0.21285751 -0.30569622 -0.18686873 0.018648462
000220 78 fb 1f 3e a0 e2 55 bd 41 1a 14 3e 04 83 22 3e
       0.15623271 -0.05221808 0.1446314 0.15870291
000230 3b fc 6e be ac 42 97 bd 09 8b b8 3d 6f 59 53 be
       -0.23338406 -0.073857635 0.09010894 -0.20639585
000240 2b e5 f9 3c a3 2f 44 bd c2 11 00 3e bb b2 c7 3c
       0.030504784 -0.047896992 0.12506774 0.024377218
000250 f9 45 01 3e 87 b1 ef 3d 44 b8 9e bd 3e 6d 7a 3d
       0.12624349 0.117037825 -0.0774999 0.061139338
000260 75 0c 1d be 03 75 dd 3c 0d de 1e 3d 7d e0 d2 3d
       -0.15336783 0.027033335 0.038785983 0.10296724
000270 46 7b fa bd 57 01 51 be bc 0e 2e be c4 ce a6 bd
       -0.12230544 -0.20410667 -0.16997808 -0.08144906
000280 32 e8 a2 3c ab f7 6a bc 31 51 90 bd e6 2a d7 bd
       0.01988611 -0.014341275 -0.07046736 -0.10506229
000290 5e e7 ce 3d ad 37 0d 3e e2 3c f2 3b 3c 89 6f 3d
       0.101027235 0.1379077 0.0073925117 0.058480486
0002a0 ac 2d 7d bd ac a8 6c bd 28 04 56 3d 0b 5c 8a 3c
       -0.061811134 -0.057778046 0.052250057 0.016889593
0002b0 e7 2c ae bd 05 06 ec 3d 24 94 dd bd a3 3b 03 be
       -0.08504658 0.11524586 -0.10819271 -0.12815718
0002c0 85 35 be bd b7 42 17 be 9c 45 64 3e 19 11 48 3e
       -0.09287552 -0.14771543 0.22292179 0.19537772
0002d0 f2 07 4a bd 0a 80 96 bd 7f af 12 bc e5 a0 f2 be
       -0.049323983 -0.0734864 -0.008952974 -0.47388378
0002e0 ef cb ee be b3 86 82 3c 62 db 9a bd 6d f3 1b bd
       -0.46639964 0.01593337 -0.07561375 -0.038073946
0002f0 12 b1 64 3c e9 61 2c be 81 c5 43 be fc c6 e9 bd
       0.0139582325 -0.16834225 -0.1911831 -0.114149064
000300 d9 e2 e3 bd 5b 69 5b be 4a 11 7d 3d f2 ed a5 3c
       -0.11127252 -0.21426909 0.061784066 0.020255063
000310 c9 70 25 3e e7 79 4d bd 30 d0 71 3e e2 2a b5 3e
       0.16156305 -0.050165083 0.23614573 0.3538428
000320 c7 e5 6a 3e b5 06 c6 3e 3e 2f a1 3e e6 26 8a 3d
       0.22939216 0.38676992 0.31481355 0.067457005
000330 d6 ba 85 3e 99 95 04 3e 68 39 9f 3e 91 a7 ac bd
       0.26119107 0.12947692 0.31098485 -0.08430398
000340 f8 74 25 be 86 8b 40 bc dc ab 9b bd 2a 3b d6 3d
       -0.16157901 -0.011752015 -0.07601139 0.104605034
000350 13 fc eb bd f3 78 6b 3e a3 ed 0e be 62 a0 9a bb
       -0.11522689 0.22995357 -0.13957839 -0.004718826
000360 dd ad 24 be a8 b9 5e be dc 0d 12 3e cf 4f 37 3d
       -0.16081949 -0.2175051 0.142631 0.044753846
000370 4d 7f d7 3c 7e a0 75 3c 41 0f d5 3d 47 43 62 be
       0.026305819 0.014991878 0.104033 -0.22095977
000380 78 b2 c4 3d 8e e5 0f 3e dc f5 71 3d 89 e2 26 be
       0.09604353 0.14052412 0.05907236 -0.16297354
000390 80 ca a2 3d 26 c3 1e 3e 3c 99 06 bc 28 ea 03 be
       0.0794878 0.1550413 -0.008215245 -0.12882292
0003a0 c8 3f c8 bc e2 ec 8d bd a7 34 45 bd 46 93 73 3d
       -0.024444476 -0.069299474 -0.048145916 0.059466623
0003b0 d6 4a 38 bb fe 90 55 3e 2d 4c 19 3d 5c a5 43 3e
       -0.0028120778 0.20856091 0.037426163 0.19106048
0003c0 0d cb 31 3e 1b 08 a6 3d dd 90 c7 bd 8e 82 f0 3b
       0.17362614 0.08107015 -0.09744427 0.007339782
0003d0 26 e7 26 3d 58 98 94 bd be 98 12 3e 5b 74 8a 3b
       0.040747784 -0.0725562 0.14316079 0.0042252964
0003e0 24 f8 c4 bd 2a 56 86 3b 20 2a b7 3d c8 6e 63 3e
       -0.096176416 0.004099627 0.089435816 0.22210228
0003f0 12 db 9f 3e 10 be 0b be c3 b6 2a be 8c 25 2f be
       0.31221825 -0.13646722 -0.1667128 -0.17104167

conv1_0.0.conv2.bias f4 [8]
000000 fc a7 11 be ba 48 c2 3d f5 74 a9 bd 79 3d 35 bd
       -0.14224237 0.09486528 -0.08274261 -0.044248078
000010 00 7a e2 3c 9c 88 7c 3a 7a e4 1c bd 26 29 86 3d
       0.027646065 0.00096333935 -0.03830383 0.06550817

conv1_0.0.bn2.weight f4 [8]
000000 17 ca 95 3f ad 5d 55 3f 4e 13 43 3f 0b ec 6b 3f
       1.1702298 0.8334606 0.7620133 0.9215705
000010 aa 84 83 3f ba 3c 6c 3f 4e a2 84 3f 2e 0c 7f 3f
       1.0274861 0.9228016 1.0362031 0.9962796

conv1_0.0.bn2.bias f4 [8]
000000 73 74 53 3e 84 37 8b bd 16 eb 92 bd 03 e5 a7 3e
       0.2064989 -0.06797698 -0.07173745 0.3279191
000010 c5 db 31 3e 34 28 e5 3c 92 3c cb 3e 93 3e 5d 3d
       0.17368992 0.027973272 0.3969465 0.054014754

conv1_0.0.bn2.running_mean f4 [8]
000000 04 8e 2e bf 59 3d 19 bf a0 0d 62 be b8 d4 dc 3e
       -0.6818545 -0.59859234 -0.2207551 0.43131042
000010 89 a2 6a 3d 4d 17 39 be e7 2e 3c 3e 65 97 28 3f
       0.05728391 -0.18075295 0.18377267 0.6585601

conv1_0.0.bn2.running_var f4 [8]
000000 b5 2a 8e 3e 33 5c 24 3e 1b c5 84 40 c2 94 f7 3e
       0.27766958 0.16050796 4.1490607 0.4835568
000010 2b c1 7a 3e 2c 5a cf 3e af 15 a0 3e ae 91 87 3f
       0.2448775 0.40498483 0.31266543 1.0591333

conv1_0.0.shortcut.0.weight f4 [8, 4, 1, 1]
000000 ae 97 c0 bd 7b 13 80 3d 0a 9f bb 3e 59 6c 01 3f
       -0.094039306 0.062537156 0.36644775 0.5055595
000010 f5 ff c3 3d 19 1b 90 be 40 da dc 3e ee 28 27 3e
       0.09570304 -0.28145674 0.43135262 0.16324207
000020 33 c8 d0 bc ad dd 0d bf 06 08 a9 be e0 99 4a 3f
       -0.025486087 -0.55416375 -0.33013934 0.79141045
000030 33 9b 05 bf 40 a5 db be dc ca 2f bf 36 80 8b be
       -0.5218994 -0.42899513 -0.68668914 -0.27246255
000040 c9 b8 83 3e 9c fc 0b be da c6 22 3e 76 61 9c 3e
       0.25726917 -0.13670582 0.15896168 0.30543107
000050 14 68 d5 3e 68 bd ec 3e c9 ad 7e be ae 03 b9 be
       0.41680968 0.46238256 -0.24870981 -0.3613562
000060 a9 1e 3a 3f 12 a9 a5 bc 41 14 bd be cb 92 e5 3e
       0.72703034 -0.02022222 -0.36929515 0.44838557
000070 a6 50 71 be bb 43 b6 3e 1f d9 fb be 71 1c 1f 3e
       -0.23565921 0.3559855 -0.49189088 0.15538193

conv1_0.0.shortcut.0.bias f4 [8]
000000 40 5c c6 3e 9e d5 cf 3d 2d ef db be 7a d4 71 3d
       0.38742256 0.10148166 -0.42955914 0.059040524
000010 1f df 4d 3e 01 c9 a2 3e 60 bf bc 3c f1 8b a1 bc
       0.20104645 0.3179398 0.023040473 -0.01972005

conv1_0.0.shortcut.1.weight f4 [8]
000000 3a 5e 69 3f 15 7d 77 3f 41 43 7c 3f 2f b6 8e 3f
       0.91159403 0.96675235 0.9854012 1.1149348
000010 57 a4 6e 3f 98 a8 87 3f eb 9c 70 3f 3f bd 7c 3f
       0.9321951 1.0598326 0.9398944 0.98726267

conv1_0.0.shortcut.1.bias f4 [8]
000000 d1 1a 5f 3e 05 15 1e 3d de fb 54 bd 85 2d 68 3d
       0.21787573 0.038594265 -0.05199801 0.056684036
000010 83 37 7b 3d 29 04 94 bd 90 4b 5f 3e c9 73 91 3d
       0.061332237 -0.07227356 0.21806169 0.071021624

conv1_0.0.shortcut.1.running_mean f4 [8]
000000 06 3d 8f 3f 74 18 1d 3f c4 15 af be e9 af b4 bf
       1.1190498 0.6136544 -0.34196293 -1.4116184
000010 f4 c8 3f 3f 77 5d 91 3e 8c cf 14 3f ce 68 cd be
       0.74916005 0.2839162 0.5812919 -0.40119022

conv1_0.0.shortcut.1.running_var f4 [8]
000000 a4 d6 1c 3f 42 a2 0c 3f 24 32 63 3f d3 a6 e0 3f
       0.61265016 0.54935086 0.88748384 1.7550911
000010 1c bc 21 3f 30 99 43 3e 1a 64 a1 3f 4d 4f d3 3e
       0.6317766 0.19101405 1.2608674 0.4127144

conv2_0.0.conv1.weight f4 [16, 8, 3, 3]
000000 e3 3f 2e bd 24 1c 18 be 55 0d 05 3d 82 de 3e be
       -0.042541396 -0.14854485 0.032483418 -0.18639567
000010 40 ce f7 3d 09 3c b6 bd 7b 62 90 bc e8 29 f1 bd
       0.12099886 -0.088981695 -0.017625084 -0.11775571
000020 52 85 30 3e 6a 2f 1b be c1 00 13 3e 12 17 31 3d
       0.17238358 -0.15154806 0.14355756 0.043234892
000030 e0 a7 8b bd 01 f3 b1 3b 4a 4b 7a 3e fc eb ad 3d
       -0.06819129 0.0054305797 0.24442783 0.08492276
000040 87 df 3c bc 95 94 6a 3e f9 39 b2 3a cb 5d 8c 3d
       -0.011527902 0.22908242 0.00135976 0.06853827
000050 f0 91 d6 bc 74 85 db 3c 32 35 a1 3d 97 0e 61 be
       -0.026192635 0.026797034 0.07871474 -0.21978222
000060 bc b2 0d be 0b 29 eb bd be e3 42 be 86 4b 56 be
       -0.13837713 -0.11482438 -0.19032189 -0.20927247
000070 03 eb 9e bd ee c2 39 bd 06 59 26 3c b2 db d3 bd
       -0.07759669 -0.045351915 0.010153061 -0.10344638
000080 13 8a 2b bc 11 c8 a2 3d 30 b8 61 3d 63 df e0 bd
       -0.010469931 0.07948316 0.055107296 -0.10980108
000090 29 92 dd bd b1 40 72 be db ef 20 3d aa ce 96 3d
       -0.108188935 -0.2365749 0.039291244 0.07363637
0000a0 e8 56 01 be cf 52 cc bd 72 71 07 be 37 ca 8e bd
       -0.12630808 -0.09976732 -0.1322687 -0.06972163
0000b0 21 b8 30 3d 2d d5 33 be cd 51 28 3d d3 1c 10 bc
       0.04314435 -0.17561789 0.041093636 -0.008795935
0000c0 8a 0b e7 3d c7 27 bd 3b 34 c4 ba bd 63 07 98 3c
       0.11281498 0.005772564 -0.09119454 0.01855821
0000d0 16 31 e8 bd 82 88 1f bc 0d da ee bd 7a 07 fa bc
       -0.113374874 -0.009737136 -0.11662684 -0.030521143
0000e0 98 a0 93 3c 8c 6c 92 be b0 18 35 be b2 b0 77 3d
       0.018020913 -0.2859844 -0.17685199 0.060471244
0000f0 d5 a7 3a 3e 3c df 5c bc 57 54 38 bd b0 c2 c8 3d
       0.18228085 -0.013480958 -0.045002308 0.09802759
000100 54 b7 23 3e 4e 17 91 3d 39 03 97 3d 84 dc 01 3e
       0.15987903 0.07084523 0.073736615 0.12681776
000110 43 1e 6a bd 80 3b 65 bb 60 4d 16 3d 6f 25 ae bb
       -0.057157766 -0.0034978092 0.036694884 -0.005314521
000120 ad 8d 34 3c 50 57 7c bd 2b 59 ff 3d 85 ec 09 be
       0.011020106 -0.061606705 0.12468179 -0.13469131
000130 61 8e 62 bd a8 34 4e 3e 85 67 15 3b 26 b8 2b 3e
       -0.055311564 0.20137274 0.0022797298 0.16769466
000140 0c 78 37 be f9 f0 4b 3d 1b 4e af bd 41 17 12 3c
       -0.17916888 0.049790356 -0.08559819 0.008916677
000150 57 05 72 3c 09 ad 7f 3d 3e 82 ca bc f2 da 38 3e
       0.014771781 0.06242088 -0.024720307 0.18052271
000160 be f7 1d bd e1 1a 0a be 37 c0 8e 3c ff a4 bf bc
       -0.038566343 -0.13486816 0.01742564 -0.023394106
000170 6d 8d 50 3c c9 d0 ef 3c 38 48 63 bd 0d b8 6a 3e
       0.012729031 0.029274361 -0.055488795 0.22921772
000180 e8 63 14 bd d8 57 b0 3d 1e 0f f6 bc 2f 88 c3 3d
       -0.03622809 0.08610505 -0.030036505 0.09547459
000190 c3 ee d0 bd 2f 1e 1c 3d 7e 4e a4 bc 17 05 8d bd
       -0.1020179 0.038114723 -0.02005696 -0.068857364
0001a0 9b d5 1b be 70 4c 94 3d 72 c2 35 bd ce eb a7 3d
       -0.15218203 0.07241142 -0.04437489 0.08199273
0001b0 e4 fb 3a be ee 32 53 bd 26 8e 5f 3e 96 12 7b 3b
       -0.18260151 -0.051562242 0.21831569 0.0038310639
0001c0 7b 24 02 be 92 17 51 3e 9a a1 33 bd d0 e7 4e bc
       -0.12709229 0.20419148 -0.043855287 -0.012628511
0001d0 db b1 c8 bd ea 06 91 bd f7 87 cd bc cb 4d e1 bd
       -0.09799548 -0.07081397 -0.025089247 -0.11001166
0001e0 18 ba f2 bd 8e 10 a7 bb 98 22 9a bd 4d e1 71 3b
       -0.11851901 -0.005098409 -0.075261295 0.0036907971
0001f0 cf 4f 1a be 47 6c c9 3d 54 b5 3c be 09 79 97 bc
       -0.15069507 0.098351054 -0.18428546 -0.018490331
000200 bd d9 af bc 67 eb eb bd c2 21 38 3e f6 fd b9 3d
       -0.02146613 -0.11519509 0.17981628 0.09081642
000210 b0 3a 7e bd f6 1a 76 3d 06 22 cc 3c 0a ad 76 3d
       -0.062067688 0.060084306 0.024918567 0.060223617
000220 9e 19 36 bd 70 d5 80 be 59 64 5e be f1 88 3e bd
       -0.044458024 -0.2516284 -0.21717967 -0.046517316
000230 48 fe 62 be 68 91 2d 3e b5 fe 91 3d 15 12 21 be
       -0.22167313 0.1695 0.0712866 -0.15729554
000240 6a 24 58 be 3d 73 32 3e 6a 49 e1 3d a9 0b 6b 3c
       -0.21107641 0.17426772 0.11000331 0.014346042
000250 8b de b1 3d c4 a0 65 bd c1 fc e6 bc 39 7c c6 3c
       0.08685025 -0.05606152 -0.028196694 0.024229156
000260 7f b6 e7 3d d2 ab b7 3c 0f d9 50 3d 4f 0f 0b 3d
       0.11314105 0.022420797 0.050988253 0.033950146
000270 49 84 64 3e 73 a3 8e bd cc 9d b8 bc e0 2a b2 3d
       0.22316088 -0.06964769 -0.02253618 0.08699584
000280 be 3b a9 3d cd fe 9e bd 65 8f 0f be 6d 57 e3 bd
       0.08263348 -0.07763443 -0.14019544 -0.111006595
000290 f9 a2 a8 bc 76 65 b0 3d a5 a0 10 3e af fb 30 bd
       -0.020585524 0.08613102 0.14123781 -0.043208774
0002a0 d7 e5 f9 bd c5 d2 3a bd 82 e2 19 3d 7f 1f b6 3d
       -0.122020416 -0.04561116 0.03756953 0.08892726
0002b0 58 77 2e 3e 6e 72 53 3e 06 be 46 3e de 3f 1a 3e
       0.17037714 0.2064912 0.19408426 0.15063426
0002c0 70 e0 d2 3d 6c 40 e5 bc 2b 74 9a 3e c1 d8 b6 3d
       0.10296714 -0.02798482 0.30166754 0.08928061
0002d0 13 2d dd 3c 77 66 a2 bc 4f fc 4c bd 7b 3f f8 bc
       0.026999032 -0.01982425 -0.050045308 -0.030303707
0002e0 45 e3 18 3c af 5f 5e bd 52 cc 54 3e 66 44 55 bc
       0.009331529 -0.05429047 0.20781067 -0.013016796
0002f0 c4 7c 83 3d b0 91 e6 3d c2 80 fc bd d4 8f be bd
       0.064202815 0.112582564 -0.12329246 -0.09304777
000300 c4 1c 09 be c3 5b b0 bd 51 1f 94 bd 85 a4 27 be
       -0.1338988 -0.08611252 -0.07232536 -0.16371353
000310 7e 72 87 be 6f f1 5c be e7 5c b0 3d 0c f2 22 be
       -0.26454538 -0.21576475 0.0861147 -0.15912646
000320 df 13 66 bd 4a 33 0a 3d d6 3c 7a bd ab 2b 1b be
       -0.056171294 0.03374032 -0.061093174 -0.15153377
000330 b0 af f9 bc 44 b6 f8 bd b8 29 13 bc e5 53 00 3e
       -0.030479282 -0.121441394 -0.0089821145 0.12532003
000340 69 f6 aa 3d 65 23 71 3d 12 bd 8b 3c a5 a3 09 be
       0.0834778 0.058871645 0.01705793 -0.13441332
000350 2a a4 be bb 7c de f5 bc 8d 15 81 be 3c 2d 1f bd
       -0.0058179097 -0.030013315 -0.25211754 -0.0388615
000360 ef b3 ba bc f4 88 12 3d 60 49 da bc 76 db fd bc
       -0.022790877 0.03577514 -0.026646316 -0.030988436
000370 70 e1 a2 bd 0c f8 00 bd 1b b0 93 bc af ca 1c be
       -0.07953155 -0.031486556 -0.01802831 -0.15311693
000380 d8 e3 5a 3d 49 76 0b 3e 87 b0 d2 3d 46 69 43 3e
       0.053439945 0.13619341 0.10287576 0.19083127
000390 65 c8 18 3d 75 cc 8b bc 87 61 00 be 45 d3 58 bd
       0.037300486 -0.017065266 -0.12537204 -0.052935857
0003a0 c9 e7 12 bd 4f eb 95 3d fc 35 e0 3d b1 e1 9e bc
       -0.03586558 0.07320272 0.10947797 -0.019394727
0003b0 9b 13 59 3d 5d a9 ae 3d 8f 94 0f 3d bc 82 d8 bd
       0.052997213 0.08528397 0.035053786 -0.105718106
0003c0 e7 72 34 3d c8 ee 05 bd a8 a0 03 be 41 b3 31 be
       0.044054892 -0.032698423 -0.12854254 -0.17353536
0003d0 f6 36 16 3e 86 5f c9 bd 61 f8 61 bd 46 9a 31 3e
       0.14669403 -0.09832673 -0.055168513 0.17344007
0003e0 64 2b e8 3c bf 3e 61 be 93 aa 99 3d 30 a8 16 3e
       0.028341003 -0.21996592 0.075032376 0.14712596
0003f0 1e de 8c 3d f7 08 1a 3e f9 c3 04 3d b5 a2 13 be
       0.06878303 0.15042482 0.032413457 -0.14417537

conv2_0.0.conv1.bias f4 [16]
000000 43 cf 8b 3d 8a d3 26 3d 1b 78 cc 3d 0d 0c 85 bc
       0.068266414 0.040729083 0.09983846 -0.016241098
000010 0c a6 05 3b 20 5d 55 bd 27 1d c2 3d e9 ca 8a 3c
       0.002039316 -0.052090764 0.094782166 0.016942458
000020 b0 00 e2 3d 47 ed 1f bd 8f 36 a1 bb 0d 62 3a 3c
       0.110352874 -0.039044645 -0.004919834 0.011375916
000030 c6 11 39 3e 39 33 aa bd 22 c8 67 bd eb 65 a5 bd
       0.18073186 -0.08310551 -0.056587346 -0.0807608

conv2_0.0.bn1.weight f4 [16]
000000 0c f2 7e 3f 29 a8 84 3f 65 65 7d 3f a8 72 85 3f
       0.99588084 1.0363818 0.9898284 1.0425615
000010 e1 ae 75 3f 05 e5 6e 3f c3 a4 87 3f ed 1f 87 3f
       0.9596997 0.93318206 1.0597156 1.0556618
000020 18 50 86 3f 0d 0e 79 3f 3e d9 72 3f f1 36 89 3f
       1.0493193 0.97287065 0.94862735 1.0719892
000030 1a c8 83 3f 3e 47 72 3f 32 5d 8e 3f d0 b6 6f 3f
       1.0295441 0.94639957 1.1122191 0.93638325

conv2_0.0.bn1.bias f4 [16]
000000 6b 01 c4 3c c3 6a a1 3d 27 da 18 3d 06 ce 85 3d
       0.023926457 0.07881691 0.03731742 0.065334365
000010 36 55 57 bd ee 0a 1a bc 4f d0 c6 bc d4 97 ef 3d
       -0.052571498 -0.00940202 -0.024269251 0.11698881
000020 05 cf 0b 3e 12 ba 2b 3e 49 ef 55 3c 45 cd 8f 3d
       0.1365319 0.16770199 0.013057538 0.07021574
000030 c0 5f 4d 3d 6c 51 8e 3d f0 fb db 3d 7e 29 2f be
       0.050140142 0.06949124 0.10741413 -0.17105672

conv2_0.0.bn1.running_mean f4 [16]
000000 40 5b 7c bf 0e 16 04 bf a5 d8 48 3e 82 1c 8b be
       -0.98576736 -0.5159615 0.19613893 -0.27170187
000010 8e 0a b1 3f 0a a0 fd 3d d8 eb bb bf 5b a0 95 bf
       1.3831346 0.12384041 -1.4681349 -1.1689562
000020 6e f7 8a be 83 0b 5c 3f 35 18 0b 3f c5 d0 70 bf
       -0.271419 0.85955065 0.5433381 -0.9406856
000030 16 80 59 bf e7 22 d3 3e 4b 0e 49 bf 60 8a 1b bf
       -0.8496107 0.41237566 -0.78537434 -0.6075802

conv2_0.0.bn1.running_var f4 [16]
000000 ec de c1 3f a0 0a 20 3f a5 7b 33 3f a2 e6 e8 3e
       1.5146155 0.6251621 0.7011054 0.4548846
000010 dc 3c d2 3f 8b d4 ee 3e 71 40 b8 3f 8e ee 93 3f
       1.6424823 0.46646532 1.4394666 1.1557176
000020 6b d5 06 3f 68 3b 80 3f e8 30 4e 3f a1 ba 8b 3f
       0.526694 1.0018129 0.80543375 1.091633
000030 cc f0 95 3f 03 41 13 3f 1e 60 55 3f 13 9f cb 3f
       1.171411 0.57521075 0.8334979 1.5907921

conv2_0.0.conv2.weight f4 [16, 16, 3, 3]
000000 df a3 26 bd bc f5 70 3d 45 d2 c1 3d 5a 40 07 3d
       -0.040683623 0.0588281 0.09463934 0.033020355
000010 ac a3 02 3e fd 17 db bb 28 02 c2 3d 3c e7 c6 bd
       0.12757748 -0.0066862092 0.094730675 -0.09712073
000020 c5 1b 24 be cd ed cd 3b 2d 42 5d bc 57 0d 56 3e
       -0.16026218 0.0062844516 -0.013504547 0.20903526
000030 31 01 e4 3d 54 ce 91 3d 1e f1 04 3e 12 85 f3 3d
       0.1113304 0.07119432 0.12982604 0.118906155
000040 ea 39 25 bb 33 b0 f7 bd d6 d9 5c bd 0e 7a e1 3c
       -0.0025211521 -0.12094154 -0.053918682 0.02752402
000050 25 f2 b2 bd 2c f0 dc bd 8c 25 aa 3d 84 d8 e6 bc
       -0.08737592 -0.10787997 0.08307943 -0.028179415
000060 f4 5b 12 be 20 1a 45 3d 69 6e 27 3d ab a6 69 3a
       -0.1429289 0.048120618 0.04087678 0.000891308
000070 b0 2d 15 be bb 2c 5a 3d f9 b2 4d bd de 05 c5 3d
       -0.1456821 0.053265315 -0.05021951 0.0962026
000080 39 69 55 3c 21 5f 0c bd 51 8b 3f bc 99 f7 cf bd
       0.013025575 -0.03427041 -0.01169093 -0.101546474
000090 01 7d 9c bd c8 e9 07 be 33 c3 75 3c 49 ab a6 3c
       -0.0764103 -0.13272774 0.015000152 0.020345347
0000a0 dd 28 a4 39 d8 19 4d 3e ec 51 d2 3c a2 4a 3c 3e
       0.00031310963 0.2002939 0.025673829 0.18387845
0000b0 52 45 93 bd 3e 16 fe bd 24 98 59 bd 68 89 c0 bd
       -0.07190956 -0.12406586 -0.05312361 -0.09401208
0000c0 6f ce c2 3d 09 a3 12 3e 96 f3 55 3d 49 2b 56 bc
       0.0951203 0.14320005 0.052234255 -0.013071843
0000d0 b6 1f c3 3d 68 01 03 bb c9 64 fd 3d 7d ec 31 bd
       0.09527533 -0.0019989852 0.12372739 -0.043438423
0000e0 ce 3f 27 bc b7 1d 12 3e 8b 02 e0 bc 03 42 f6 3b
       -0.010208083 0.14269148 -0.027344963 0.0075151934
0000f0 e2 82 f9 bd d5 5b e9 3d 8c 01 1d 3e 4d e9 cc bc
       -0.12183167 0.11394469 0.15332621 -0.02501359
000100 92 a4 53 ba 81 d7 24 3e c4 ce 73 bd eb 2e cf bd
       -0.0008073534 0.16097833 -0.05952336 -0.10116371
000110 f2 0e ff 3d a8 96 6a 3e db 55 77 bd 6c 07 69 be
       0.124540225 0.22909033 -0.060384613 -0.22756737
000120 89 9e 11 be b3 6d 15 be b4 8e 48 3d 92 87 5a be
       -0.14220633 -0.14592628 0.048964217 -0.21340778
000130 c2 ad 3a be ee b5 d3 3d 54 15 e0 bd 5d 5c ba bc
       -0.18230346 0.10337435 -0.10941568 -0.02274912
000140 b9 8a b1 bd 7b c3 30 be 09 d3 51 be 40 e2 95 bc
       -0.08669037 -0.1726207 -0.2049066 -0.018296361
000150 1c b1 13 bd 3c 7e 5a bd ad c7 df bc 90 2f ed bd
       -0.036057577 -0.053343043 -0.027316893 -0.115813375
000160 fa 7d a0 3d 90 48 77 bb 89 ac 9e bc 6a 6a 88 bd
       0.07836528 -0.003773246 -0.01936938 -0.06660922
000170 f1 5d de 3d c8 34 52 bd 6c 08 5c bd 8c f5 56 3e
       0.10857762 -0.051319867 -0.05371897 0.20992106
000180 c0 eb df 3c 27 97 f2 3d e0 9b c2 bd b7 c7 df bd
       0.027334094 0.11845236 -0.09502387 -0.109267645
000190 ab 35 82 bd ab 61 22 3d e2 18 14 3e 05 72 ef 3d
       -0.063578926 0.039643925 0.14462617 0.116916694
0001a0 c2 d3 bb bd 56 92 4a bc 70 ed 3d be df a1 f6 bc
       -0.09171249 -0.012363991 -0.18547606 -0.030106483
0001b0 c1 56 f5 bb 84 a9 cd 3d 9f 89 17 bd 3f 4d 8f 3d
       -0.0074871485 0.10042098 -0.03699648 0.069971554
0001c0 3b b5 f0 3c b5 a2 c4 3d f5 cc a8 bd 60 2a 48 bd
       0.029383292 0.096013464 -0.082422175 -0.048868537
0001d0 37 63 10 bc 79 87 e9 bd 03 9e dd 3d 11 48 4d 3e
       -0.008812717 -0.114027925 0.10821154 0.20047022
0001e0 75 b8 3c 3d 35 91 cf bd 6c 1b 9f 3d 5e 6c 47 3d
       0.04607435 -0.10135118 0.07768902 0.04868733
0001f0 5c 31 08 3e 81 61 14 be 7b b1 8a 3d 76 1b 2f be
       0.13300079 -0.1449032 0.06772133 -0.1710032
000200 0e 89 9f bd e2 64 88 3e bc d9 bc 3d 9f f7 2b 3d
       -0.07789813 0.26639467 0.09221217 0.041984197
000210 56 89 5c 3e 63 2b 42 3d dc 05 cd 3d 60 5f 86 bd
       0.21536765 0.047404658 0.10010883 -0.0656116
000220 dc 40 72 3d cd 2d 8c bc 7e 87 a7 3c aa f6 b1 3d
       0.059143886 -0.017111683 0.02045035 0.086896256
000230 5c f1 7f bd 89 19 e7 bd 85 a9 8b 3d 50 1e cf 3d
       -0.062486038 -0.11284167 0.06819443 0.101132035
000240 03 17 94 be a7 bf 52 3d fd 5c 94 bc d8 fa 9d b9
       -0.28923807 0.051452305 -0.018110747 -0.00030132267
000250 ae 6f 80 bd 26 8c ec bd 95 4b 59 3d 90 80 06 bd
       -0.06271301 -0.11550169 0.053050596 -0.03283745
000260 91 a4 fb 3d 9d 58 82 be 13 e9 27 be cf 48 41 bc
       0.12287248 -0.25458232 -0.16397505 -0.011797144
000270 57 a4 bc 3b 25 e2 d9 3c 46 34 b8 3c 1b 23 ac bd
       0.0057568955 0.026597092 0.022485863 -0.08405133
000280 9e 82 6e bd f0 80 c1 bc a5 82 95 3c 8c dd d7 3d
       -0.058230035 -0.023621053 0.018250773 0.105403036
000290 8a e6 1a 3c 12 63 c8 3d 20 ea f3 3d 0d 9c 01 be
       0.009454379 0.09784521 0.1190989 -0.12657185
0002a0 9e 2a 2e 3e 86 f1 09 3e 27 ab 99 bc c2 8a fb bd
       0.17008445 0.1347104 -0.01875837 -0.12282325
0002b0 e9 65 4f be 3c e2 ef bd 46 33 a0 bd 20 38 93 bc
       -0.2025372 -0.11713073 -0.0782228 -0.017971098
0002c0 bf b6 8e bc 29 bb 59 bd 9c 93 93 bd 41 cd a9 bd
       -0.017421125 -0.053157005 -0.07205889 -0.08291102
0002d0 86 7c b2 3d f1 1d d3 3d fc 6d d0 bc 92 09 77 3d
       0.08715157 0.10308445 -0.02544307 0.06031186
0002e0 7a 1d 21 3e 96 20 47 3d f0 e2 9b 3c f3 bd 0d bd
       0.157339 0.04861506 0.01902911 -0.034604978
0002f0 5d d1 48 3c 5a 77 d8 bd d4 cb b1 3d 03 7b 05 be
       0.012256947 -0.105696395 0.08681455 -0.13035206
000300 1c 12 0c 3e 3a f6 73 3d 90 97 70 3e 52 89 66 bd
       0.13678783 0.05956099 0.23495317 -0.056283303
000310 9e 73 37 bd cb 2d bd 3d b1 1f 44 3c fe f3 6b 3d
       -0.044787996 0.0923725 0.011970446 0.057605736
000320 d0 d8 52 bd 40 1e 84 bd 63 4e 34 3d ee 2c 1e bc
       -0.0514763 -0.06451082 0.044020068 -0.009654267
000330 39 78 2e bd ad 88 0e 3e 84 eb 49 3e 54 df 7d bc
       -0.042595122 0.13919325 0.19718748 -0.01549514
000340 d8 d3 9b bd 98 6e c1 3d 66 2f 6b 3c e9 47 d6 bd
       -0.07608765 0.09444922 0.014354562 -0.104629345
000350 c7 b9 6f 3d 38 2d b5 bd 3d 28 0d bc f0 64 10 bc
       0.05852678 -0.088465154 -0.008615551 -0.008813128
000360 b9 df 5a 3d 81 37 53 bd 12 ae ea 3d 27 3d 33 be
       0.053436015 -0.051566605 0.114589825 -0.17503797
000370 a0 b5 7e 3d fe 90 94 3d 8a 77 f4 bd b9 d5 94 bd
       0.06218493 0.072542176 -0.11936863 -0.07267327
000380 18 13 3b be 8a af cb 3d a7 66 60 bc 99 36 8f 3d
       -0.18269002 0.09945591 -0.013696349 0.069928356
000390 b6 36 6e 3d 2c 0a cd 3d 09 25 21 bd 17 22 16 3d
       0.058157645 0.10011706 -0.03934196 0.036653604
0003a0 f9 f8 28 3e 2b d3 d5 3d 80 fd 47 bd b4 2b 92 3d
       0.16501226 0.10440668 -0.04882574 0.07137242
0003b0 10 7f 55 bc 45 d4 30 be f9 64 38 3d f2 1d d5 3d
       -0.013030782 -0.17268474 0.04501817 0.10406102
0003c0 1d fb f1 3a dd f9 05 bd 79 fd a0 bd ab cd 15 be
       0.0018461678 -0.03270899 -0.07860846 -0.14629237
0003d0 8f 9d eb bd ad 1d 8b bd e2 92 33 3e 4a 5c 9e bd
       -0.11504661 -0.067927696 0.175365 -0.077324465
0003e0 5f b1 15 be 66 6f be 3d c8 01 41 3c 21 57 44 3a
       -0.14618443 0.09298591 0.01178021 0.000748979
0003f0 bd b6 4a be de bd f2 bd 8b 0c da bd 78 7e 1f be
       -0.19796272 -0.118526205 -0.10646924 -0.15575588

conv2_0.0.conv2.bias f4 [16]
000000 4a ab fe bd 89 a8 9c 3d 0c 42 62 3d 85 0f be bd
       -0.124350145 0.07649333 0.05523877 -0.09280304
000010 5f 32 0e bd f4 98 45 3d 54 c2 27 bd 85 1f 06 3d
       -0.034716006 0.04824157 -0.04095681 0.032744903
000020 21 d3 0b bc b3 64 08 3d 5f 9a be bc e4 44 00 bd
       -0.008534224 0.03329916 -0.02326697 -0.0313157
000030 fd ec 22 38 3d e5 ad 3c 02 e2 c9 3c 35 dc 20 bd
       3.8844522e-05 0.021227473 0.024643902 -0.039272506

conv2_0.0.bn2.weight f4 [16]
000000 d8 e8 7b 3f 7c c4 89 3f e8 8a 81 3f 8d cd 6e 3f
       0.98402166 1.0763087 1.0120516 0.93282396
000010 c7 6a 8b 3f ae 3c 8b 3f ce b6 80 3f 7f 58 9c 3f
       1.0891961 1.0877893 1.0055788 1.2214507
000020 40 ef 89 3f 26 df 93 3f 39 1e 82 3f cf 4d 86 3f
       1.0776138 1.1552474 1.0165473 1.0492495
000030 fa 00 7e 3f b9 d1 7a 3f b7 7a 88 3f a6 24 88 3f
       0.9922024 0.9797626 1.066245 1.0636184

conv2_0.0.bn2.bias f4 [16]
000000 fa 15 15 3d f6 27 01 bd f4 9c 8a 3c 24 18 c3 3d
       0.03639791 -0.03153225 0.016920544 0.09526089
000010 b0 a0 06 bc f5 2f d6 3b 79 34 0a 3e 51 06 e1 3d
       -0.008217022 0.0065364786 0.13496579 0.10987533
000020 82 30 05 bd 73 9e 49 3e 99 43 00 3d 1e 7f c9 3b
       -0.032516964 0.1968935 0.031314466 0.0061491868
000030 08 b5 82 3b 6b 22 20 3e a8 f6 af bd aa bf c6 3d
       0.0039888658 0.1563813 -0.08591968 0.09704526

conv2_0.0.bn2.running_mean f4 [16]
000000 34 81 67 3d c7 00 fc bd 9f 1d 0c 3f b5 65 db be
       0.056519702 -0.12304836 0.547327 -0.42851034
000010 01 81 fc bd de 2c f6 bd d5 e3 d5 be d9 43 84 be
       -0.12329293 -0.120202765 -0.41775385 -0.25833014
000020 2b 42 ed 3b 74 12 4d bd 0c 1b cc 3d 4e 26 32 3f
       0.007240554 -0.050066426 0.09966096 0.695897
000030 3e 83 2a 3e 9e 5b e5 be 08 43 92 3d 26 47 11 bf
       0.16651627 -0.4479646 0.071416914 -0.5674919

conv2_0.0.bn2.running_var f4 [16]
000000 09 e1 c6 3e c6 2d 3b 3f 5b af 25 3f 6b a4 b8 3e
       0.38843563 0.7311672 0.64720696 0.3606294
000010 87 f1 58 3f f2 b6 4b 3e d1 10 8c 3e d3 a4 a4 3e
       0.8474354 0.19894007 0.2735658 0.32157
000020 cd a5 bb 3f d9 d5 b4 3e 49 62 96 3f 7f 0c 62 3f
       1.4659973 0.35319403 1.1748744 0.8830032
000030 7b e1 8f 3e b4 6c 1c 3f dc 02 ed 3e e8 64 41 3f
       0.28101715 0.6110337 0.46291244 0.75544596

conv2_0.0.shortcut.0.weight f4 [16, 8, 1, 1]
000000 36 5d e8 be 81 3f 69 be 39 3a 49 3e 81 fc 51 3d
       -0.45383614 -0.22778131 0.19651116 0.051266197
000010 70 7b 1c 3e a0 35 fc bd 85 e7 4b be 70 80 47 3e
       0.15281463 -0.12314916 -0.19912536 0.19482589
000020 c0 60 a4 3d 81 9e 4c be 28 3e 2f 3e d5 70 c7 3e
       0.08026266 -0.1998234 0.17113554 0.38953272
000030 76 75 04 bf 0b ca d3 be a1 1c c4 3d 67 03 bd be
       -0.5174173 -0.41365084 0.09575773 -0.36916658
000040 d3 b3 5a 3e 34 68 56 be 7b 44 b7 3d b2 a6 19 bf
       0.2135766 -0.20938188 0.089486085 -0.6001998
000050 09 f9 01 3f 8d c3 a5 be f3 8a 2d bd a0 2b f2 bd
       0.5077062 -0.32375756 -0.04236884 -0.11824727
000060 9c 71 92 3e e9 cc 8c bd 89 46 09 bc 30 b7 c1 bd
       0.28602302 -0.06875021 -0.008378633 -0.09458768
000070 f3 fe 8e be 23 69 f7 3b 11 04 82 3e fd f4 2f bd
       -0.27928886 0.007550375 0.25393727 -0.04295825
000080 a8 b6 49 be 97 0d 90 be d8 c0 c7 3e 49 3b ba be
       -0.19698584 -0.28135368 0.39014316 -0.36373356
000090 63 df 26 bf 24 6d 37 3e 73 fc ad bd 65 2f 90 3e
       -0.6518461 0.17912728 -0.084954165 0.2816116
0000a0 8d d2 1c bf e3 96 81 3d 55 54 64 3e 5d 80 88 3c
       -0.61258775 0.063276075 0.22297795 0.01666277
0000b0 61 75 67 be ec 1d 83 3e ea 9e ce be fd 0b f2 be
       -0.2260337 0.25608766 -0.40355617 -0.4727477
0000c0 79 54 46 3f ff 48 d9 3c 78 45 05 3d b3 03 3f 3f
       0.77472645 0.026524065 0.032536954 0.7461502
0000d0 1a 1d da 3e 55 02 c4 be c1 a1 9b 3e b1 22 4c 3d
       0.42600328 -0.3828303 0.30396846 0.04983777
0000e0 83 39 03 be cb b2 a6 be f0 04 04 3e bb 8b d8 bd
       -0.12814908 -0.32558283 0.12892509 -0.105735265
0000f0 d9 9d 02 bd 4f 17 fc be 1f fa 45 bd 02 68 2c be
       -0.031888817 -0.49236533 -0.048334237 -0.16836551
000100 e9 6b 0b 3f c0 5e 6e 3f 64 ea 96 3d 31 f2 cb 3c
       0.5446153 0.9311333 0.07368925 0.02489576
000110 fd 94 11 3f 16 8d 86 3c 8b ab dc 3e 39 d7 b4 3e
       0.56867963 0.016424697 0.43099627 0.35320452
000120 ab b3 ca 3d d4 b3 ee bc 15 58 04 3f f9 94 9c 3e
       0.0989755 -0.029138483 0.516969 0.30582407
000130 d6 1d 0f 3f fd 7f 26 3f d2 24 a1 3d 26 01 8a 3e
       0.559049 0.65039045 0.07868351 0.26954
000140 7f 4d 96 be 55 98 61 3e 7d cd 39 be 34 cf 37 3e
       -0.29356 0.22030766 -0.18144794 0.17950135
000150 66 50 8d be ad f0 96 3e 8b f4 d4 be 06 13 db 3e
       -0.27600402 0.29480496 -0.4159282 0.4278795
000160 b8 8f 27 bd 83 e5 10 be 4a d6 40 bd 41 a4 ae 3e
       -0.040908545 -0.14150052 -0.047079362 0.3410969
000170 ee 4d c4 3e 99 6d c9 3e 86 e5 32 3e 49 26 ca bd
       0.38340706 0.3934143 0.17470369 -0.098705836
000180 a3 44 93 3e b5 2e f6 3d 99 5d a3 3e 6f 97 b5 be
       0.28763303 0.120206274 0.31907347 -0.35467097
000190 08 92 c4 be ef f0 9a 3b 40 d4 1c 3e 78 fe 5a 3e
       -0.38392663 0.0047284286 0.15315342 0.21386135
0001a0 e7 2c a9 3e 5d 75 35 3e 3a f8 4a be 2d 1a 24 3e
       0.3304207 0.17720552 -0.19821253 0.1602561
0001b0 68 ee 9a 3d 60 c1 a9 3e 12 69 0c be 04 04 69 be
       0.07565004 0.33155346 -0.13711956 -0.22755438
0001c0 5f 4c 0b 3e 82 ad f0 3c 54 56 2b 3c 65 ab 0d 3e
       0.13603352 0.02937961 0.010457594 0.13834913
0001d0 6a a8 28 be c4 0f 67 be 76 0b a4 be 8f 08 51 3d
       -0.16470495 -0.22564608 -0.32039994 0.051033553
0001e0 f0 1f 8d be 57 da 8c be f3 42 84 3e 35 3b 08 3f
       -0.2756343 -0.2751033 0.25832328 0.5321534
0001f0 3b 4d 9b be f2 36 d8 3e ab 3d b4 3d 99 98 c0 3d
       -0.3033236 0.4222942 0.08800825 0.09404106

conv2_0.0.shortcut.0.bias f4 [16]
000000 57 19 85 bd 1f 4c 46 be 82 49 45 be 2e 01 b8 3e
       -0.06498974 -0.19364975 -0.19266322 0.359384
000010 6d c8 14 bd 1a 63 54 3d 16 ba f9 bc 63 af 8c 3d
       -0.036323953 0.051852323 -0.03048424 0.0686939
000020 4e 40 a3 be cc b6 30 3e 07 05 13 3d eb 03 3c bd
       -0.31884998 0.17257231 0.035893466 -0.045902174
000030 f6 59 2b 3e dd 64 92 3e e2 eb 9c be c2 0f 88 be
       0.16733536 0.28592578 -0.30648714 -0.26574522

conv2_0.0.shortcut.1.weight f4 [16]
000000 5d 9d 77 3f 87 c6 74 3f eb 73 45 3f 11 dd 82 3f
       0.9672449 0.9561543 0.7713 1.0223714
000010 9f d2 81 3f 20 09 7b 3f f2 bc 67 3f 27 29 47 3f
       1.0142401 0.980608 0.9052268 0.7779717
000020 86 66 70 3f 12 84 48 3f 97 7c 79 3f 8f cc 6f 3f
       0.9390644 0.78326523 0.97455734 0.93671507
000030 14 55 50 3f ab a4 71 3f 01 48 6a 3f ef 48 5d 3f
       0.8137982 0.9439189 0.9151612 0.8643941

conv2_0.0.shortcut.1.bias f4 [16]
000000 b3 f5 1f bd fa ce 3a bd 15 f9 43 bd 25 0b 06 3e
       -0.039052676 -0.045607544 -0.047844965 0.13090189
000010 cd 1a 42 bc d3 d6 e9 bc c5 14 b2 3d e2 b9 2d bc
       -0.01184721 -0.028544819 0.08695368 -0.0106034
000020 f9 c5 7d 3d 3d ad fa bd a1 73 e0 3b b1 e5 c4 bb
       0.06195638 -0.12240074 0.0068497215 -0.0060088267
000030 d2 9f 42 3a 27 19 80 3d 70 11 00 be 90 c8 9c 3d
       0.0007424328 0.062547974 -0.12506652 0.07655442
