result_WS/Dataset-mask/model_weight.pth.tar (torch, 296588 bytes, 163 tensors)

conv0_0.0.conv1.weight f4 [4, 3, 3, 3]
000000 45 11 be be fd 02 33 bb e5 23 3b be 75 3a 6f 3e
       -0.3712255 -0.0027315014 -0.18275411 0.23362143
000010 ab a2 cb 3e 29 e9 bc be b8 6e 3b 3e e8 f6 9b be
       0.39772543 -0.36896637 0.18303955 -0.30461812
000020 d3 e4 d1 3c 89 fb cd be 78 13 77 bd eb 76 bd bc
       0.025621807 -0.4023097 -0.0603213 -0.023127994
000030 f2 40 b8 be ef 15 2f 3f bc 30 34 be cf 14 53 be
       -0.3598705 0.68392843 -0.17596716 -0.20613407
000040 7d d6 cd bd 4a 27 0a 3e eb 0c 6c be f1 50 05 3d
       -0.10050676 0.1349155 -0.23051803 0.032547895
000050 b0 46 16 3e ff c8 14 bd 2b 97 22 3f e7 f1 12 be
       0.14675403 -0.036324497 0.63511914 -0.14350091
000060 ab 97 33 3e 31 20 03 be d5 7b 85 3d c1 fe 5b 3f
       0.17538325 -0.12805249 0.0651776 0.859356
000070 05 30 8a 3e 85 0d b7 3d 0d 91 16 3f 4e 85 ca bc
       0.2698976 0.089381255 0.5881508 -0.024721768
000080 19 5d a7 be 57 5c 1b bf d7 32 8e be 18 df f0 bd
       -0.32688215 -0.60687774 -0.27773163 -0.11761302
000090 91 b7 15 3f 61 ae b6 3e 36 72 30 bc b5 58 85 3e
       0.58483225 0.35679916 -0.0107694175 0.2604424
0000a0 00 de b2 3d 21 ac a8 be 99 96 49 bd 84 0f 92 be
       0.087337494 -0.32943824 -0.049215887 -0.28527462
0000b0 d0 1e 4f be b4 4c 0e 3f fd f2 5f 3e 7c 28 ea bd
       -0.20226598 0.5558579 0.21870036 -0.11433503
0000c0 b0 68 8d 3e 18 8f e1 bd c7 04 8d be 32 10 96 3c
       0.27618933 -0.11013621 -0.27542707 0.01831827
0000d0 ba 1c 9f bd 23 fe 85 be e6 6b 6c bc db 9e a9 bd
       -0.07769151 -0.26170453 -0.014430022 -0.082822524
0000e0 34 c4 01 3f e0 9f 87 be a3 e5 ae be c5 98 ca 3e
       0.5069001 -0.26489162 -0.34159574 0.3956968
0000f0 3c 72 88 3d fa fc d5 be b0 39 25 be e3 9e 46 3e
       0.066624135 -0.41794568 -0.16135287 0.19396548
000100 3a 1d 71 3e 33 6a 22 3f 26 51 80 be 74 cf 90 be
       0.23546305 0.634433 -0.2506191 -0.28283274
000110 a8 2f 90 3e 78 c8 5c be f3 3c 79 3c d6 bf 4d 3e
       0.2816136 -0.21560848 0.015212285 0.20092711
000120 bb e7 b1 be 14 4a 21 be 9d 25 f9 3e 62 bc c6 bd
       -0.3474711 -0.15750915 0.4866151 -0.097039
000130 e6 52 df bd 34 dc 3b 3e 80 f0 2c be a4 6a 81 3d
       -0.109044835 0.1834572 -0.16888618 0.06319168
000140 01 c8 45 3d d3 65 fc bd 76 98 9d be d0 c9 29 3e
       0.04828644 -0.12324109 -0.3078038 0.16580892
000150 ab 15 ad be 5a 2a 32 be 9a 01 38 bc f5 93 a3 3e
       -0.33805594 -0.17398968 -0.011230851 0.3194882
000160 af 1b 89 bd 39 12 d5 bd 46 c4 e2 bc 0e 27 b6 be
       -0.06694733 -0.10403866 -0.027681481 -0.3557667
000170 0c 1b a8 3e 29 c7 d8 be 2c 08 f3 be a8 ac b4 3d
       0.32833135 -0.42339447 -0.47467172 0.08821994
000180 70 60 8d 3e 3f 55 84 bd d3 04 2b 3e de c6 01 bf
       0.27612638 -0.06461572 0.16701059 -0.5069407
000190 c1 5c 3f be 9b ff 37 3e 1f b8 a5 be ee 58 35 bd
       -0.18687727 0.179686 -0.32367036 -0.044274263
0001a0 64 31 7c 3e 21 53 b5 3e d5 c5 a7 3e 2a 79 8f 3e
       0.24628216 0.35414985 0.3276812 0.28022128

conv0_0.0.conv1.bias f4 [4]
000000 59 6f 68 3e 78 d9 9d bc 3d 64 83 be 6a 5a 4e be
       0.22698726 -0.019268736 -0.25662413 -0.20151678

conv0_0.0.bn1.weight f4 [4]
000000 8e 87 54 3f e8 33 59 3f 4e 3f 0d 3f 7a d8 8c 3f
       0.8301934 0.8484483 0.5517472 1.1003563

conv0_0.0.bn1.bias f4 [4]
000000 8d 09 79 be 23 4b 6c 3e 48 67 86 3f fc 03 8d be
       -0.2432005 0.23075537 1.0500269 -0.27542102

conv0_0.0.bn1.running_mean f4 [4]
000000 21 f3 92 3e af dc 44 be aa 00 a4 be 7d be 97 bd
       0.28701118 -0.19224809 -0.32031757 -0.0740938

conv0_0.0.bn1.running_var f4 [4]
000000 8a 7c 0b 3e ca 0b 96 3f 67 5a 4d 3e f1 2d 1b 3f
       0.13621727 1.1722348 0.20054017 0.60616976

conv0_0.0.conv2.weight f4 [4, 4, 3, 3]
000000 fb 7d d0 be 9f c0 88 bd 92 46 fb 3d c7 1a 67 3e
       -0.40721115 -0.066773646 0.122693196 0.22568808
000010 c4 59 94 bd f9 ac 24 3f d6 14 05 bb ce 25 0c 3f
       -0.07243684 0.64326435 -0.0020306609 0.54745185
000020 fd cd 92 3e 9f cb 2f 3e 2a 11 89 3e c1 7c b4 3d
       0.28672782 0.17167519 0.26770908 0.088128574
000030 16 46 89 be 6d 52 2f bf be bb 02 be 38 fa d8 be
       -0.26811284 -0.68485147 -0.1276693 -0.42378402
000040 0c a5 00 3d f1 d8 19 3e 97 bf 8b be 33 ba 92 3d
       0.0314074 0.15024163 -0.2729461 0.07164421
000050 bd 73 5c 3e e7 bb ec be db 9c 9c bd a3 ac 3a 3e
       0.21528526 -0.46237108 -0.07647105 0.18229918
000060 e0 11 00 be 1f 00 50 3e e7 9e b1 3d 5f 74 6c be
       -0.12506819 0.20312546 0.08672886 -0.23091267
000070 5e e7 4d bc c0 9f 72 3e 77 5c 93 be 31 79 5a 3f
       -0.012567369 0.23693752 -0.28781483 0.85341173
000080 62 1f 37 be ec f0 b8 be ac 02 d7 3e 16 8f e5 be
       -0.17883065 -0.3612131 0.41994226 -0.44835728
000090 8b 70 1a 3e 56 21 db be ba 48 02 be cd 98 f1 be
       0.15081994 -0.4279887 -0.12723055 -0.4718689
0000a0 86 1f 00 3f f5 80 02 be 0a 3d cd 3d d9 4f cf bc
       0.500481 -0.12744506 0.10021408 -0.025306629
0000b0 8e 33 08 be d7 5a b6 be 6e 57 d5 bd 53 48 c6 be
       -0.13300917 -0.3561618 -0.104170665 -0.38727054
0000c0 65 71 d0 be 74 b4 95 3e ea 42 95 3e 16 41 c2 bd
       -0.40711513 0.29239237 0.29152614 -0.094850704
0000d0 e5 19 14 3e 18 8f c0 3e 52 5e 85 be 06 8b ea bc
       0.14463003 0.37609172 -0.26048523 -0.028630745
0000e0 bb 71 97 be eb fd 8e 3e 2c d8 7d be da a9 3d be
       -0.29578957 0.279281 -0.24789494 -0.18521824
0000f0 05 cb db 3e c3 8a 85 3e 06 56 9d be 55 0c cf 3e
       0.4292833 0.2608243 -0.30729693 0.40439096
000100 19 f2 04 3e 86 f6 d0 3e 6b be 4e 3e 1e 91 7a be
       0.12982978 0.40813082 0.20189826 -0.2446942
000110 dd ea 05 bf 38 89 e9 3e 48 96 ab be af fe 1a be
       -0.523115 0.45612502 -0.33513093 -0.15136217
000120 aa 51 82 3d 16 76 90 3c 81 95 a0 3d 4b cb 30 be
       0.063632324 0.017634433 0.078410156 -0.1726505
000130 6b fe e7 be a4 26 14 be 62 24 01 be 55 f9 bc be
       -0.45311293 -0.14467865 -0.12611535 -0.36908975
000140 3e c4 61 bd 77 a4 1d 3c 81 1f bc 3e 22 fb 5f 3f
       -0.05511879 0.009621731 0.36742786 0.87492573
000150 08 5e 27 3d ec e8 a2 3e 7f 33 6c 3e 26 82 cc bd
       0.04086116 0.3181833 0.23066519 -0.09985761
000160 6a af be 3e ad 39 93 3e f5 97 92 be d0 5d c2 bd
       0.37243205 0.2875494 -0.2863156 -0.094905496
000170 a6 fa 5d be 4f a2 2a be 25 55 94 be 90 74 ac be
       -0.21677646 -0.16663478 -0.2897121 -0.3368268
000180 48 a8 ab be f6 9a 6b be 27 ed df be a1 36 e4 bd
       -0.33526826 -0.23008332 -0.4373562 -0.11143232
000190 58 96 71 3e 69 49 4a be 33 d4 25 3d ea d5 fb 3c
       0.23592508 -0.19754566 0.040485572 0.03074165
0001a0 19 5b 9d bd d7 44 93 be d9 cc 46 be d6 e1 bd be
       -0.07683391 -0.28763458 -0.1941408 -0.37086362
0001b0 e3 dd ad 3d 54 0a 9e be a5 eb c7 be 8d 9b 8f 3d
       0.08489587 -0.30867255 -0.3904697 0.07012091
0001c0 b5 35 92 be f9 be d6 3d 85 07 a7 bc cb ef a0 be
       -0.285566 0.10485644 -0.020389328 -0.31432948
0001d0 ca 8c 00 3e 06 be 22 3e dd 3c d7 3e e4 a7 8d 3e
       0.12553707 0.158928 0.42038622 0.27667153
0001e0 4a 14 d8 3d 3d 0e 75 3b 99 6b 3e be ec b2 30 3e
       0.10550745 0.003739252 -0.18595733 0.17255753
0001f0 e0 2f 2a be 1d 10 cf be a3 e2 4f be e7 87 b3 3d
       -0.16619825 -0.4044198 -0.20301299 0.08766156
000200 bd 54 ea 3e 47 38 94 bc 17 df 9c 3d 2a 7f e3 3e
       0.45767775 -0.018093241 0.076597385 0.44432956
000210 8c aa 02 bf 57 71 ad bc f9 19 27 3e 57 77 35 3e
       -0.51041484 -0.021172209 0.16318502 0.17721306
000220 04 fa 21 be 2f f9 8e be de 0c 90 be d4 45 32 3b
       -0.1581803 -0.27924487 -0.28134817 0.0027202265
000230 42 1d 6e 3d cd 84 3d be 69 44 17 3e eb 74 46 3e
       0.05813337 -0.1850769 0.1477219 0.19380538

conv0_0.0.conv2.bias f4 [4]
000000 53 e5 74 3a d6 7d 48 3e bb 78 47 bf 99 c2 b4 bd
       0.00093420333 0.19579253 -0.77918595 -0.08826179

conv0_0.0.bn2.weight f4 [4]
000000 47 66 1d 3f d7 20 9e 3f 8b ac 00 3f 2c ad 51 3f
       0.6148419 1.2353772 0.5026328 0.81904864

conv0_0.0.bn2.bias f4 [4]
000000 83 7d 5d be 86 a3 a4 3e 0b 97 a9 be 3a 49 83 3e
       -0.2162991 0.32156008 -0.3312305 0.25641805

conv0_0.0.bn2.running_mean f4 [4]
000000 dd 67 91 be 10 a2 9b be fd 41 2f c0 df 82 9d 3e
       -0.28399554 -0.3039708 -2.7384026 0.3076391

conv0_0.0.bn2.running_var f4 [4]
000000 37 8c 43 3f 22 f1 82 3e d9 5e 93 3f 04 46 20 3f
       0.76385826 0.25574595 1.151332 0.62606835

conv0_0.0.shortcut.0.weight f4 [4, 3, 1, 1]
000000 c8 46 7c bf c7 13 02 3f 2f 0c fb 3d f8 ee 6a 3e
       -0.98545504 0.5081143 0.12258183 0.22942722
000010 12 9c ae 3e 51 5b 85 3e ce e0 6e be 19 b8 77 3f
       0.34103447 0.2604623 -0.23327944 0.96765286
000020 42 eb 8d 3e 57 9d f5 be 59 1f 52 3d 9a d2 f3 3d
       0.2771855 -0.47971603 0.051299427 0.119054034

conv0_0.0.shortcut.0.bias f4 [4]
000000 3d 4d 50 3c 5e 67 47 3e cc a8 81 3e 61 c1 88 3e
       0.012713728 0.19473025 0.25324094 0.26710036

conv0_0.0.shortcut.1.weight f4 [4]
000000 0e c4 3c 3f 04 92 a6 3f 80 db 7b 3f 1d 93 84 3f
       0.73736656 1.301331 0.98381805 1.0357395

conv0_0.0.shortcut.1.bias f4 [4]
000000 88 78 9d be 93 b8 38 3f 3c ed 04 3e a5 e0 80 be
       -0.3075602 0.7215664 0.12981123 -0.2517139

conv0_0.0.shortcut.1.running_mean f4 [4]
000000 cd 94 8d 3d 14 d9 7e 3d 40 0e bc 3d 91 dc a1 3e
       0.06913147 0.06221874 0.091824055 0.3161359

conv0_0.0.shortcut.1.running_var f4 [4]
000000 67 f7 e2 3d a2 7c 1b 3f 29 5c 66 3f 3b 83 ac 3d
       0.110823445 0.6073705 0.89984375 0.08423468

conv1_0.0.conv1.weight f4 [8, 4, 3, 3]
000000 f3 d9 e0 3d f9 87 af bd 8e 57 0d be f8 53 ac 3d
       0.109790705 -0.085708566 -0.1380293 0.08414453
000010 ed 59 77 be 23 89 2c bd 93 94 8d 3d c6 a5 a7 bd
       -0.24155398 -0.04212297 0.06913104 -0.08185916
000020 6e 64 87 be 92 ed 7b be fb 1b c2 be b2 97 bc be
       -0.2644381 -0.24602345 -0.37911972 -0.36834484
000030 2d 74 e5 3d 7a ea bd 3e a0 b6 a0 3e 0c 4e bd 3d
       0.112037994 0.37092954 0.31389332 0.09243402
000040 e8 16 d7 3e e0 70 2c 3e eb 24 ec bd f0 24 64 be
       0.42009664 0.16839933 -0.11530479 -0.22279716
000050 f5 b9 f1 bd 17 77 8c be 32 e9 36 be 76 cb f3 3d
       -0.118030466 -0.27434608 -0.17862394 0.119040415
000060 12 ad c1 3e 12 39 c9 3e 7e 29 25 3e ff 5d f6 3d
       0.37827355 0.39301354 0.1612911 0.12029647
000070 7e cb 0e 3d 4c 2e cd bd ac 98 d2 3c b3 3f bd 3d
       0.034862034 -0.10018596 0.025707565 0.09240665
000080 85 1a 7e be 4a a2 47 be fb 00 84 be e1 db e3 be
       -0.24814804 -0.19495502 -0.25781998 -0.44503692
000090 b5 b1 2d 3d 5f 01 25 bc c6 95 6f 3e b1 62 ab 3c
       0.042405803 -0.010071128 0.23396978 0.020921083
0000a0 8a da 93 bd 3e d6 0b 3e 9d ad f1 be 44 2e 16 be
       -0.072194174 0.13655946 -0.4720277 -0.14666086
0000b0 a1 5f 0d 3a ae 4c 7c be 96 12 09 be 3d 6d 55 bf
       0.0005392973 -0.24638626 -0.13385996 -0.8336981
0000c0 5e cc f3 3c 7a 4d 2d be 10 68 d8 be 1c a4 52 3e
       0.029760536 -0.16924086 -0.42266893 0.20570415
0000d0 4b 98 59 3e d6 82 34 3c 4f 81 c0 3d a2 26 c3 3c
       0.21249501 0.011017522 0.09399664 0.023822132
0000e0 69 45 8c be 7d 25 9f 3e af 97 83 be 44 1d 0b be
       -0.27396706 0.3108329 -0.25701663 -0.13585383
0000f0 4b ec aa 3e 1f 2b c2 3e b8 53 c3 3e 5d ec 83 be
       0.33383402 0.37923524 0.3814981 -0.25766268
000100 f9 70 10 be cf bb 47 be 3f 0e c3 be 85 41 82 3e
       -0.14105596 -0.19505237 -0.38096806 0.25440612
000110 92 b9 8d bc 87 a9 11 bb c3 3a f0 3d 33 19 e3 3d
       -0.0173004 -0.002222629 0.11729958 0.11088791
000120 66 82 c3 3e 37 41 38 3f 61 0f ab 3e 26 70 4f 3d
       0.38185424 0.7197451 0.3341017 0.050644062
000130 38 7e 00 3f 9a 73 d9 3e 23 25 a6 be f4 9d c8 bd
       0.50192595 0.4247101 -0.32450208 -0.09795752
000140 55 cd 63 be a7 cc 26 bf b1 fe fd 3d 82 36 b5 3d
       -0.22246297 -0.65156025 0.12402094 0.08848287
000150 9c f1 33 be 94 57 83 be 23 c5 49 3e ad 59 45 3e
       -0.17572635 -0.25652754 0.19704108 0.1927249
000160 61 10 8f bd 4a af 06 3e ed 6d 8e be 0d b9 74 be
       -0.06985546 0.13152805 -0.27818242 -0.23898716
000170 3a a9 92 be d9 7d c6 bd 11 ef 6d bd 84 e4 b3 be
       -0.28644735 -0.09691972 -0.05808932 -0.3513528
000180 53 39 8d be c1 3a 30 3e 25 10 c0 bd 91 4d 38 3f
       -0.27582797 0.17209913 -0.09378079 0.71993357
000190 7f 28 a1 3d 8b 2b 89 3d c5 3a 55 3e a6 ab a6 3d
       0.07869052 0.06697758 0.208232 0.08138208
0001a0 50 49 92 bd 47 39 36 bd 6a 75 03 bd 35 48 1f be
       -0.071428895 -0.044488218 -0.032094397 -0.15554889
0001b0 d3 77 ea bd 9b 31 96 bb 59 a5 7c 3d 72 19 64 bd
       -0.11448636 -0.00458355 0.061681125 -0.05568833
0001c0 db fd 31 3c e4 2e 0c bb 13 14 3b 3c 0c 80 47 be
       0.0108637465 -0.0021390254 0.01141836 -0.1948244
0001d0 c7 71 85 3e 0e db 1b 3e d7 48 0e bf b2 bc 82 bd
       0.26063368 0.15220281 -0.55579895 -0.06383647
0001e0 f0 3a e9 3e f4 9f b3 be 05 83 e1 be b8 30 5e 3d
       0.45552778 -0.35082972 -0.44045272 0.05424568
0001f0 92 66 7c bd 36 0d c8 3e 1e 1c 88 3e a8 d5 e3 be
       -0.061621256 0.3907258 0.26583952 -0.44498944
000200 dc d6 80 be 10 52 8c 3e 62 9a 51 be 3b 37 97 bd
       -0.25163925 0.2740636 -0.20469049 -0.07383581
000210 fc 70 4b 3e 04 b2 eb bd 6d f5 f5 bc f1 2c bd 3d
       0.19867319 -0.11508563 -0.030024255 0.092370875
000220 43 76 cb bc 73 83 a5 be 75 25 67 3d e1 d5 de 3d
       -0.024836665 -0.3232685 0.056432206 0.10880638
000230 19 f2 56 be 17 d8 06 bd 8a 15 b2 be 51 b7 18 be
       -0.2099079 -0.032920923 -0.34782058 -0.1491368
000240 3a c4 f6 bd c5 db 0f 3e 9c 68 a5 be 48 2f b7 be
       -0.12049146 0.14048679 -0.32306373 -0.3577826
000250 4c 41 19 3e 42 80 ba 3c 92 d8 78 be 7d f4 69 3e
       0.14966315 0.022766236 -0.24301365 0.22847171
000260 38 da c5 3c d9 23 aa 3e 6a 29 2a 3e 01 de 3d be
       0.024151906 0.33230475 0.1661736 -0.18541719
000270 7d 19 3f 3e 41 00 e6 bd 8d 68 1f bf d9 d2 72 bc
       0.18662067 -0.11230517 -0.62268907 -0.014820778
000280 39 55 bb be 04 ed 11 bf ac 71 d7 3e de 62 87 3e
       -0.36588457 -0.5700228 0.42078912 0.26442617
000290 34 d8 cf 3b f2 05 15 3e ad 1d 47 3e bb 0a 09 be
       0.006342912 0.14553049 0.19444914 -0.13383
0002a0 ba e0 79 3d ee e5 b8 bd c8 ad 3a be 1e 7d 06 bf
       0.06100533 -0.090282306 -0.18230355 -0.52534664
0002b0 ae 01 ce bd 5e 7d 4c 3e 77 2c b4 be 74 e6 05 3e
       -0.10058914 0.19969699 -0.35190174 0.13076192
0002c0 5f c5 3d 3b 43 ae 9c bd 7f 00 99 3e 2b 81 8c 3d
       0.0028956754 -0.07650425 0.2988319 0.06860574
0002d0 e7 6c 40 bd 8f a9 4c bd 2d 62 0a be c2 e1 ba 3c
       -0.046978857 -0.04996639 -0.13514014 0.022812728
0002e0 2c 57 82 3e bc 6b 9c 3e 03 ac e8 3e 87 8c 07 3e
       0.25457132 0.30550945 0.45443735 0.132372
0002f0 c2 b0 24 3e e4 cc 85 be 44 a3 74 be f9 60 84 3c
       0.16083053 -0.26132882 -0.23890406 0.016159521
000300 f6 7b 27 be b1 3c 73 be b9 50 07 bf 8c e0 0a bf
       -0.16355881 -0.2375362 -0.5285755 -0.5424888
000310 59 e5 13 bf f1 bb ac be 09 d6 3c be 67 a0 ea bd
       -0.5777183 -0.33737138 -0.18441023 -0.114563756
000320 11 4f dc bb 55 d0 bb 3a b8 d7 1d be 75 0f 7f bd
       -0.0067232926 0.0014329056 -0.15414321 -0.0622706
000330 88 6e 03 3c 91 28 25 3e 9e dd a0 3d fa 94 e7 be
       0.008021958 0.16128756 0.0785477 -0.45230848
000340 11 bd 73 be 88 03 8f 3d f8 12 35 be 39 83 f3 bc
       -0.23802592 0.069830954 -0.17683017 -0.029725658
000350 cd b1 2d 3e 5b 6d 3a 3e d6 83 37 3e df 9f 08 3f
       0.16962357 0.18205778 0.17921385 0.53368944
000360 76 b7 99 3e ad e2 1d 3d b3 7c 19 be 16 00 59 be
       0.30022782 0.038546253 -0.14988975 -0.21191439
000370 e3 d3 49 be ad 44 ca 3c 4d 83 8f be b2 63 01 be
       -0.19709735 0.02469095 -0.28029862 -0.12635687
000380 0a f6 27 3e ae e0 3f 3e ed 83 da be 41 5e 97 be
       0.1640245 0.18738052 -0.42678776 -0.29564098
000390 9b 90 5a 3d 9f 83 78 be 7a 2c fc be 62 e5 b8 bc
       0.053360563 -0.2426896 -0.49252683 -0.022570316
0003a0 26 74 85 3e 3c 92 ed 3d db 9f 9c bd a7 fa a6 be
       0.26065177 0.116001576 -0.076476775 -0.32613108
0003b0 ae 0e 17 bf b6 55 81 3e bc c3 23 3d fb 18 64 bd
       -0.59006774 0.25260705 0.03998159 -0.055687886
0003c0 e2 74 cb 3e e0 41 23 3e 49 3f 3c 3e 31 48 2f 3e
       0.39737612 0.15943098 0.18383516 0.17117383
0003d0 86 53 6f 3e f3 75 c5 be 61 0f db 3e 25 14 d3 3d
       0.23371705 -0.3856655 0.4278517 0.10306577
0003e0 b5 e9 04 be 61 b9 32 be c6 1f 6e be d2 03 25 be
       -0.12979777 -0.17453529 -0.23254308 -0.16114739
0003f0 74 d6 fb bd 82 61 e3 3e 9e 5d c9 3c 17 60 a1 be
       -0.12296763 0.4441033 0.024580773 -0.31518623

conv1_0.0.conv1.bias f4 [8]
000000 64 b5 cc 3e aa f5 04 3e 2d 77 97 3d c4 ed 8a bd
       0.3998214 0.12984338 0.07395778 -0.067836314
000010 55 f0 5d 3e 10 42 04 3f 84 ce 3f 3e 5b 19 bd bd
       0.2167371 0.51663303 0.18731123 -0.09233352

conv1_0.0.bn1.weight f4 [8]
000000 a1 3f 3f 3f ba e4 7c 3f 3a 2d b5 3f 50 de 5e 3f
       0.74706465 0.9878651 1.4154427 0.8705797
000010 d5 fd 83 3f 40 ee 5b 3f 01 f2 7d 3f ab 0d 84 3f
       1.0311838 0.85910416 0.99197394 1.0316671

conv1_0.0.bn1.bias f4 [8]
000000 82 20 19 3f a4 73 02 3f ec 93 da bb a7 1f aa 3e
       0.5981523 0.50957704 -0.0066704657 0.33227274
000010 46 1b 0f 3f 3b d9 ee bd 00 0c 8c be 3c 0d 74 be
       0.5590099 -0.11662527 -0.27352905 -0.23833174

conv1_0.0.bn1.running_mean f4 [8]
000000 9b 4f 26 3f 88 9f 9b bf a9 69 19 bf 27 8e 82 bf
       0.6496522 -1.215806 -0.5992685 -1.0199631
000010 0f b0 82 bf 26 39 2e c0 a7 21 7e bf e9 ab 6b bf
       -1.0209979 -2.722238 -0.992701 -0.9205919

conv1_0.0.bn1.running_var f4 [8]
000000 82 80 c6 3f f2 99 dd 3f b1 b5 a7 40 55 03 ba 3f
       1.5507967 1.7312605 5.240929 1.4532267
000010 4d 43 02 40 55 a7 45 41 ca 3e b4 3f 43 d2 09 40
       2.0353577 12.353353 1.4081662 2.1534584

conv1_0.0.conv2.weight f4 [8, 8, 3, 3]
000000 29 24 d5 3c 55 32 b9 bd c4 17 45 be 1e 85 5e be
       0.026018219 -0.09042803 -0.19247347 -0.21730468
000010 7d 7e 99 be 6e e8 66 be 2a d4 17 3e e5 79 22 be
       -0.29979315 -0.22549602 0.14827028 -0.15866812
000020 f6 14 0f 3e 7c 80 4e be 70 eb cb be 0f da 6e be
       0.1397284 -0.201662 -0.39828062 -0.2332537
000030 8c be 11 3e 43 8e 95 bd 25 76 5f bd 0c 82 18 3e
       0.14232844 -0.07302525 -0.05455603 0.14893359
000040 c0 0d 03 be ac 63 4c be c6 69 f8 3e 5b e6 25 3e
       -0.12798214 -0.19959897 0.485182 0.16201155
000050 cc 59 1d 3e d2 2b 61 3e ce fe 7d be 26 aa 1d be
       0.15366286 0.21989372 -0.24804232 -0.15396938
000060 03 f4 52 3e 8e 3b 7b 3c 60 80 5e bd 46 ae ba be
       0.20600896 0.015334023 -0.054321647 -0.36461085
000070 ef 85 ba be 7c ac bc bd 88 61 09 bf ca b3 ba be
       -0.36430308 -0.09212586 -0.53664446 -0.36465293
000080 83 62 9a be 80 50 2f be b2 12 05 be 04 76 e7 bd
       -0.30153283 -0.17120552 -0.12995413 -0.113018066
000090 2f 84 5c 3e 2d cf ed 3d 37 85 a7 3e 24 2a 10 3f
       0.21534799 0.11611781 0.32718822 0.563143
0000a0 fb 68 81 3d d9 47 d8 3e 7c 9c 1e 3e 27 ac 9c 3e
       0.063188516 0.42242315 0.15489382 0.30600092
0000b0 19 3c 83 3d 3c 8f ce be 2d 74 da be 73 84 3d be
       0.06407947 -0.40343654 -0.4266676 -0.18507557
0000c0 ae 9f 9b be 0f 74 67 be 1f 69 ac be 05 a2 af be
       -0.30395263 -0.22602867 -0.3367395 -0.343033
0000d0 15 a4 82 be 22 ec f9 be 44 67 1f be d9 6a e8 3d
       -0.2551581 -0.48812968 -0.15566736 0.113485046
0000e0 be 8a 00 3e c4 60 a1 3e e8 e4 bd 3e ae 91 81 3e
       0.12552926 0.3151914 0.37088704 0.25306457
0000f0 6e 9e 04 3f 71 ca 1e 3f d8 17 fe 3e 8b fb 15 3e
       0.51804245 0.6202765 0.49627566 0.14646737
000100 b8 df e8 bd cc ea 42 3d d2 c7 c6 3d 18 a4 a0 bd
       -0.11370796 0.0475872 0.097060814 -0.078437984
000110 ba ee ac bd 5d a4 d7 3e 0b d7 f6 3e 7c 7b 7d 3d
       -0.08443971 0.42117587 0.4821094 0.061885342
000120 39 1b 63 3e 12 0f 1a bd 1f 24 25 be 13 98 50 3d
       0.22178353 -0.03761203 -0.1612706 0.05092628
000130 00 16 96 be 15 70 80 be 42 f9 0a bf 7f 47 59 bf
       -0.2931366 -0.25085512 -0.5428659 -0.8487472
000140 4e 9b a4 be 59 28 a5 bd 29 a4 2e 3e 58 4f 86 3e
       -0.32149738 -0.08064336 0.1705481 0.2623241
000150 8b c8 83 be 8a d6 75 be 03 bd 05 be 2c f5 92 be
       -0.2573894 -0.24007621 -0.13060383 -0.28702676
000160 6c 63 f4 3d e2 cb 85 be 9e 1e cc 3b b6 3b 5a be
       0.11933026 -0.26132113 0.006229236 -0.2131184
000170 90 5e af bd a3 f3 40 be 6b 20 ab be 1f 3c 41 bd
       -0.08562958 -0.1884294 -0.3342317 -0.047176477
000180 b4 36 86 bd 2a 79 5d be 34 e2 22 be 9a b9 f3 3c
       -0.065534025 -0.21628252 -0.15906602 0.029751588
000190 24 46 97 be 5b 58 ba bd dd fb 56 be cf fe 1e be
       -0.295457 -0.09098884 -0.20994516 -0.1552689
0001a0 b5 dc ee bc 26 3c 8c 3d 96 2e 55 3d 4f 06 63 3d
       -0.029157976 0.0684741 0.05204638 0.05542594
0001b0 d1 d3 b3 be 3d 73 ab bd c9 28 c0 3c 09 8f b8 be
       -0.3512254 -0.08371589 0.023456948 -0.36046627
0001c0 38 2c 78 3e 35 f8 fd 3e f6 84 15 3e 0d bf 95 3e
       0.24235618 0.4960343 0.14601502 0.29247323
0001d0 2e e8 7e 3e d8 07 d5 bd 7c ca 85 be 78 59 d3 bd
       0.24893257 -0.10401887 -0.26131046 -0.10319799
0001e0 32 20 10 be b1 c0 d9 3d 62 a4 76 bd fc cd 60 3e
       -0.14074782 0.10632456 -0.06021536 0.21953577
0001f0 52 32 9c 3e ba 29 b0 3e 80 59 73 3e ae 88 42 3e
       0.3050714 0.34406835 0.2376461 0.18997452
000200 2d 89 75 ba ea 57 62 be 59 8c 0b 3e 11 c7 65 be
       -0.0009366449 -0.22103849 0.13627757 -0.22439219
000210 ce d6 18 3d 64 1d 1b 3e d9 62 8c be 67 a3 0c 3e
       0.03731423 0.1514793 -0.27419165 0.13734208
000220 e5 ee 2b 3e 18 13 9b 3e 42 bc 3e be 66 09 31 3e
       0.1679035 0.30288005 -0.18626502 0.17288741
000230 38 8b 13 3f 99 44 c6 be 70 d8 28 be 35 e9 34 be
       0.57634306 -0.3872421 -0.16488814 -0.17667086
000240 a0 68 f0 3e 79 60 c4 3d c3 4e 30 be 59 fc 59 3c
       0.46954823 0.09588713 -0.17217545 0.013304793
000250 03 af 44 be 6b 60 ce bd 5b 1b 28 be 5b 18 94 bd
       -0.19207387 -0.10076984 -0.16416685 -0.07231208
000260 55 1c 63 3d 03 fb b9 3d 71 27 02 be d4 1a 04 bf
       0.05544694 0.0908108 -0.12710358 -0.51603436
000270 00 88 8d 3c a2 fe fa be d8 57 f0 be 9f ee 48 3e
       0.017276764 -0.49022394 -0.4694202 0.19622277
000280 6b 1b 19 3e f4 f7 d2 3d ca 0c a1 be ca 5c f9 be
       0.14951865 0.103011996 -0.3145507 -0.48703605
000290 7f 9b f5 be 25 bc 33 be aa cf b0 bd 7e 3b 82 be
       -0.47970197 -0.1755224 -0.08633359 -0.25436014
0002a0 1c 70 0f be b4 65 21 be c6 15 34 bd 03 fc 0e be
       -0.1400761 -0.15761453 -0.043966077 -0.13963322
0002b0 0f dd bd be 7b 5f 88 3e 17 6c d8 3d 13 4d 7b bd
       -0.37082717 0.26635346 0.105674915 -0.0613528
0002c0 d3 13 04 3e 47 17 d7 3d 03 c3 5c bc 1b 71 3b 3d
       0.12898187 0.10502487 -0.013474229 0.045762163
0002d0 89 32 8d bd e9 4c d5 3e 88 7e e6 3e 7f 93 82 3e
       -0.068944044 0.4166024 0.4501841 0.25503156
0002e0 2d 8c fb 3e 63 79 10 be e6 37 e0 3d 2e c4 df 3d
       0.49130383 -0.14108805 0.10948162 0.1092609
0002f0 8f 34 11 bf ae a7 97 bd 07 6b 22 3e aa 42 e0 3b
       -0.56720823 -0.07405029 0.1586114 0.0068438845
000300 14 dd 45 be b6 9d 54 3e 71 bd b2 3e a4 da fe 3e
       -0.19322616 0.20763287 0.34910157 0.49776185
000310 45 ba 98 3e ea de 09 3f b1 1a c6 3d 83 8b a9 be
       0.29829612 0.53855765 0.0967306 -0.33114251
000320 ed 9c ce be d0 ea 4a 3e 4d ea ad be b1 90 c8 bd
       -0.403541 0.19816136 -0.3396782 -0.09793223
000330 82 34 2e be 0d 0e 1d 3e cd 9a e9 bd 50 ef 6b 3e
       -0.17012218 0.15337391 -0.11406479 0.23040509
000340 c0 27 1d 3e 81 59 10 bc f4 40 89 bc 27 05 de 3c
       0.15347195 -0.008810402 -0.016754605 0.027102066
000350 d4 31 b8 be 09 f7 80 3d 5a df a9 3c b3 d4 af be
       -0.35975516 0.06297118 0.020736385 -0.34341964
000360 7f 64 7c bd fe f0 68 3e e9 d8 61 3e cd c9 cf 3e
       -0.061619278 0.22748181 0.22055401 0.4058365
000370 38 78 82 3e 9d 32 28 3d e8 de 88 bd 2b 87 c7 be
       0.25482345 0.041063894 -0.06683141 -0.38970312
000380 10 53 e2 3c e2 3b 44 3c 5d 0f 58 3e 5f 52 7a 3e
       0.027627498 0.011977168 0.2109961 0.24445485
000390 cb 82 94 be b8 df 56 be bd a0 42 3e 9f 31 50 be
       -0.29006037 -0.2098378 0.1900663 -0.20331429
0003a0 7c 9e 5b be 8b 3c 80 bd 4a 40 b4 3e 88 a9 c3 3e
       -0.21447176 -0.06261548 0.352053 0.3821528
0003b0 90 3b 02 3d 6b a3 e1 3e fb ca b1 bc 9a 0f ae 3d
       0.031795084 0.4406999 -0.021703234 0.084990695
0003c0 89 32 4d 3e 0c e4 e1 be a7 88 3f bf 24 27 66 3e
       0.20038809 -0.44119298 -0.7481789 0.22475868
0003d0 f4 93 99 3e a6 bc 2f be de 26 7b 3b 5f 20 9b 3d
       0.29995692 -0.17161807 0.0038322727 0.07574534
0003e0 5a 87 cd bc 16 40 7c be 15 63 1f be 99 f9 c9 bd
       -0.025088955 -0.24633822 -0.1556514 -0.0986206
0003f0 d7 cc 71 be b9 8f 05 bf c6 75 ba bd fb 0c 66 bd
       -0.23613296 -0.5217243 -0.09104495 -0.056164723

conv1_0.0.conv2.bias f4 [8]
000000 60 a7 ab bd 55 b0 8d be 06 e0 df bd 7f ac 55 3e
       -0.083815336 -0.27673593 -0.10931401 0.20866583
000010 5c 8f 14 3d 05 9b c2 bd 54 b6 95 3d 85 23 a2 be
       0.03626953 -0.09502224 0.07310167 -0.31667724

conv1_0.0.bn2.weight f4 [8]
000000 50 a2 7d 3f 8a 38 80 3f 12 ba 63 3f 70 df 13 3f
       0.99075794 1.0017254 0.88955796 0.57762814
000010 84 45 e5 3e 18 89 5c 3f db 62 8f 3f 20 5b 7d 3f
       0.447796 0.8614669 1.1202043 0.9896717

conv1_0.0.bn2.bias f4 [8]
000000 f1 7f a8 bd 3a aa d5 3e ed cc 44 3e a6 ad 1f 3f
       -0.08227528 0.41731435 0.19218798 0.6237434
000010 c2 03 5b 3f 1d dc 35 bd e6 08 6b 3f c6 49 bb 3e
       0.8555261 -0.04439937 0.9181045 0.36579722

conv1_0.0.bn2.running_mean f4 [8]
000000 02 68 2c bf 43 91 1c c0 9f 5c 7b bf d0 de 06 3e
       -0.67346203 -2.446366 -0.98188204 0.13170934
000010 04 18 7f bf 7c 2b ee bf 15 ea 53 be 6c 45 87 3f
       -0.9964602 -1.860702 -0.20694764 1.0568061

conv1_0.0.bn2.running_var f4 [8]
000000 98 d7 b0 3f 6e bf f4 3f 59 75 a6 3f 33 29 af 3f
       1.3815794 1.912092 1.3004562 1.3684448
000010 87 38 2d 41 de bf 06 41 29 18 8e 40 49 37 4e 40
       10.826301 8.421843 4.440449 3.2221243

conv1_0.0.shortcut.0.weight f4 [8, 4, 1, 1]
000000 91 00 54 3c d3 02 3c 3e 4b 92 7e bf 77 15 50 bf
       0.012939588 0.18360452 -0.99441975 -0.8128275
000010 ad d0 3c be 79 58 b4 3e d2 eb 72 3e 7c c6 14 bf
       -0.18438978 0.3522375 0.23722771 -0.58115363
000020 40 d4 c6 bd cd 9e db be 40 3f 8e 3e 40 c6 5d 3f
       -0.09708452 -0.42894593 0.2778263 0.8663063
000030 7f 7f 47 3e ea 6f 90 3e 58 07 45 bd 5b c8 81 bf
       0.1948223 0.28210384 -0.048102707 -1.0139269
000040 2c f6 51 3e d9 49 59 bf 38 14 ad bd 85 2c ff bd
       0.20504063 -0.8487831 -0.08451122 -0.12459663
000050 21 c6 a8 be 13 05 a2 be 21 93 e4 be 48 94 d6 3d
       -0.3296366 -0.31644496 -0.446435 0.10477501
000060 4b 75 52 3e 2f 0e 16 3f f2 f6 56 be f7 c6 6b bd
       0.20552556 0.5861539 -0.2099264 -0.057562795
000070 09 42 8c be 34 2d 26 3f d7 a6 8e be aa 79 0f bc
       -0.2739413 0.64912724 -0.27861664 -0.008757034

conv1_0.0.shortcut.0.bias f4 [8]
000000 77 ed 09 bf c3 aa 34 3e 4f ff 81 3c 48 7b a9 3d
       -0.5387797 0.17643265 0.015868811 0.08275467
000010 6f c2 f2 be 67 d5 8e be a0 43 83 3e 39 5f 66 3c
       -0.47413966 -0.27897188 0.2563753 0.014060789

conv1_0.0.shortcut.1.weight f4 [8]
000000 83 8d 61 3f 9b d9 1c 3f 25 2a c1 3f d8 b6 a5 3f
       0.88106555 0.6126954 1.5090986 1.2946424
000010 a4 08 a3 3f 1d 43 72 3f 83 50 43 3f 54 d6 41 3f
       1.2737012 0.94633657 0.76294726 0.75717664

conv1_0.0.shortcut.1.bias f4 [8]
000000 9b b8 60 be ec 42 a8 bd e9 c9 95 3e 2d 72 03 3f
       -0.21945421 -0.08215889 0.29255608 0.51346093
000010 cd 12 fb 3e 60 39 8b 3e a2 38 3e 3f 3d d4 f1 3d
       0.4903778 0.2719221 0.74305165 0.11808059

conv1_0.0.shortcut.1.running_mean f4 [8]
000000 88 17 8a bf 3c e2 04 3f df 64 00 be 31 43 1b 3e
       -1.0788431 0.51907706 -0.1253848 0.1516235
000010 e3 4d c3 bf 5e 49 71 bf 71 8a 60 3f ed 11 14 3f
       -1.5258144 -0.94252574 0.87711245 0.5783985

conv1_0.0.shortcut.1.running_var f4 [8]
000000 54 32 1d 3f 0a 39 17 3f 63 7c aa 3e 01 cc a6 3e
       0.6140492 0.5907141 0.33298025 0.32577518
000010 a8 43 af 3f 8e 49 0a 3f 68 f6 ba 3e 83 33 00 3f
       1.3692522 0.54018486 0.36516118 0.500786

conv1_0.1.conv1.weight f4 [8, 8, 3, 3]
000000 95 3d 3b 3d 96 0c 92 bd b7 0b 72 be 79 54 e0 be
       0.045713026 -0.07131307 -0.23637281 -0.43814448
000010 19 db 69 bd 4c 1a 96 3e dd 5f 51 bf d7 0b 63 3d
       -0.057093713 0.29316938 -0.817869 0.055431213
000020 0b b3 98 3d 99 91 2a be 75 28 a3 be da af da be
       0.07456025 -0.16657104 -0.31866804 -0.4271229
000030 03 40 9d 3e 86 83 8f be 6c 05 1c bf 23 de b1 3e
       0.307129 -0.28030032 -0.60945773 0.3473979
000040 eb 6c 85 be 58 f4 ed be 88 d4 cf be 96 41 1d be
       -0.2605966 -0.46475482 -0.40591836 -0.1535705
000050 94 36 9d bd 3b d9 08 be 78 15 34 3c 5e bd f9 3c
       -0.076764256 -0.13364117 0.010991447 0.030485805
000060 d6 d1 b5 3e 22 e5 91 3e 17 cc 43 3e 3a c1 99 3d
       0.35511655 0.28495127 0.19120823 0.07507558
000070 73 e7 d8 bd ef a3 95 be 5d a0 93 3e bd fc f6 3d
       -0.105910204 -0.29226634 0.28833285 0.12059925
000080 ad 0c 51 be 93 0f a7 bc e8 05 92 3e fe fd 35 3e
       -0.20414992 -0.020393169 0.2852013 0.17772672
000090 68 bc ad be 64 ac 9c bc 00 24 16 be 3f e5 d3 bd
       -0.33932805 -0.019125171 -0.1466217 -0.103464596
0000a0 94 a1 58 3e ce 19 4f 3e f5 d7 08 be 79 c8 9a be
       0.21155387 0.20224687 -0.13363631 -0.30231073
0000b0 68 4c 83 bd 39 0f 15 be 45 e8 bc bd 53 95 95 3e
       -0.06411058 -0.14556588 -0.092239894 0.29215488
0000c0 7e 3d 19 be fd be 17 3e 4a d0 9c 3e 42 09 11 3d
       -0.14964864 0.1481895 0.30627662 0.03540922
0000d0 01 90 08 be 24 e4 cc bd 86 43 11 bf 0c 25 1e 3e
       -0.13336183 -0.10004452 -0.5674366 0.1544382
0000e0 af 23 8e be 5d 72 af 3c 9b f8 20 3d 27 02 8b be
       -0.277616 0.021416837 0.03929959 -0.2715008
0000f0 2c 41 f3 be ff 39 59 bd 31 a9 70 3d 88 1f 56 bd
       -0.4751066 -0.053033825 0.058755103 -0.052276164
000100 14 bb 01 be d0 3c 90 be 66 67 50 3e b9 62 7a bd
       -0.12669021 -0.28171396 0.20351943 -0.061129306
000110 a9 09 98 bd 29 ad 9b be bd 76 ce 3d 56 79 53 3e
       -0.074237175 -0.30405548 0.10081241 0.20651755
000120 0a 5e 36 be e9 b8 60 3e 78 fc 0d 3f aa ee 03 bf
       -0.1780931 0.21945538 0.5546336 -0.5153605
000130 eb ab 8c 3e 0b c7 44 3f 4b cd 2b bf dc ec 3d 3e
       0.27474913 0.76866215 -0.6711013 0.18547386
000140 d9 80 f1 3d 65 59 69 3e 1d b9 83 be 0e b7 b8 be
       0.11792154 0.22788008 -0.25727168 -0.3607716
000150 a3 a8 42 3e 3b ef 81 be 20 d8 c8 bd 36 95 37 bd
       0.19009642 -0.2537783 -0.098068476 -0.044820033
000160 7e fd d6 3d ab 24 4f be ae a3 07 bf 2e 92 3c be
       0.104975685 -0.20228831 -0.5298413 -0.18415138
000170 d0 16 04 bf 79 1a 2d 3d 96 4b ad 3c 0a ed 93 be
       -0.5159731 0.042261574 0.021154206 -0.28891784
000180 ca ec c6 3e c4 94 92 bb 6d 37 56 3e d4 3d 7b 3e
       0.3885253 -0.0044733007 0.20919581 0.24535304
000190 89 2f 52 bd c9 3c 38 be bb 7a ca be dd 38 0a be
       -0.051314864 -0.17991938 -0.3954676 -0.13498254
0001a0 ef 4f ce 3e 31 90 7f be ce 76 10 3f a3 15 48 3f
       0.4029536 -0.24957348 0.5643128 0.78158015
0001b0 0b 98 9a bd 3f c8 be bc dd 4b 26 3d 69 e1 08 3e
       -0.07548531 -0.023288844 0.040599693 0.13367237
0001c0 65 70 88 bd f9 b8 7f be c0 76 8d bc bd 80 ec be
       -0.066620626 -0.24972905 -0.017268538 -0.4619197
0001d0 9c 32 39 bf d7 19 a6 3e 49 7e ef 3d b2 12 22 3e
       -0.7234285 0.3244159 0.11694009 0.15827444
0001e0 70 18 d1 3d cc d7 8c bd ef 99 96 3d 0b 5e a4 3e
       0.10209739 -0.068770975 0.07353579 0.32103
0001f0 e8 9a 52 bd 27 4b 31 3d c6 5b cc bc 03 02 ea bd
       -0.05141726 0.04328456 -0.024946105 -0.11426165
000200 55 99 59 be ef 7b 76 3e 0a 5a 99 ba f1 ab 15 3d
       -0.21249898 0.24070714 -0.0011699807 0.03654093
000210 16 9c ec be e8 31 57 3e 4a 30 c5 3e 31 9a 63 bd
       -0.46212834 0.21015131 0.38513404 -0.05556697
000220 23 00 4c bd b5 85 9b bd 9e e0 93 be 52 15 48 be
       -0.049804818 -0.07593862 -0.28882307 -0.19539383
000230 76 be 6f 3c d6 0a 3f be 4d ae af 3d 45 75 6d 3e
       0.014632812 -0.18656477 0.08578167 0.23189266
000240 98 56 b9 be c6 54 81 bd d4 c5 19 3f 40 10 1c bf
       -0.36198878 -0.063149974 0.60067487 -0.60962296
000250 f9 29 9e be 93 fb 5f 3f 09 bc f5 3d 53 4c 19 3e
       -0.30891398 0.87493247 0.119987555 0.14970522
000260 be c9 27 3f 1f 57 04 be 0f 5c a9 be 25 6f 5d be
       0.6554221 -0.12923859 -0.33078048 -0.2162443
000270 ab ed 9d be 71 00 3d bd 51 1c 74 be 24 0b 0f 3e
       -0.3084539 -0.046143 -0.23838927 0.13969094
000280 33 55 94 3e 36 33 80 be 15 f6 7f be 43 35 19 be
       0.28971252 -0.2503907 -0.24996217 -0.14961724
000290 33 31 07 3e 9a 68 72 3e 59 3c 06 bd cb 17 51 3d
       0.13202362 0.23672715 -0.032772396 0.05104808
0002a0 74 31 82 be 47 37 8b be 6e f3 e4 be d7 8b 26 bc
       -0.25428355 -0.2719061 -0.44716972 -0.010165176
0002b0 3e 0b 6c 3e ec b2 7e be 00 7d da 3c 83 09 84 3e
       0.23051164 -0.24872941 0.026670933 0.25788507
0002c0 53 8e 37 bd b7 61 ae 3e ee 37 7a 3e 0b b0 29 3e
       -0.044813465 0.34058926 0.24435398 0.16571061
0002d0 2d d4 2a be 34 07 a0 be f6 30 e8 3d 39 77 95 bd
       -0.16682501 -0.31255496 0.113374636 -0.072981305
0002e0 d6 a2 8d bd 05 4c 17 3b d5 35 73 bc 66 7f 3c 3e
       -0.06915824 0.0023086083 -0.0148443775 0.18407974
0002f0 9c 47 24 3e 6c ab 0a 3f 47 75 e0 3e 69 30 82 3e
       0.16042942 0.5416782 0.43839476 0.2542756
000300 d3 7c d0 3e 41 1e 08 3e 3f 02 a9 3e 84 45 40 bd
       0.40720233 0.13292791 0.33009526 -0.046941295
000310 5d 86 a2 3d 5f 51 1e 3e 2a 3a e4 bd 39 ba 01 3f
       0.07935784 0.15460728 -0.111439064 0.5067478
000320 43 5f 55 3e 5d 4e d7 3e f7 cf 0b 3f c8 c1 84 3b
       0.2083712 0.42051974 0.54614204 0.004051421
000330 7b 65 8a 3d c5 1b 4e 3c 9b 03 96 bd de a3 93 3d
       0.06757637 0.012579863 -0.073249064 0.072089896
000340 58 d1 ce 3e f7 75 5b be 9d f0 31 3e 73 ff ca 3e
       0.40394092 -0.21431719 0.17376943 0.39648017
000350 66 7c 3b bd 7a a4 5e bd 52 ea bb 3b 7d 57 ec 3c
       -0.045772932 -0.054356076 0.0057347203 0.028850311
000360 dd 56 10 3d b4 37 b1 3d 54 a6 f7 3e 9f 43 92 be
       0.03523909 0.08653203 0.48369086 -0.28567216
000370 c2 dc 4f bd 11 8e c8 bd fb 40 29 be 0d a9 0e bf
       -0.05074764 -0.09792722 -0.16528694 -0.557267
000380 ac 93 f1 be ba 64 2c be bf a1 a2 3d e6 1c af be
       -0.47182977 -0.16835299 0.07941007 -0.34201735
000390 88 7e fc bd 57 02 94 3e d3 61 f6 3e fa bf 8e be
       -0.123288214 0.28908035 0.4812151 -0.27880841
0003a0 b6 02 6d 3e c3 45 da 3e 37 fc 9d bc 04 cf 9b be
       0.23145565 0.4263135 -0.019285304 -0.30431378
0003b0 2d d1 2c 3e 3a 95 69 3e e0 dc 36 be 29 1c 5b 3e
       0.16876669 0.22810832 -0.17857695 0.21397461
0003c0 83 d0 ad 3e 45 36 e0 3e 9c 56 76 3e 16 63 2e 3e
       0.33948144 0.43791404 0.24056476 0.17029986
0003d0 73 90 e6 3e 0d 8c 3b 3e 75 65 03 bf 3f e0 1a 3e
       0.4503208 0.18315144 -0.51326686 0.15124606
0003e0 c6 74 23 3f 55 59 c2 be 2f 80 dd be 57 ac d7 bd
       0.6385006 -0.3795878 -0.4326186 -0.10530918
0003f0 a7 5d a4 be f2 4b 3b be 72 80 a4 bd 76 35 dc 3e
       -0.321027 -0.1829069 -0.080323115 0.43009537

conv1_0.1.conv1.bias f4 [8]
000000 99 69 66 3e 55 74 86 3b 5e 2d fd bc 18 ee 4c be
       0.2250122 0.0041032233 -0.030905422 -0.200127
000010 e5 a9 67 bd a7 12 09 3e 6b 80 70 3e f5 27 34 3e
       -0.05655851 0.13386022 0.23486488 0.17593367

conv1_0.1.bn1.weight f4 [8]
000000 8f fe a4 3f 19 2a 6c 3f 3e 92 56 3f 03 87 9c 3f
       1.2890185 0.92251736 0.838169 1.2228702
000010 8e e6 55 3f da 4b 76 3f 5f 33 91 3f b2 d4 a0 3f
       0.83554924 0.9620949 1.1343802 1.256491

conv1_0.1.bn1.bias f4 [8]
000000 44 a3 9d be 1f 36 27 3e a5 bc 09 3d 13 c7 f1 3e
       -0.30788624 0.1632924 0.03362717 0.47222194
000010 27 ed 3f 3f 2b 1a 94 bd fe c7 17 bc ae 0e a9 3e
       0.7497124 -0.07231554 -0.00926399 0.33019012

conv1_0.1.bn1.running_mean f4 [8]
000000 52 5c 44 c0 a5 41 b7 bf 9d 17 47 40 f2 be 96 bf
       -3.0681348 -1.4316908 3.1108162 -1.1777022
000010 ad d7 ec c0 64 f8 ba bf 68 19 53 c0 08 88 c1 c0
       -7.4013276 -1.4607053 -3.2984257 -6.0478554

conv1_0.1.bn1.running_var f4 [8]
000000 df f5 7f 40 dc f3 08 41 18 b7 b3 40 a9 47 82 40
       3.9993818 8.559536 5.6161003 4.0712476
000010 e2 cd a6 41 d2 37 07 41 b5 15 13 41 be 7c 47 41
       20.850529 8.451128 9.1928 12.467955

conv1_0.1.conv2.weight f4 [8, 8, 3, 3]
000000 4e 5f c0 3e 20 72 d0 3e 97 c2 5f 3e 34 b0 97 3d
       0.37572712 0.4071207 0.21851574 0.07406655
000010 73 24 9f 3e cb 07 90 3e cc e9 76 be f2 c6 11 bf
       0.31082496 0.28130946 -0.24112624 -0.5694419
000020 34 fc 3d 3d 09 08 88 3d d9 5f 9d 3e ff fa 08 3e
       0.046383098 0.066421576 0.30737188 0.13376997
000030 73 83 84 3e 8c 24 3f 3f ca 90 bb 3e 42 c9 4e bd
       0.25881538 0.7466514 0.36633903 -0.050484903
000040 69 a2 46 3e 07 21 8c be 9c 78 23 bf 11 b5 9b bd
       0.19397892 -0.27368948 -0.6385591 -0.07602895
000050 a5 16 8f be 84 f6 4b be 16 44 6f 3e ff eb 9c 3c
       -0.27946964 -0.19918257 0.23365816 0.0191555
000060 bc 37 23 be 19 e8 17 be 57 de 84 3e 07 4c ef bd
       -0.1593923 -0.14834632 0.25950882 -0.11684423
000070 ad 5e 0e bf d0 b3 7c bd 86 b0 aa be 42 69 87 be
       -0.55613214 -0.06169492 -0.33337802 -0.26447493
000080 ec 2f 05 be 88 80 d6 be b9 5a 5f 3e 9a 35 4b 3e
       -0.13006562 -0.41894937 0.21811952 0.19844666
000090 a0 10 c6 3e 86 49 23 3e 55 96 3a 3e 23 c7 4a 3c
       0.3868456 0.15946016 0.1822141 0.012376579
0000a0 ca 07 a0 be 8c 71 af be a3 55 15 3e 6c 14 78 be
       -0.31255943 -0.34266317 0.14583449 -0.2422654
0000b0 ec d7 60 be 20 3f ec 3e ae f9 88 3e d2 92 a7 3e
       -0.21957368 0.4614191 0.2675299 0.32729203
0000c0 1b 44 43 3e 6b ad 01 be 7f a5 4f be ad e0 c9 3e
       0.19068949 -0.1266381 -0.20277975 0.39429227
0000d0 05 e4 92 bd bc e6 23 be 04 90 30 bc 3d fe ad 3c
       -0.071723975 -0.16005987 -0.0107765235 0.021239394
0000e0 d2 c5 c3 bd 83 8e 11 3d a8 17 9f be e3 b5 6e 3e
       -0.095592156 0.0355363 -0.31072736 0.23311572
0000f0 8e 28 1a 3d ea 98 3c 3e 7b 43 6a 3e df 93 30 3d
       0.037636332 0.18417707 0.22877304 0.04310977
000100 f9 4f c8 3e 5b 03 91 3e 41 93 0a 3f f6 c9 c0 3e
       0.39123514 0.28322873 0.5413094 0.37654084
000110 d4 8a 0c bd fa fb 9a 3d b7 4e a2 bd 4b 2d a7 bd
       -0.034312084 0.07567592 -0.0792517 -0.08162936
000120 8b 5b 6e bf bd 75 1b bd 18 e0 95 3e a6 09 b7 be
       -0.93108433 -0.03795408 0.29272532 -0.3574955
000130 98 3f a3 bd d4 fd 4c 3e f6 93 4a 3e d1 8f 07 3e
       -0.07971114 0.20018703 0.19783005 0.13238455
000140 89 f1 fa be d9 9e cd 3c be fc 12 3e d2 75 af be
       -0.49012402 0.025100159 0.14354226 -0.34269577
000150 10 09 3d bd e0 74 20 be 2c a9 1a 3e 42 30 6a be
       -0.04615122 -0.15669584 0.15103596 -0.22869971
000160 91 d4 12 be 05 36 43 3e 4f 03 03 be ae e5 5b be
       -0.143389 0.19063576 -0.12794231 -0.21474335
000170 9e cd 1d be 45 54 9b 3d 64 e6 85 be c2 d9 7b be
       -0.15410468 0.075844325 -0.26152337 -0.24594787
000180 ba a9 6c be bf c2 0b bf a2 1f f0 be 6b 53 b5 3e
       -0.2311162 -0.54594034 -0.46899134 0.35415205
000190 81 09 ab 3d 49 55 08 3e a2 da 5a 3e d0 94 6d be
       0.08351422 0.13313784 0.21372464 -0.23201299
0001a0 6b 6a 6f be fd 6e 86 be 0a 4b a6 be 34 5b 06 bf
       -0.23380439 -0.26256552 -0.32479125 -0.52482915
0001b0 67 7b e4 bd 1d aa b0 3e e2 86 80 3d 6e e5 a3 be
       -0.1115635 0.34504786 0.06275727 -0.32010978
0001c0 03 a1 fa 3d f6 ec 28 3e 49 08 98 bd ad 0f b9 3e
       0.12237742 0.16496643 -0.07423455 0.36144772
0001d0 fc de 14 3e 2c 76 64 be 5f 44 f9 bd fd e3 1b bd
       0.14538187 -0.22310704 -0.12171244 -0.038059223
0001e0 02 31 ad be d4 58 5c bd ef 19 ee bc f7 97 24 be
       -0.33826452 -0.05379565 -0.0290651 -0.16073595
0001f0 c9 c5 87 be bd 99 64 be b2 27 36 be 51 20 0a be
       -0.26518086 -0.22324272 -0.1778858 -0.1348889
000200 c4 df b6 3d 87 fb 10 3e 6d 6f 42 3d 40 ea b9 be
       0.08929399 0.1415845 0.047469545 -0.3631153
000210 4a b3 10 3f 6f 4c 9c 3e 99 00 4e be 7a c7 cd bd
       0.56523573 0.30527064 -0.20117415 -0.10047813
000220 1e 0c 21 be 1a 5a 9e bc f0 b4 a2 be 89 c0 57 be
       -0.15727279 -0.019330073 -0.3177867 -0.2106954
000230 6e cd 54 3e a1 94 04 3e d9 d5 08 be 81 a0 1d 3f
       0.2078149 0.12947322 -0.13362826 0.61573035
000240 8f 4a d4 3e 9c d8 81 3d 8d 5f f1 3c 31 78 48 3e
       0.41463134 0.06340143 0.029464507 0.195771
000250 61 0c 1e be 24 66 41 be 8a 28 55 3d 6e b2 6a 3e
       -0.1543441 -0.1888662 0.052040614 0.22919628
000260 a9 a2 68 3e ea 72 38 3e 9e 77 fa bd 7d 8f 86 be
       0.227183 0.18012586 -0.122298464 -0.26281348
000270 a0 c7 bf 3d cf 49 c8 3d 75 99 02 3d be 54 5b 3e
       0.09364247 0.09779703 0.03188463 0.21419045
000280 18 28 b3 3e 45 fa b1 3e 8d c5 cb 3d 03 a8 bd be
       0.34991527 0.34761253 0.09949789 -0.37042245
000290 48 86 12 bf af 75 7c be f0 27 c2 bd c5 e3 f3 be
       -0.57236147 -0.24654268 -0.09480274 -0.47634712
0002a0 a0 a5 57 be 27 7c 8f be 37 2e 65 bd 1c 62 22 be
       -0.21059275 -0.28024408 -0.055952277 -0.15857738
0002b0 fb fe d2 be bc dd 7e be b7 6a a1 bd 45 f3 8c bd
       -0.4121016 -0.24889272 -0.07881682 -0.068823375
0002c0 a7 80 01 bf e4 00 be be b3 b5 bf be 8b 7d 99 be
       -0.5058693 -0.37110054 -0.37443313 -0.29978594
0002d0 06 f2 83 be 08 12 42 3e 9c 0d cc 3d cb 9a 18 3c
       -0.25770587 0.18952191 0.09963533 0.009314249
0002e0 fa 3d bc 3e e9 98 3e 3e bd 87 f1 3e 8e 1b 14 3f
       0.36766034 0.18613018 0.47173873 0.57854545
0002f0 c1 e0 a7 3e b0 2c 28 be 3e 6b 28 bc 49 2a 36 be
       0.3278866 -0.16423297 -0.010279475 -0.17789568
000300 e4 6d 5c 3d 67 e2 8c be 85 4b 88 be ab 54 f4 3d
       0.053815737 -0.2751648 -0.26620117 0.11930212
000310 68 bf c5 bd 55 b0 af be b7 a9 64 3d 4e 8d 85 3e
       -0.096556485 -0.34314218 0.055825915 0.2608437
000320 4e 63 e0 3e 99 8d af 3e 1a e5 46 ba ff a7 43 3c
       0.43825763 0.34287718 -0.00075872394 0.011941909
000330 31 2b ef 3e c7 6e f4 bd f5 ea 82 3d c7 e7 a1 bd
       0.4671264 -0.119351916 0.06392471 -0.07905536
000340 0b b8 82 bd a1 41 fc 3c 84 3b bb 3e a3 14 15 3f
       -0.0638276 0.030793013 0.36568844 0.58234614
000350 f5 67 ca 3e fc 6b ac 3e 73 8b 16 3f de c7 02 3f
       0.39532438 0.33676136 0.5880653 0.51086223
000360 d2 f5 47 3e ce 90 92 3e 40 d5 81 3e fd 80 52 bf
       0.19527367 0.28626102 0.2535801 -0.8222807
000370 bd fe 8a be 7c de dd 3d 5e 2b 03 bf 2c ea 0f bf
       -0.27147475 0.10833451 -0.5123805 -0.5621669
000380 6a c9 49 3e e1 06 e4 3e 71 a1 ec 3e 2b d1 a6 3e
       0.1970574 0.44536498 0.4621692 0.32581457
000390 13 07 ac 3d d9 0b 4d 3c a7 d9 00 3e b2 10 4c 3e
       0.08399787 0.012515032 0.12583028 0.19928244
0003a0 1b 8e 3d 3e a4 15 72 3e 59 6e cb 3e 19 52 c4 3c
       0.1851124 0.23641068 0.39732626 0.023964928
0003b0 4a d8 31 3d 03 30 e5 3e a9 dc 73 3e 7a 8b 59 bb
       0.04341916 0.44763193 0.23814644 -0.0033194707
0003c0 98 c1 8f 3e d3 6c 14 bd 52 f9 b8 3d 80 5a d9 3e
       0.28077388 -0.036236595 0.09031929 0.4245186
0003d0 ae d3 11 3d ec 79 ac 3d d4 58 61 3e 0c e8 0c bd
       0.035602264 0.08421692 0.22006541 -0.034400985
0003e0 d2 9b 32 be 67 43 81 3c 1a 37 c4 be 65 2e db bd
       -0.17442253 0.01577921 -0.3832329 -0.107022084
0003f0 38 0c 93 be e0 2e c1 be 99 58 b6 be c2 46 08 bf
       -0.2872026 -0.37731075 -0.3561447 -0.5323297

conv1_0.1.conv2.bias f4 [8]
000000 98 35 de 3d 4e f0 11 be 5e 12 b5 bc 28 5c 3b 3d
       0.10850066 -0.14251825 -0.022103485 0.045742184
000010 c1 db 82 3e ba 02 8e bd 41 f6 f6 bd 7a f4 d2 3e
       0.25558284 -0.06934114 -0.12058688 0.41202146

conv1_0.1.bn2.weight f4 [8]
000000 1a bf 96 3f df a5 b0 3f cf a2 7f 3f 33 ff 91 3f
       1.177707 1.380062 0.998578 1.1406006
000010 f5 91 84 3f 07 b0 84 3f 0e c4 8c 3f a9 44 93 3f
       1.0357043 1.0366219 1.0997331 1.1505328

conv1_0.1.bn2.bias f4 [8]
000000 b9 bc 12 3e 5f 01 d8 3e 60 78 6b 3d 99 35 1f 3f
       0.14329804 0.42188546 0.057487845 0.6219116
000010 55 ca 10 3f bc 5e a6 bd 44 d1 eb 3f 38 20 d9 3f
       0.56558734 -0.08123538 1.8423238 1.6962957

conv1_0.1.bn2.running_mean f4 [8]
000000 94 a6 7b 3f 4d 6a aa bf 86 92 dd 3f 7c c7 c5 bf
       0.98301053 -1.331369 1.731034 -1.5451503
000010 b0 3d 52 bf 0f c6 8e bf 1d 3f f2 bf f7 73 a4 bf
       -0.8212538 -1.1154193 -1.8925511 -1.284789

conv1_0.1.bn2.running_var f4 [8]
000000 c8 1e 63 40 42 5a 91 40 b6 44 fe 40 fd a7 a5 40
       3.5487537 4.542268 7.9458876 5.1767564
000010 ba af b4 40 f1 61 90 40 72 3b 0e 40 7f 88 82 40
       5.646451 4.5119557 2.2223783 4.079162

conv2_0.0.conv1.weight f4 [16, 8, 3, 3]
000000 92 c4 1f 3e e4 8c d3 3e 87 b1 9b 3e 16 fb 40 bc
       0.1560233 0.4131843 0.3040888 -0.011778614
000010 6b 7d 53 bd c6 e2 58 3c a1 7e 86 be 15 a6 df 3d
       -0.05163328 0.013237661 -0.26268485 0.109203495
000020 2d 21 2c 3e 28 5a 9c 3e 17 89 b5 bc 7a 3b 00 3e
       0.1680953 0.30537534 -0.022160096 0.12522689
000030 1d 43 8b 3e 4a b2 58 3e 33 d6 f1 3e f9 0e af 3e
       0.2719964 0.21161762 0.47233734 0.3419111
000040 21 b0 8b 3e 4b a6 29 3e 8d 4f a6 3e 11 e4 09 3e
       0.27282813 0.16567342 0.32482567 0.13465907
000050 94 53 88 be b0 f1 bd 3e f7 58 af ba e2 ef f4 bd
       -0.26626265 0.37098455 -0.0013377954 -0.119598165
000060 9a 8b 7c 3e 66 87 64 3e aa 4d 6a be a8 96 dc bc
       0.24662629 0.22317275 -0.22881189 -0.026927307
000070 99 c7 82 3e 24 1c 39 3f 0d 87 0e 3e 81 1c f0 3d
       0.25542906 0.72308564 0.13918705 0.11724187
000080 4f 89 e6 3e 4a 7b 21 be 75 e4 a1 bd 44 75 68 3c
       0.45026633 -0.15769687 -0.07904903 0.014188115
000090 c2 c3 4d 3e ff c8 b0 bc d8 fa ef 3c fb c1 2b 3a
       0.20094207 -0.021580217 0.029294416 0.00065520377
0000a0 50 d7 08 3e d5 bc 1f be 35 92 b7 3d 02 a1 4e 3e
       0.13363385 -0.15599377 0.08963434 0.20178607
0000b0 0e 5a 13 3e 3b 12 c4 3d 34 b2 43 be 70 d6 fd bd
       0.14389822 0.0957379 -0.19110948 -0.12394416
0000c0 64 07 7a 3e ef c5 e1 3a 59 8d 98 be 92 fe 84 bd
       0.24416882 0.0017225127 -0.2979534 -0.06493868
0000d0 ad a5 d2 be 1a 4b 82 be fa d2 96 3e 34 0b ae 3c
       -0.41142026 -0.25447923 0.29457837 0.021245576
0000e0 70 33 4f bc 10 53 6e 3e 1b d5 c0 3d eb fe f1 3e
       -0.012646541 0.23273873 0.09415647 0.472648
0000f0 bb e6 99 3e ae 93 18 bd 4e b8 81 be fb e2 c4 3e
       0.30058846 -0.037250213 -0.25335926 0.38454422
000100 8d 87 9d 3e a8 84 88 3e b5 d8 0d 3f 33 66 0f 3f
       0.3076748 0.2666371 0.55408794 0.5601532
000110 ca 78 db 3e ed 00 07 3d 11 27 2b 3d 54 73 93 3d
       0.42865592 0.032959867 0.041785304 0.071997315
000120 96 71 2a 3e f3 d2 58 3f a5 d1 50 3e 62 71 97 be
       0.16644892 0.8469688 0.20392473 -0.29578692
000130 a1 b0 17 3f 71 23 e5 bd 4d 12 0c be 2a 0f a1 3d
       0.5925389 -0.111884005 -0.13678856 0.078642204
000140 57 af ee bd f6 89 1c 3e 75 8c 94 3e d6 33 37 3e
       -0.11654537 0.15287003 0.2901341 0.17890868
000150 d1 3e 79 3b ce 07 cd be 5d 44 92 bd 1f c4 b3 3e
       0.0038031826 -0.40045017 -0.071419455 0.35110566
000160 70 51 99 be d3 be 66 be 6d b7 9c bd 61 3e 84 3e
       -0.29944944 -0.22533731 -0.07652173 0.2582884
000170 bc 8f b4 be 06 e7 e2 bc 36 10 da bb ea c2 71 3d
       -0.3526591 -0.027698051 -0.0066547645 0.059023775
000180 b6 0f 80 be 3e d3 92 be e9 22 11 3e 30 16 84 3e
       -0.25011986 -0.2867679 0.14173473 0.25798178
000190 53 ed c1 3e e1 41 0d 3f 3f a3 b3 be cc 31 8e 3d
       0.37876377 0.5517865 -0.35085484 0.06943092
0001a0 69 a0 6c 3e ec d8 41 be aa 4d 1b be ab eb ae bb
       0.23108067 -0.18930405 -0.15166345 -0.0053381524
0001b0 2d 44 13 be d7 8c 78 bd d9 9a c5 bd 6b de a6 be
       -0.14381476 -0.06068119 -0.096486755 -0.32591566
0001c0 75 0e a5 bd 2f 3d 36 3d 3f 43 73 be b2 89 87 be
       -0.08059398 0.044491943 -0.23756121 -0.2647224
0001d0 99 4e 80 3d 3c 14 1c 3f e8 8d 26 3f c2 95 f6 3e
       0.06264991 0.60968375 0.6506028 0.4816113
0001e0 d7 a8 fb bd f5 6e 75 bc 0f 19 09 be 1e f8 89 be
       -0.12288063 -0.0149800675 -0.13388465 -0.2694711
0001f0 c8 4e d0 3c 66 9f 01 bd 71 b4 83 3e e0 3f 06 be
       0.02542819 -0.031646155 0.25723603 -0.13110304
000200 58 6b b3 bd 31 fb f9 be dc 6e 19 be 34 d8 d3 3c
       -0.087607086 -0.48824456 -0.14983696 0.02585993
000210 1f 8f 4a 3e 16 4a 8e be 87 18 67 be 61 aa 89 3e
       0.19781159 -0.27790898 -0.2256795 0.268878
000220 eb 39 c0 3e 70 ea b5 3c c4 53 e9 be 96 4a 90 be
       0.37544188 0.022206515 -0.4557172 -0.28181905
000230 92 3c e5 3c 25 6c 9e 3d 50 ca 77 be 5b f8 e0 be
       0.027982984 0.07735471 -0.2419827 -0.4393948
000240 2a d4 48 bc 07 85 8a bd 35 89 6d be fb c9 6b 3f
       -0.012257615 -0.06763654 -0.23196872 0.9210507
000250 85 ee 88 3e e0 d5 70 be 4e 1a 8f 3e ad 6d 04 be
       0.26744476 -0.23519087 0.27949756 -0.12932463
000260 0a 81 c0 3d b5 9c 50 3e 23 68 03 be 4d 42 2e be
       0.09399612 0.20372279 -0.12832694 -0.17017479
000270 f2 b5 ab 3e 11 f3 bd bc a3 9d 1b be 2b fa 44 3e
       0.3353725 -0.023187192 -0.15196852 0.19236057
000280 a5 5c 91 be 7b 1b 8f bd aa 88 8d 3d 59 c9 8c 3e
       -0.28390995 -0.06987663 0.06910832 0.27497366
000290 a2 16 6d 3e 64 f5 bb 3d cc c2 a3 3e 0f 10 10 3f
       0.23153165 0.09177664 0.31984556 0.56274503
0002a0 17 c1 8e be fa 05 a7 be a3 17 5b bd 30 67 94 3c
       -0.2788169 -0.32621747 -0.05348934 0.01811561
0002b0 f6 79 4b be c9 d8 cb be 78 68 a2 3e 22 c1 8c bd
       -0.19870743 -0.3981383 0.31720328 -0.06872775
0002c0 92 a3 e2 be e6 5c 0b 3f 18 79 8b bd 27 7f e5 3d
       -0.4426542 0.54438627 -0.06810206 0.11205893
0002d0 00 e8 10 3d 50 a2 85 3e 30 c8 c9 bd 8f d3 b2 3e
       0.035377502 0.26100397 -0.09852636 0.3492703
0002e0 8f 4c 29 3f 46 63 ae 3e e4 bc ba 3b 81 03 fa bd
       0.66132444 0.34060115 0.005698787 -0.122076996
0002f0 3e ea 24 be 1e 0f 05 bf d6 a5 16 3e ce 08 c2 3e
       -0.16104981 -0.5197619 0.14711699 0.37897342
000300 c8 f8 3c bf eb 34 22 be c2 ae 9b 3c 60 78 67 bc
       -0.7381711 -0.15840499 0.01900423 -0.014127821
000310 1f 73 23 be b4 67 f6 bd 35 0b 24 be 5b 4b e1 bd
       -0.15961884 -0.120314986 -0.160199 -0.11000701
000320 f4 d8 3b bd 39 86 c3 3e 2a 44 27 3e b3 47 38 be
       -0.0458612 0.3818834 0.16334596 -0.17996101
000330 80 eb 40 3e 13 3e a8 be 92 33 d7 bd 0d 96 9f be
       0.18839836 -0.3285986 -0.10507883 -0.31169167
000340 8a d8 73 be 9a 84 9a be 14 c9 6d 3e f4 87 26 be
       -0.23813072 -0.30179292 0.23221236 -0.162628
000350 70 15 58 be 6d 87 7c 3e f7 42 1b 3e e0 80 a6 3c
       -0.21101928 0.24661036 0.15162264 0.020325124
000360 c2 66 b5 3e 18 9f f2 3d f0 64 9c 3e c5 c8 c3 3e
       0.3542996 0.11846751 0.3054576 0.38239112
000370 d9 73 bc 3e fe 68 93 bd f6 30 d3 3d 71 aa 39 3e
       0.36807135 -0.0719776 0.10312073 0.18131424
000380 77 01 26 3d 94 da e3 be bf c2 36 be 4f c8 22 be
       0.04052874 -0.445027 -0.17847727 -0.15896724
000390 cc 65 0f be 6e e3 57 3d 1e b9 8b 3e 81 e6 b0 3d
       -0.14003676 0.05270713 0.2728967 0.08637715
0003a0 aa 78 10 3f 77 1f 81 3e 24 95 71 be 48 71 c8 be
       0.5643412 0.25219318 -0.23592049 -0.39148927
0003b0 95 65 8c be f8 ac c1 be d6 3c c6 be e8 1f f0 be
       -0.2742125 -0.37827277 -0.3871829 -0.46899343
0003c0 f1 b4 60 bd 4c a8 17 bc 4a 3c 19 bd 5b 22 97 3e
       -0.05486006 -0.009256434 -0.03741101 0.295184
0003d0 25 01 a3 3d 3f 4b 8e 3b 3a fd 1f 3e 69 41 3a 3d
       0.07959203 0.004342466 0.15623942 0.045472536
0003e0 22 68 82 3d a7 27 54 3e 43 7a 0c 3c 1f ac 5c be
       0.06367518 0.20718251 0.008574071 -0.21550034
0003f0 91 12 98 3c e6 d3 08 be f7 f3 c1 be 58 72 2b be
       0.01856354 -0.13362083 -0.37881443 -0.16742837

conv2_0.0.conv1.bias f4 [16]
000000 a0 22 b9 3d ba d4 d2 3d 6a 9b 0b 3d ce 70 31 be
       0.09039807 0.102944806 0.03408376 -0.17328188
000010 e5 c6 01 3f 68 22 b7 be 13 4e d6 3d 94 72 93 3e
       0.50694114 -0.35768437 0.1046411 0.28798354
000020 24 99 3e be de 06 ac be d8 f7 10 3e 2a 92 43 3e
       -0.18613106 -0.3359899 0.14157045 0.19098726
000030 ff 70 9d be 59 66 c7 3e 66 01 98 3d 3e d9 87 3e
       -0.30750272 0.38945273 0.07422142 0.2653293
