result_WS/Dataset-mask/model_weight.pth.tar (torch, 296588 bytes, 163 tensors)

conv0_0.0.conv1.weight f4 [4, 3, 3, 3]
00000000: 9be2 b8be feb8 12bc 8d5f 34be 9b56 743e
00000010: ce15 d23e ba01 bfbe a002 1c3e 6554 a0be
00000020: 558f 243d bcf6 c9be 66fc 8cbd 1c93 96bc
00000030: 5bcc b6be abc9 313f f85d 3abe 7678 74be
00000040: 2f3c e3bd 4d0d 173e e4eb 61be 9421 d53c
00000050: 0696 1c3e 1549 02bd f8ac 253f 9203 18be
00000060: 2ba8 133e 789a 0cbe 0090 a13d 7f76 5e3f
00000070: f442 8b3e 326e d33d 4652 173f 2bce bdbc
00000080: 6c22 a4be b3c3 1bbf 98a7 8ebe 739b e6bd
00000090: dbd4 173f 1723 b73e d9ef 113b 37d2 853e
000000a0: 3c42 b23d fb3d a6be 6581 58bd 136e 93be
000000b0: 119b 4bbe 1c46 113f d16a 633e f9da cbbd
000000c0: 4c54 8f3e d98c ddbd d8a9 89be 5aef 8a3c
000000d0: 8610 a1bd c58e 83be 63ee 28bc cc45 98bd
000000e0: d980 023f f6e8 89be 7257 b0be 2241 cb3e
000000f0: f2c6 833d cd0a d6be ab4c 1fbe d0a4 4a3e
00000100: 1a82 793e fb00 233f 84c8 82be f782 92be
00000110: 4775 903e 795d 5fbe ad29 6f3c ad06 533e
00000120: e655 b0be e67d 19be 0e2d fa3e 4d1a d3bd
00000130: 7802 e8bd 5dc7 3b3e 98da 30be 8bec 7c3d
00000140: 9a27 583d b432 0bbe b6d8 9fbe 0eeb 343e
00000150: 529d adbe b510 30be 249c 3139 f890 a03e
00000160: c355 94bd 2604 dcbd b5ff 2dbd 9f58 b9be
00000170: cee5 ac3e 8539 dabe 4cca f2be 6c64 c93d
00000180: 75bf 893e 2ec1 91bd 8494 263e af89 05bf
00000190: 474b 45be 6778 423e 78cb a6be 2890 2fbd
000001a0: 88dd 833e 7130 b23e bdf1 a43e 64cd 8d3e
-0.36110386 -0.008955238 -0.17614575 0.23861162 0.4103226 -0.37306005 0.15235376 -0.31314388
0.040175755 -0.39446056 -0.06884079 -0.018380694 -0.35702786 0.69448346 -0.18199909 -0.23874077
-0.110954635 0.14751168 -0.22062641 0.026016988 0.15291604 -0.031807978 0.64717054 -0.14845112
0.1441962 -0.137308 0.07888794 0.8689956 0.2719952 0.103237525 0.59109914 -0.023169598
-0.32057512 -0.6084549 -0.2786224 -0.11260118 0.59309167 0.3576896 0.0022268204 0.26136944
0.087040395 -0.32469162 -0.052857775 -0.28794917 -0.19883372 0.56747603 0.22208716 -0.09953875
0.27994 -0.1081788 -0.26887393 0.016959835 -0.0786448 -0.25694862 -0.010310742 -0.07435188
0.50977856 -0.26935548 -0.34441715 0.3969813 0.0643443 -0.41805115 -0.1555659 0.19789433
0.24366036 0.6367337 -0.25543606 -0.28615543 0.28214476 -0.21813 0.014597339 0.20608015
-0.34440535 -0.14989433 0.488625 -0.10307751 -0.11328596 0.1833777 -0.17270887 0.061749022
0.052772142 -0.1359356 -0.31220025 0.17667791 -0.33909088 -0.17193873 0.00016938202 0.31360602
-0.0724292 -0.10742979 -0.04248019 -0.36200425 0.33769077 -0.4262201 -0.47419965 0.09833607
0.26903883 -0.07116924 0.16267592 -0.52163213 -0.19266997 0.18991242 -0.3257711 -0.042862087
0.25754952 0.34802583 0.32215682 0.27695763

conv0_0.0.conv1.bias f4 [4]
00000000: afb9 3f3e 6b27 873c 0379 5abe 1967 56be
0.18723176 0.016498288 -0.21335225 -0.20937766

conv0_0.0.bn1.weight f4 [4]
00000000: a802 5e3f 7dee 583f 29b1 093f 70fb 893f
0.86722803 0.84738904 0.5378595 1.0779858

conv0_0.0.bn1.bias f4 [4]
00000000: 4d99 3abe f77b 7b3e 34bd 8a3f 8ac2 93be
-0.18222542 0.24559008 1.083899 -0.2885936

conv0_0.0.bn1.running_mean f4 [4]
00000000: 3c5e 803e cba8 2fbe 1950 8fbe 4093 99bd
0.25071895 -0.17154233 -0.27990797 -0.07498789

conv0_0.0.bn1.running_var f4 [4]
00000000: fadf 173e 4c24 b23f 4810 5f3e f951 2c3f
0.14831534 1.3917327 0.21783555 0.6731258

conv0_0.0.conv2.weight f4 [4, 4, 3, 3]
00000000: 54ed b8be fa61 e2bd 7f9d 033e c00e 683e
00000010: 9fae 5abe e13f 373f 430b 7c3d beff 223f
00000020: 4a22 ab3e c5e7 013e 66b9 813e 493f 9c3d
00000030: e10e 6abe dbba 1abf 98bd 80bd 1ef9 bfbe
00000040: ff22 e53d 6e5f 723e 291d 95be bcac 813d
00000050: 5ced 433e eb71 e9be 302e 48bd ccfd 4b3e
00000060: c9af 06be 4ca4 4c3e 899c b43d 020b 6abe
00000070: d681 a03c e53e 823e 7db8 a0be a012 693f
00000080: 142b 2dbe 30a0 bfbe 6c04 e23e fabb d2be
00000090: cfb6 2d3e 094e dbbe 30be 0dbe 6d6c fabe
000000a0: 451c f73e c78f 2dbe d58c d83d a309 43bd
000000b0: d163 efbd f477 b6be 8874 d1bd 9d03 c9be
000000c0: 2c44 cebe d163 9b3e 8778 963e a017 dabd
000000d0: e833 173e 3437 bf3e e30c 85be dfcf 9cbc
000000e0: 9c3e 9fbe 80fa 8f3e 918c 7abe ab03 49be
000000f0: b1ad dd3e cf22 873e dd43 a1be baf3 d63e
00000100: 52c2 1b3e 57ff da3e be1b 593e 1532 62be
00000110: 7c83 00bf 26df df3e f06c 9ebe d1a4 fbbd
00000120: 77e6 c83d 5a17 813c 9014 913d c2b2 15be
00000130: 3646 e9be df32 29be 6ca3 f9bd ca52 c9be
00000140: b7e3 babd d7c8 f1bc a82c b63e fd19 5a3f
00000150: b2d5 233d 09bb af3e 2873 6b3e 2ef5 96bd
00000160: 055e d53e 7fae 993e ed65 9dbe 7dc1 fbbd
00000170: ae25 64be c524 29be 4023 9dbe 31d5 aebe
00000180: 6e10 9cbe 89f3 62be 43a9 dabe 4c2b debd
00000190: ab8c 713e 8be3 4cbe fbd5 1c3d 6d66 ba3c
000001a0: 5af0 b0bd a326 95be e2ae 54be bf0f c4be
000001b0: ed0b bf3d 1a91 a5be 36e0 b9be 4dbf ff3d
000001c0: 7223 8cbe 9de4 0d3e bbb0 753d 55f7 a9be
000001d0: 431e ef3d 6169 2e3e 94bd e13e 952b 9e3e
000001e0: a2c7 bf3d 8701 66bc 49fa 4abe 0f95 313e
000001f0: cd0b 2ebe 3105 cfbe c79d 33be c2cb e33d
00000200: bd3e d73e 0430 acbc 113a c73d 98fa de3e
00000210: 375a 03bf 0bf0 4cbc a3cd 253e 0db0 383e
00000220: 0986 12be 1846 9cbe 44e4 8abe 5e95 003d
00000230: ce89 203d 0c2e 51be 10fb 223e b570 4d3e
-0.36118567 -0.11053844 0.12853049 0.22661877 -0.21355675 0.71581846 0.061534178 0.6367148
0.33424598 0.1268607 0.2533676 0.07629258 -0.22857238 -0.6044137 -0.06286162 -0.3749475
0.111883156 0.23669216 -0.2912381 0.063317746 0.19133514 -0.45594725 -0.048872173 0.19921035
-0.13152994 0.1998455 0.08818919 -0.22855762 0.01959316 0.2543861 -0.31390753 0.91044044
-0.16910964 -0.374269 0.44144 -0.4115904 0.16964267 -0.42832974 -0.13842082 -0.48910847
0.48263755 -0.16949378 0.105737366 -0.047616612 -0.1168896 -0.35638392 -0.10227305 -0.3926057
-0.40286386 0.3034959 0.2938883 -0.10649037 0.14765894 0.37346804 -0.25986394 -0.01914209
-0.31102455 0.28120804 -0.24467684 -0.19630305 0.4329658 0.26393744 -0.31497088 0.41982824
0.15210846 0.42772934 0.21201989 -0.22089417 -0.5020063 0.43724936 -0.30942488 -0.122872956
0.09809583 0.015758205 0.07084 -0.14618972 -0.4556138 -0.16523312 -0.121893734 -0.39320976
-0.091254644 -0.029514713 0.35580945 0.85195905 0.039998718 0.34322384 0.22993147 -0.07370983
0.41673294 0.30015942 -0.30741826 -0.12292764 -0.22279999 -0.16517933 -0.30690956 -0.34147027
-0.30481285 -0.22163214 -0.4270726 -0.10848102 0.23588817 -0.20008676 0.038290005 0.022753919
-0.086395934 -0.2913104 -0.20769837 -0.38293263 0.093284465 -0.32337266 -0.36303872 0.124876596
-0.27370793 0.1385674 0.059982996 -0.33196512 0.11675694 0.17032386 0.4408995 0.30892625
0.09364249 -0.01403845 -0.19822039 0.17342018 -0.16996689 -0.40433648 -0.17540656 0.11122848
0.42040053 -0.02101899 0.09727872 0.43550563 -0.5130953 -0.012508403 0.16191725 0.18035908
-0.14308943 -0.30522227 -0.27127278 0.031392448 0.03919392 -0.20427722 0.15916085 0.20062526

conv0_0.0.conv2.bias f4 [4]
00000000: 496c 27bd 5edd 143e 052c 52bf 173d 17be
-0.040874753 0.1453757 -0.8209842 -0.14769398

conv0_0.0.bn2.weight f4 [4]
00000000: 30b6 223f 30c3 9f3f d74e fe3e 1735 533f
0.63559246 1.2481441 0.49669525 0.82502884

conv0_0.0.bn2.bias f4 [4]
00000000: 5310 4bbe 47d2 a13e 80cf 9cbe ba93 793e
-0.19830446 0.3160574 -0.3062706 0.2437276

conv0_0.0.bn2.running_mean f4 [4]
00000000: 0cad 5bbd 162c c9be 9bc9 3ac0 53a0 9c3e
-0.053631827 -0.39291447 -2.918555 0.30591068

conv0_0.0.bn2.running_var f4 [4]
00000000: b00f 1d3f 1df4 823e 77d2 a93f 5676 283f
0.6135206 0.2557687 1.3267354 0.65805566

conv0_0.0.shortcut.0.weight f4 [4, 3, 1, 1]
00000000: d20f 7ebf 99e3 fe3e fb75 e03d 4027 063e
00000010: fc38 d23e f0ec 6c3e 0019 63be aa7c 6c3f
00000020: 0bbb a63e 7229 f3be d483 a03d 9ba0 f93d
-0.9924289 0.49783018 0.10960003 0.1310091 0.410591 0.2313726 -0.22177505 0.9237772
0.32564577 -0.47492558 0.07837644 0.12188836

conv0_0.0.shortcut.0.bias f4 [4]
00000000: 2d02 8ebb cdf0 cd3d d207 343e 307d 7e3e
-0.0043337555 0.10055695 0.17581108 0.24852443

conv0_0.0.shortcut.1.weight f4 [4]
00000000: 53be 3c3f ca56 a53f 8cc4 7d3f 1c1e 853f
0.7372791 1.2917111 0.9912803 1.0399814

conv0_0.0.shortcut.1.bias f4 [4]
00000000: ba44 9cbe 5429 353f b248 1f3e d507 78be
-0.30521184 0.70766187 0.15555075 -0.24221738

conv0_0.0.shortcut.1.running_mean f4 [4]
00000000: f6a5 683d 9dbd b2bc 7845 553c 7893 953e
0.056798898 -0.02181893 0.013017051 0.29214072

conv0_0.0.shortcut.1.running_var f4 [4]
00000000: 2b0b 043e 351d 053f 158c 6b3f d39a 853d
0.12894885 0.5199769 0.92010623 0.06523671

conv1_0.0.conv1.weight f4 [8, 4, 3, 3]
00000000: fe10 193e 6ca7 81bd d99c 05be 6c56 083e
00000010: f1e2 69be 43e4 07bd 6a64 cf3d 4870 b5bd
00000020: 7bdf 87be 43fc 7abe 5de6 c7be 30cd b7be
00000030: 1764 d03d 6b85 bf3e 3664 a83e 242e 8f3d
00000040: ee18 d13e 8df5 233e 42f8 eabd 6d5c 6cbe
00000050: e5f7 febd 857e 8bbe 68fe 38be 6bc3 fa3d
00000060: 76be c33e 4e10 cc3e c12c 2e3e 7664 063e
00000070: 7110 ba3c ee09 ddbd e3cb 7f3d 1607 ba3d
00000080: 8bc5 5abe ee8a 3cbe 8d16 88be 052e e2be
00000090: ae4f 8d3d de99 ed3c 2481 803e be1d b23c
000000a0: 4f75 84bd 6c0f 193e e203 fbbe 9f9e 0abe
000000b0: f68d 7b3d c15b 76be d075 04be 4dc3 54bf
000000c0: 18e6 bf3c 8381 29be 2a84 dbbe b2d0 4e3e
000000d0: ea6e 583e 5020 863c 30fe cb3d da8f d63c
000000e0: 5c60 90be ae22 a03e 8f5c 82be d76f 14be
000000f0: 4844 ad3e 818b c63e f618 c13e 5117 7dbe
00000100: 1111 24be 10d0 56be fe24 c8be 5aac 783e
00000110: 5df1 cdba bc34 00bd 77aa e43d 954d 103e
00000120: ad85 ab3e 726e 3f3f 2d9a ab3e 34ac f13c
00000130: 83c4 0f3f 1fad d83e ace2 a5be 1fb8 8cbd
00000140: 3166 84be 99f5 29bf ff4c 0c3e 4947 a73d
00000150: 4651 2ebe be53 89be 4e8b 3d3e f148 593e
00000160: 65a9 b0bd 3b43 d83d 6db6 93be 063c 79be
00000170: f2dd 99be 8ee9 d9bd f1ca 87bd dc10 babe
00000180: 8542 8dbe 0d38 2f3e 3d28 bdbd 7833 2e3f
00000190: 8131 463d 934f fa3c 23e6 373e 6d58 dc3d
000001a0: bd35 83bd bb97 a9bd eaac 07bd 717e 18be
000001b0: 8b5d 02be 8912 62bc 4f87 ee3c 6d49 0abd
000001c0: f57b 2e3d 7101 f03c bd9c 883c 37ad 4bbe
000001d0: 3184 8e3e daa9 103e a7c1 09bf 6cc6 9dbd
000001e0: c130 e93e 0d29 b3be f80d ecbe f7d7 813d
000001f0: dfaf 44bd 22f5 c93e 2c01 893e d729 e8be
00000200: 9651 86be 69ea 813e 2b82 68be a352 c7bd
00000210: f61b 2d3e 9023 14be 79bb 43bd a320 fc3d
00000220: c66a 39bc e463 acbe fa18 853d 3df8 ea3d
00000230: 20c4 4dbe 5299 33bc 62b7 babe 710d 13be
00000240: 278a b4bd 166f 1f3e a7fe 91be a8f9 afbe
00000250: 3402 293e d6cf 843d 6964 51be 60ce 833e
00000260: 7ee8 5c3d a65e a73e 8d33 303e ed5d 3abe
00000270: 12a6 423e f948 e2bd b6ef 24bf 10bb 3cbc
00000280: 2ea7 b5be 5fbc 0cbf ce32 d93e 0efc 8e3e
00000290: 1435 b73c 0100 173e 2acf 4e3e 62e7 07be
000002a0: 86b3 673d f40f c9bd 0446 40be f00e 0cbf
000002b0: c0f2 efbd 192e 713e f3e7 bebe 2c14 103e
000002c0: de24 b53c 845e 68bd cc54 963e a33d c13c
000002d0: b9a6 ebbc 8655 45bd d9df 0dbe 18c1 293d
000002e0: f847 863e dba0 9c3e a74b ef3e faaf 053e
000002f0: 5724 1d3e 2c94 71be 536f 54be 0c73 f93b
00000300: 696f 30be 3b16 86be 8c64 10bf 7cb2 11bf
00000310: 8ae8 0ebf 583a 84be 70b4 38be cbfc ecbd
00000320: 0777 85bc 5476 30bb 6ddf 1dbe 8e1a 71bd
00000330: bfb2 25b8 5c3a 2c3e c84a b33d 7f89 edbe
00000340: e914 63be d119 cb3d 8c2f 52be 4c2c 4abd
00000350: 21d9 293e fdc7 403e 1b8c 513e ff10 0b3f
00000360: 0d9a b43e 26e4 903d c9d4 06be d70f 4dbe
00000370: 9722 39be 6a2f cb3c b1f3 96be 7c25 11be
00000380: 8d81 403e c49e 4c3e fcce d6be 4bf9 97be
00000390: d2ec 113d 1472 81be dfa4 02bf 3fc9 23bd
000003a0: 7253 7c3e 0a4b b13d a203 aabd de1d a1be
000003b0: b59b 16bf c3d0 703e 812b 003d 9770 84bd
000003c0: 0762 c53e 8804 1c3e 2f41 323e 72a9 573e
000003d0: 2646 7c3e 1a72 ccbe 4602 ea3e beac d03d
000003e0: fc75 2dbe 134c 4cbe e45d 87be cfe5 0ebe
000003f0: a7a8 cfbd b016 e33e 1b93 4b3d 6b5b abbe
0.14947888 -0.06330761 -0.13048114 0.13314217 -0.22840478 -0.03317667 0.10126574 -0.088593066
-0.2653769 -0.24510293 -0.3904294 -0.35898733 0.101753406 0.37406477 0.32888955 0.069912225
0.40839332 0.16011639 -0.11473133 -0.23082133 -0.12449626 -0.27244964 -0.18065798 0.12244304
0.38231248 0.3985619 0.1700926 0.1312426 0.022712918 -0.107929096 0.0624503 0.09083383
-0.21364419 -0.18412372 -0.26579705 -0.44175735 0.06899963 0.029004034 0.25098526 0.021742698
-0.06467687 0.14947289 -0.490264 -0.13537072 0.06141468 -0.24058439 -0.12935567 -0.83110505
0.023425147 -0.16553311 -0.4287427 0.20196798 0.2113606 0.01637283 0.09960592 0.02619164
-0.28198516 0.31276459 -0.25461242 -0.14495789 0.33841157 0.38778308 0.37714356 -0.24715926
-0.16022135 -0.20977807 -0.39090723 0.24284497 -0.0015712191 -0.03130029 0.11165326 0.14092095
0.33500424 0.747779 0.33516064 0.029501058 0.5615923 0.4231958 -0.323995 -0.06871056
-0.25859216 -0.6639038 0.13701247 0.081678934 -0.17023191 -0.26821703 0.18510172 0.21219231
-0.086260594 0.10559698 -0.28850117 -0.24339303 -0.30052143 -0.1064025 -0.06630505 -0.36340988
-0.27589813 0.17111225 -0.092361905 0.68047285 0.048387054 0.030555522 0.17958884 0.107590534
-0.06406734 -0.082808934 -0.033123888 -0.14891984 -0.12730996 -0.013798364 0.029117255 -0.03376143
0.042598683 0.029297562 0.016676301 -0.19890295 0.2783523 0.14127293 -0.53811115 -0.077038616
0.4554501 -0.34992257 -0.46104407 0.0634002 -0.048019286 0.39444834 0.26758707 -0.4534442
-0.2623412 0.25374153 -0.22705905 -0.097325586 0.16905198 -0.14466691 -0.04778621 0.123109125
-0.011316961 -0.3366996 0.064989045 0.11473129 -0.20094347 -0.010961847 -0.36468035 -0.14360596
-0.08815413 0.1556972 -0.28514597 -0.3437016 0.16504747 0.06484954 -0.2044846 0.2574339
0.05393266 0.326894 0.17207165 -0.18199892 0.19008663 -0.11049075 -0.6442827 -0.011519209
-0.3547911 -0.5497493 0.42421573 0.27926677 0.022364177 0.14746095 0.20196214 -0.1327186
0.05656769 -0.09817496 -0.18776709 -0.5471029 -0.11716223 0.23552741 -0.37286338 0.14070195
0.022112306 -0.056730762 0.2936157 0.023588961 -0.028766023 -0.048177265 -0.13854922 0.041443914
0.26226783 0.30591473 0.46737406 0.13055411 0.15345894 -0.2359168 -0.20745592 0.0076125916
-0.1723 -0.26188836 -0.5640342 -0.5691297 -0.55823576 -0.25825763 -0.18037581 -0.11571654
-0.016292108 -0.0026925998 -0.15417261 -0.058863215 -3.9505536e-05 0.16819137 0.08754498 -0.46393964
-0.22175945 0.099170335 -0.2052595 -0.04935865 0.16586734 0.1882629 0.20463602 0.5432281
0.3527378 0.07074766 -0.13167109 -0.20025574 -0.18079601 0.024802882 -0.29482797 -0.14174455
0.1879942 0.1998244 -0.41954792 -0.29682383 0.03562624 -0.25282347 -0.51032823 -0.039986845
0.24641207 0.08656891 -0.08301474 -0.314681 -0.5883134 0.23517136 0.03129149 -0.06466787
0.3855135 0.15236104 0.17407678 0.21060732 0.24636135 -0.39930803 0.4570486 0.10189198
-0.16939539 -0.19950895 -0.2643882 -0.13954853 -0.1013959 0.44353247 0.049700838 -0.33468184

conv1_0.0.conv1.bias f4 [8]
00000000: d5a5 c33e 00c7 013e fcea cb3d a8f6 60bd
00000010: 5dbe 803e bc25 003f 8dc7 453e 69cb a2bd
0.38212457 0.12673569 0.09956929 -0.05492273 0.25145236 0.5005758 0.19314404 -0.07948954

conv1_0.0.bn1.weight f4 [8]
00000000: 41b0 413f 38b9 7d3f c3e2 b13f 67a0 663f
00000010: c87c 843f 2e42 5d3f 8817 823f 6b42 873f
0.7565957 0.99110746 1.3897327 0.90088505 1.035058 0.8642911 1.0163431 1.0567144

conv1_0.0.bn1.bias f4 [8]
00000000: 04ba 113f 24ea f83e cdc7 76bc 2227 9a3e
00000010: bbf8 093f 46a5 f1bd 5b7e 82be 4200 54be
0.5692446 0.48616135 -0.015062285 0.3010798 0.5389516 -0.117991015 -0.25487027 -0.20703223

conv1_0.0.bn1.running_mean f4 [8]
00000000: 66fc 213f 61b2 93bf 95b6 28bf cb81 89bf
00000010: 7788 5fbf c31a 26c0 26f0 8cbf 6854 6fbf
0.63275754 -1.1538812 -0.659036 -1.0742735 -0.87317604 -2.5953834 -1.1010787 -0.9348817

conv1_0.0.bn1.running_var f4 [8]
00000000: 7122 c73f 8ea7 f03f 7949 c040 9278 e13f
00000010: 9004 0640 8c2a 4a41 5a7b e33f 81b0 f13f
1.5557386 1.8801134 6.008969 1.761492 2.0940285 12.635387 1.7772019 1.888199

conv1_0.0.conv2.weight f4 [8, 8, 3, 3]
00000000: 306d 173d 0193 a2bd a364 46be 9b72 53be
00000010: c02f 99be 0df3 6dbe f9e5 173e 7029 25be
00000020: b881 163e 14c2 3ebe 3d2d d1be 65b4 79be
00000030: a5b5 233e 7389 9ebd e0ee 72bd 01f2 1a3e
00000040: 9047 0cbe e850 68be f341 023f 2258 2e3e
00000050: 1f01 273e af29 7f3e 7022 7abe 2e2e 1fbe
00000060: 596e 713e 8a1b ff3b 614e 61bd dfcc bcbe
00000070: e490 ccbe 74a1 bfbd 5762 0ebf 9d06 c2be
00000080: b8f3 95be 39cc 20be 1b10 cdbd 450a f6bd
00000090: 1d0f 623e 1aaf cc3d b55c a23e f945 0d3f
000000a0: 4f9c 363d 21fa d13e c3db 073e 425d 9f3e
000000b0: ae07 503d 15d0 cdbe 7a17 cbbe ec49 11be
000000c0: dd7f 92be 60aa 46be e84b 9abe d8aa aebe
000000d0: f7bb 81be 226a f7be de28 11be 0843 f03d
000000e0: 40f2 193e 6ac0 9f3e 3af6 b53e 4846 8b3e
000000f0: 9a9a 013f 94ea 163f e72b f73e e47b 1b3e
00000100: 112b d7bd d3ad 8b3d 6bf3 cb3d 8028 8cbd
00000110: a418 77bd b075 e43e d197 003f 75fd 933d
00000120: 741e 733e e013 023b ece3 10be 6ea0 893d
00000130: 6e60 8dbe eadc 84be a5a6 0cbf 3aa9 59bf
00000140: 8cc0 9bbe 3a69 cbbd 8ff1 353e d5f4 803e
00000150: b8df 8ebe 723e 68be e056 14be 2e93 91be
00000160: 35d4 013e de17 94be 6de8 4c3d 4380 3fbe
00000170: f66f d8bd ef69 39be add7 a0be 5f05 37bd
00000180: f909 96bd 108e 5fbe 9e6b 16be f933 5f3d
00000190: 5283 a6be 5a0d 95bd 89db 4bbe 23ad 1bbe
000001a0: 6871 cabc 215a e63d 1f74 8f3d 5278 793d
000001b0: 4b35 afbe af28 a7bd fd53 9d3c dc83 bcbe
000001c0: f7da 793e a8ea f43e bbc1 1b3e 5d62 913e
000001d0: f721 6f3e 1b08 0fbe 1774 96be 895e f2bd
000001e0: c581 33be 73e0 b03d d9c6 8abd 3b87 423e
000001f0: aa10 953e 7bad ac3e b9e7 7b3e 4061 213e
00000200: 8338 29bd c281 7ebe 0587 bb3d 87df 99be
00000210: 7075 8e3d 195b 453e f8d1 a2be a52c 123e
00000220: 2237 313e b00f 9b3e 1c98 45be eb69 343e
00000230: 8418 123f d019 cebe c2f4 33be c802 3fbe
00000240: 1ec7 fe3e f63b 0d3e e460 21be ca48 0e3d
00000250: b815 51be 07d8 ebbd 5a25 2fbe 9f94 9cbd
00000260: 8e8d 3e3d f8a1 b33d 90b0 08be bff5 02bf
00000270: fd0d 593d 179a 00bf 7834 ffbe b3c0 563e
00000280: 68cf ee3d 504c 923d 2d60 a4be f895 ecbe
00000290: 506d ebbe 9b19 3fbe ca24 80bd 4e29 7fbe
000002a0: 32d4 0dbe 8789 19be 235f 02bd 1dcf e7bd
000002b0: e1c3 c6be bfb0 9d3e c375 d93d 822b 9cbd
000002c0: 158e 043e 18b6 a63d 0fdb 55bc 8ca8 143c
000002d0: 926f 84bd 15dd ca3e 75e3 de3e 3ca0 803e
000002e0: ee46 eb3e 047a 37be 9810 fb3d ea7f e33d
000002f0: 24e8 12bf 50e8 47bd 40cd 3e3e 23c4 1a3d
00000300: b960 35be 43ae 5c3e 1206 be3e f6cf 053f
00000310: 3dbe 9c3e 15aa 0e3f 5dbf 193e 19ec aebe
00000320: 5046 c9be 2ef5 763e e6c9 b2be dbe8 b4bd
00000330: 14a9 41be 6efb 233e a62a dabd dcc5 6d3e
00000340: f9c4 213e f2f4 cd3a 8e1b 6ebc f16b bf3c
00000350: f0fb b9be 3cf3 963d 93aa c63c d505 acbe
00000360: 2026 7abd 6c4d 5c3e f8b6 6a3e 8896 d73e
00000370: a8e9 833e 801b a43c d1b4 77bd 3e27 c1be
00000380: 7ac8 883c d890 013d 3980 5f3e 6090 813e
00000390: 1790 80be 005f 48be 5517 423e 4cc5 1cbe
000003a0: 42dd 3bbe a8b3 d5bc 69ca ab3e fbf3 c73e
000003b0: 82d0 d23c 3f53 d23e 25c2 7bbc e914 ba3d
000003c0: 919e 3d3e 3aaf ebbe d11f 3cbf 9b9c 493e
000003d0: 5288 943e 8c74 3bbe 75fa 8f3a f035 a93d
000003e0: 4bfb 26bd 91a8 80be 48b7 f3bd e3ae f7bd
000003f0: a844 74be f205 0fbf 604b e0bd 34d6 26bd
0.036969364 -0.07938195 -0.19374327 -0.20649187 -0.29919243 -0.23237248 0.14833821 -0.16129088
0.14697921 -0.18628722 -0.40854827 -0.24385221 0.1598726 -0.0774106 -0.05930984 0.1513138
-0.13699174 -0.22687113 0.5088188 0.17025807 0.16309021 0.24918245 -0.244272 -0.1554496
0.2357725 0.0077852653 -0.05500639 -0.36875054 -0.39954293 -0.093569666 -0.55618805 -0.3789567
-0.29287505 -0.15702905 -0.100128375 -0.120136775 0.22076078 0.099943355 0.31711355 0.55184895
0.04458266 0.41011146 0.13267426 0.31125838 0.050788574 -0.40197816 -0.3966635 -0.14188355
-0.28613177 -0.1940093 -0.30136037 -0.34114718 -0.25338718 -0.4832316 -0.14175746 0.11731535
0.15033817 0.31201488 0.35539418 0.27202058 0.5062653 0.5895169 0.48275682 0.1518398
-0.10506261 0.06820264 0.09958538 -0.06843662 -0.060326234 0.44621038 0.50231653 0.072260775
0.23742086 0.0019848272 -0.14149445 0.06720053 -0.27612633 -0.25949794 -0.5494178 -0.85023844
-0.3042034 -0.0993218 0.17767929 0.25186792 -0.2790506 -0.22680071 -0.14486265 -0.28432602
0.12678607 -0.2892446 0.050026346 -0.18701272 -0.1056823 -0.18106817 -0.31414548 -0.044682857
-0.07326121 -0.21831536 -0.1468949 0.054492924 -0.32522064 -0.07277937 -0.19907965 -0.15202765
-0.02471228 0.112476595 0.0700457 0.060905762 -0.34220347 -0.08162057 0.019205088 -0.3681935
0.24399935 0.4783528 0.15210621 0.28395358 0.233528 -0.13967936 -0.29385445 -0.118344374
-0.17529972 0.0863656 -0.067762084 0.18996899 0.29114276 0.33726105 0.24600114 0.15759754
-0.04131366 -0.24854186 0.09156612 -0.3005335 0.06955993 0.19273032 -0.31800818 0.14274843
0.17306188 0.30285406 -0.19296306 0.1761853 0.5706866 -0.40254068 -0.17573836 -0.18653405
0.4976129 0.13792405 -0.15759617 0.034737386 -0.20418441 -0.11515813 -0.17104092 -0.07645535
0.046521716 0.087711275 -0.13348603 -0.5115623 0.052991856 -0.5023512 -0.49844718 0.20971946
0.11660653 0.07143462 -0.32104626 -0.46208167 -0.45981836 -0.18662111 -0.06257017 -0.249181
-0.13850477 -0.14993869 -0.03182901 -0.113188006 -0.3882132 0.3079891 0.106181644 -0.07625486
0.12944825 0.081402004 -0.013052716 0.009073388 -0.06466593 0.39621797 0.4353291 0.2512225
0.45952553 -0.17917639 0.122590244 0.11108382 -0.5738547 -0.048805535 0.18632984 0.037784707
-0.17712678 0.2155085 0.37114006 0.5227045 0.3061389 0.55728275 0.15014406 -0.34164503
-0.39311457 0.24116966 -0.3491966 -0.08833476 -0.18912154 0.16013882 -0.10652666 0.23220009
0.15797795 0.0015713258 -0.014532937 0.0233669 -0.36325026 0.07370612 0.024251258 -0.335982
-0.061071515 0.21513909 0.2292136 0.42107034 0.25764203 0.020032644 -0.060475174 -0.37725252
0.016697157 0.031632274 0.21826257 0.25305462 -0.25109932 -0.1956749 0.18954213 -0.15309638
-0.18346122 -0.026086643 0.33552864 0.3905333 0.02573419 0.41079137 -0.015366112 0.090860195
0.1851752 -0.46032125 -0.7348605 0.19688646 0.29010254 -0.18306178 0.0010984676 0.08262241
-0.040766995 -0.25128606 -0.119001925 -0.12093904 -0.23854315 -0.55868447 -0.10951877 -0.040731624

conv1_0.0.conv2.bias f4 [8]
00000000: cd4d 1bbe 0988 6cbe 464b b9bd 6873 443e
00000010: f176 5d3d 39fc abbd 6351 6c3d c95d 98be
-0.15166397 -0.23098768 -0.090475604 0.19184649 0.05406851 -0.08397717 0.057694804 -0.29759052

conv1_0.0.bn2.weight f4 [8]
00000000: e340 7e3f 9e43 803f c8fe 5f3f 3bdd 183f
00000010: 7ed1 ec3e 16ca 5e3f 810e 8e3f c968 7e3f
0.9931776 1.0020635 0.8749814 0.5971257 0.4625358 0.8702711 1.1098176 0.9937864

conv1_0.0.bn2.bias f4 [8]
00000000: 7185 7cbd c8ca e33e 8667 653e 920c 1a3f
00000010: 5286 6a3f dc29 56bd 468c 6b3f 198d b13e
-0.061650697 0.44490647 0.22402772 0.6017543 0.91611207 -0.052286014 0.92010915 0.3467796

conv1_0.0.bn2.running_mean f4 [8]
00000000: e5e5 1bbf e631 15c0 bab2 6bbf a41e df3d
00000010: 7d67 43bf 0607 bcbf 27f2 08bf db66 473f
-0.60897666 -2.3311706 -0.9206959 0.10894516 -0.76329786 -1.4689643 -0.53494495 0.7789132

conv1_0.0.bn2.running_var f4 [8]
00000000: e546 ba3f 57eb f03f 040f 9e3f 86eb a13f
00000010: b042 1e41 87b4 d040 81ce 6e40 397a 4240
1.4552885 1.882182 1.2348332 1.2650001 9.891281 6.522037 3.731354 3.0387099

conv1_0.0.shortcut.0.weight f4 [8, 4, 1, 1]
00000000: 7806 33bb 58c3 3a3e 62ed 7ebf 93b0 50bf
00000010: 90cc 28be b92f b83e 8053 793e bf79 12bf
00000020: 4ab9 a2bd 75e4 d2be 2c32 913e 6b3b 633f
00000030: dc48 503e 6bd2 8e3e 58fe 07bd 802d 83bf
00000040: 6a78 773e 8f40 5bbf 5f6a b3bd 8b59 5bbd
00000050: 468e 9dbe 6f79 a8be f39d e8be 9f8d c63d
00000060: 362f 4e3e fe1b 1a3f ffc5 47be 5199 33bd
00000070: c75d 88be 4992 243f 436a 94be 5a0e febc
-0.0027317088 0.1823858 -0.9958097 -0.8151943 -0.16484284 0.3597391 0.24348259 -0.5721702
-0.07945497 -0.41189924 0.2835859 0.8876254 0.20340294 0.2789491 -0.033201545 -1.024826
0.24167028 -0.85645384 -0.08760523 -0.05355219 -0.3077261 -0.32905146 -0.45433006 0.09694981
0.20135197 0.6019896 -0.19509123 -0.043847386 -0.26634046 0.64285713 -0.2898732 -0.031012703

conv1_0.0.shortcut.0.bias f4 [8]
00000000: 04d4 07bf 0d15 1f3e 06e7 c2bc faa0 a33d
00000010: 6cf4 e1be d7b6 98be 9977 843e 612b 253c
-0.53057885 0.15535374 -0.023791801 0.07989688 -0.44131792 -0.29826996 0.25872496 0.010081143

conv1_0.0.shortcut.1.weight f4 [8]
00000000: 9546 613f 89c8 1a3f d399 c13f b21c a43f
00000010: 60c3 a23f 3d74 6f3f 28bb 3d3f 57e9 3d3f
0.87998325 0.6046224 1.5125068 1.2821257 1.2715874 0.9353674 0.741137 0.74184173

conv1_0.0.shortcut.1.bias f4 [8]
00000000: 2950 5dbe 5078 c0bd 0507 ae3e b648 043f
00000010: ea53 fc3e 5b5f 903e 02bc 463f 2fd3 cc3d
-0.2161261 -0.09397948 0.3398973 0.5167345 0.4928277 0.2819775 0.7763063 0.100012176

conv1_0.0.shortcut.1.running_mean f4 [8]
00000000: f5a3 8dbf 908d 033f fdbf fcbd 52b8 203e
00000010: 85e1 babf 8115 80bf 2c03 683f 9905 083f
-1.1065661 0.5138788 -0.12341306 0.15695313 -1.4600073 -1.0006562 0.9062984 0.5313354

conv1_0.0.shortcut.1.running_var f4 [8]
00000000: 68db 1b3f 5789 203f ea70 a63e d4fe a93e
00000010: 3327 c03f 84a2 143f fc7a d43e 177e 033f
0.6088166 0.62709564 0.32508022 0.3320223 1.5011963 0.5806048 0.4150008 0.5136427

conv1_0.1.conv1.weight f4 [8, 8, 3, 3]
00000000: 1df3 6e3d 7304 b2bd 58d7 67be 7e2f e6be
00000010: a1f4 90bd 5d39 903e 54f0 54bf f1ab b53d
00000020: 80e6 d93d 9d13 07be 8b1b 92be 5ba1 ddbe
00000030: 5c93 a73e 5f8f 8dbe fb26 23bf eb1e bc3e
00000040: dc33 70be 8ed0 f5be c30b d2be ab37 27be
00000050: 6eee b2bd bff9 1bbe 335d ba3c 9896 c63c
00000060: 4963 b43e 3ef4 933e d559 2d3e e4ed 873d
00000070: 64a5 ddbd 3200 93be 5246 943e c41d 003e
00000080: d12e 4abe 5564 b7bc 8454 943e 6db4 423e
00000090: dce8 aabe 7c60 82bc 31d1 1ebe 12e3 d9bd
000000a0: a7d2 5c3e a18c 533e b9f5 0abe 2720 a1be
000000b0: ea28 a4bd badc 08be b0dc 9cbd bfc3 933e
000000c0: da39 14be 6ac9 133e cb05 a73e ec65 703d
000000d0: bd40 23be 6c5d f8bd bc0c 11bf f2f3 193e
000000e0: 2345 8dbe 93d2 a83c 79f6 833d caa7 96be
000000f0: 0ef6 f3be f3c5 1cbd 7f54 7f3d 354d 0cbd
00000100: 6d81 b4bd 7833 75be cea1 463e 9c28 31bd
00000110: cef3 90bd d9f7 a1be de33 e53d d442 413e
00000120: 5684 2abe 9950 553e f270 093f eab7 06bf
00000130: a0a2 783e ec6a 403f 7ecb 2bbf 9d2d 583e
00000140: 4725 0a3e abda 643e 2df1 86be ccb8 b9be
00000150: e05d 513e 4527 85be e59f acbd 6d3e 97bd
00000160: 8ac0 cf3d 2db1 52be d845 07bf 3c8b 27be
00000170: ed9d f4be b980 1b3d 634f 1d3d cc91 a3be
00000180: 21d4 db3e 889f 6c3c 6609 603e e8fe 773e
00000190: 507e 80bd f783 3ebe d2ff cfbe a975 25be
000001a0: 2d31 ca3e 6aaa 8ebe 7b96 083f ec65 413f
000001b0: 8ec1 55bd 73c3 2dbc ec88 3c3d 65b3 1a3e
000001c0: 6877 85bd 9325 87be d267 e8bb afe8 f2be
000001d0: 0ea1 44bf a992 ae3e 592e f83d f1f3 103e
000001e0: fbf2 c73d eae9 a8bd 7698 1f3d 1ce8 a63e
000001f0: bd13 40bd 9970 0a3c 5a0d b8bc 185d d1bd
00000200: 182a 51be 477f 883e a53a df3c 4931 553d
00000210: 637b fbbe 9bd8 5e3e 859d c43e 9a1c aebd
00000220: dec8 0bbd 1124 37bd c129 91be 365a 35be
00000230: 7493 223d 3f6d 3abe 7795 e53d 8199 7a3e
00000240: 925f a4be 6d7a 89bc b75e 273f bfea 1abf
00000250: fe07 90be e6aa 6d3f bbdd 253e 3bbd 383e
00000260: 2f3c 2f3f aa2e 11be db14 b2be b012 4bbe
00000270: 13a6 95be 3f0b 44bc 07ef 49be 3aec 143e
00000280: 6953 a23e 463c 76be 3a62 80be 01ce 34be
00000290: 36f3 f83d 2f79 753e e137 69bd a257 3f3d
000002a0: d533 86be 152c 94be 8f56 d1be af16 703c
000002b0: 0f42 863e 03c9 59be d248 5f3d e891 8a3e
000002c0: 84c1 2bbd 7368 ae3e 8f16 613e 6040 263e
000002d0: 451b 36be d1ed aabe 910c be3d 914d c1bd
000002e0: d336 bdbd ba68 92bc fec9 33bd 345c 2a3e
000002f0: 7265 193e ed47 0c3f c202 d73e b7db 4d3e
00000300: f946 cb3e 3cf7 e13d 3b87 923e 042e 95bd
00000310: 1575 903d e74b 033e 887d d3bd b5e1 043f
00000320: bed9 723e e51f db3e 0d44 0a3f 7f88 503c
00000330: 9630 893d 5261 52bc 249b 9dbd 1fe2 753d
00000340: fc28 ce3e 27a3 4dbe a569 363e 5c57 cc3e
00000350: 8da7 0fbd dcc7 41bd fe33 983c 267f 433d
00000360: a86b 053d 8b71 ad3d b3ec f63e 1f67 95be
00000370: f1b0 4dbd 2d13 09be c2f7 24be 7aea 0abf
00000380: cd65 fbbe 1957 1ebe a433 da3d 0b1d aabe
00000390: 2f38 fcbd ccae 9e3e a4f8 fc3e 0bca 8bbe
000003a0: d5cb 7f3e 4c37 dc3e 3a99 22bd c81b 9bbe
000003b0: ffdb 3d3e 4d17 523e 242e 48be 91b2 563e
000003c0: 2fec 923e f829 da3e 041f 6c3e bdb0 283e
000003d0: be32 e53e cc82 453e 2fa4 09bf 7070 243e
000003e0: 91ab 263f 46fb c6be 40c1 e3be 0415 d5bd
000003f0: 3ee4 a4be e7a0 2cbe 4b65 89bd 7601 e43e
0.05833732 -0.08692255 -0.22640741 -0.4495811 -0.07077909 0.28168765 -0.8317921 0.08870686
0.106396675 -0.13191076 -0.2853664 -0.43287167 0.32729614 -0.27648446 -0.63731354 0.3674234
-0.23457283 -0.48010677 -0.41024598 -0.1632983 -0.08736883 -0.1523199 0.022749519 0.02424173
0.35232 0.2889728 0.169288 0.06637171 -0.108225614 -0.28711087 0.289599 0.12511355
-0.19744422 -0.02238671 0.2897073 0.1901414 -0.33380783 -0.015915148 -0.15509488 -0.10639013
0.21564732 0.20659114 -0.13570298 -0.31469843 -0.08015616 -0.1336545 -0.0765928 0.2886028
-0.14475194 0.14432302 0.32621607 0.05869095 -0.15942664 -0.12127194 -0.56660056 0.15034464
-0.2759181 0.020608222 0.06443495 -0.29424888 -0.47648662 -0.038274717 0.06233644 -0.034253318
-0.088137485 -0.23945415 0.19397661 -0.04325162 -0.07077752 -0.31634405 0.111915335 0.18873149
-0.16652045 0.20831527 0.53687966 -0.5262438 0.24280787 0.7516315 -0.6710738 0.2111115
0.13490783 0.2234904 -0.26355878 -0.362738 0.20445967 -0.26006523 -0.08428935 -0.07384954
0.10144146 -0.205754 -0.5284095 -0.16361707 -0.47776738 0.037964556 0.038405787 -0.31947172
0.4293528 0.014442332 0.21878585 0.24218333 -0.06274092 -0.18605028 -0.40624863 -0.16158165
0.39490643 -0.2786439 0.53354615 0.75546145 -0.05218654 -0.010605681 0.046029016 0.15107496
-0.065169156 -0.26395854 -0.0070924545 -0.47443148 -0.7680825 0.34096268 0.12118215 0.14155556
0.09763142 -0.082477406 0.038963757 0.3259896 -0.046893824 0.008449697 -0.022467304 -0.10222834
-0.20426214 0.26659605 0.027249644 0.052048955 -0.49117574 0.21762316 0.38401428 -0.08501549
-0.03412711 -0.04471213 -0.28352168 -0.17710194 0.039691404 -0.18205737 0.11210149 0.2447262
-0.32104164 -0.01678201 0.653789 -0.60514444 -0.28131098 0.92838895 0.16197865 0.18040936
0.6845121 -0.14177957 -0.34781536 -0.19831347 -0.29228267 -0.011965572 -0.19720088 0.14543238
0.31704262 -0.2404643 -0.2507494 -0.17656709 0.12155764 0.23972009 -0.056938056 0.046714433
-0.2621142 -0.28939882 -0.4088635 0.014653846 0.26222274 -0.21268086 0.054512806 0.27064443
-0.041932598 0.34064063 0.21981262 0.16235495 -0.1778384 -0.33384565 0.092797406 -0.09438623
-0.092389725 -0.017872203 -0.043893807 0.16636735 0.14980105 0.5479725 0.41994292 0.20103346
0.39702585 0.11033484 0.28618798 -0.072841674 0.070535816 0.12821923 -0.103266776 0.519069
0.23715875 0.4279777 0.5401009 0.012727856 0.0669872 -0.012840586 -0.07695606 0.0600301
0.40265644 -0.20081769 0.17813738 0.399104 -0.0350719 -0.04730974 0.01857948 0.04772868
0.032573372 0.08468922 0.48227462 -0.29180238 -0.050217573 -0.13386221 -0.16110137 -0.5426403
-0.49101105 -0.15462913 0.10654381 -0.33225283 -0.12315404 0.30992734 0.49408448 -0.27302584
0.249801 0.43010938 -0.03969691 -0.30294633 0.18540953 0.20516701 -0.19548851 0.20966555
0.2869582 0.42610145 0.23058707 0.1647367 0.44765276 0.19288176 -0.5376615 0.16058517
0.6510554 -0.3886358 -0.44483376 -0.10404399 -0.32205385 -0.16858254 -0.06708773 0.44532365

conv1_0.1.conv1.bias f4 [8]
00000000: 7874 6d3e 36e1 a93c 70a0 a0bc 94ac 4ebe
00000010: 8103 69bd 7496 f23d 90e5 8f3e d44f 733e
0.2318896 0.020737272 -0.019607753 -0.20183021 -0.056888107 0.11845103 0.2810483 0.23760921

conv1_0.1.bn1.weight f4 [8]
00000000: 2b1d a53f 7e12 6c3f df6a 583f dd69 9a3f
00000010: 0712 553f a1b9 7d3f 833f 8e3f 8efa 9f3f
1.2899526 0.92215717 0.8453807 1.2063557 0.8323063 0.9911137 1.1113132 1.2498338

conv1_0.1.bn1.bias f4 [8]
00000000: 506b 9fbe ba45 263e a70a 113d fc57 ff3e
00000010: 1916 473f 8517 83bd 57e3 03bd 66f2 9e3e
-0.3113656 0.16237536 0.03541055 0.49871814 0.77768093 -0.0640097 -0.03219923 0.3104431

conv1_0.1.bn1.running_mean f4 [8]
00000000: 7417 46c0 3c9c bebf e2bc 3d40 16e1 88bf
00000010: 2eb3 f0c0 81d2 d6bf 7bcb 48c0 5d5c c6c0
-3.0951815 -1.4891429 2.9646535 -1.0693691 -7.5218725 -1.6782991 -3.1374195 -6.198775

conv1_0.1.bn1.running_var f4 [8]
00000000: 4316 7a40 b657 0341 1c50 b940 76e9 8b40
00000010: ed3b 9d41 e61b 0e41 02f9 0a41 80d7 4e41
3.9076087 8.208914 5.791029 4.3722486 19.65426 8.881811 8.685793 12.927612

conv1_0.1.conv2.weight f4 [8, 8, 3, 3]
00000000: 0276 b23e 00bc ce3e 4c2e 523e 6b74 cb3d
00000010: 29fd 9b3e 3fc4 8e3e 13ba 4ebe 7e07 0fbf
00000020: cd53 6f3d 2287 943d a92d b03e 35e8 e43d
00000030: 2afe 883e d05c 463f e4ba ad3e 32d4 69bd
00000040: b817 4f3e d2d4 90be dd30 25bf c9bc 89bd
00000050: 08d7 8cbe 293c 4cbe dd38 793e 968a 0f3d
00000060: b45d 2cbe d509 17be 2a58 833e 82e3 16be
00000070: 33d1 0dbf a7fa 96bd 915d babe 76fd 87be
00000080: 4d70 03be 6d48 e0be 4426 4a3e 2449 3f3e
00000090: d1f7 cf3e 6b2f 093e 57c0 443e 800e 3b3b
000000a0: 10fa aabe 07d9 b0be 43ba 063e c4ca 89be
000000b0: 3cf6 75be 52d0 df3e 082e 733e 0c9c 9d3e
000000c0: e7c9 543e 1de6 0dbe 3693 67be 45ac df3e
000000d0: e0ef 9dbd b07d 39be d729 8fbc 99b0 c63c
000000e0: 1edc bbbd df0e 363d 41db a2be 9005 6f3e
000000f0: ccd7 2c3c 5d8e 333e 3914 6a3e 09c1 503c
00000100: cc38 be3e cfe7 883e fa1f 0a3f 9ac1 b63e
00000110: eb16 10bd be20 863d e3b0 94bd c6d1 43bd
00000120: 6c24 69bf be2c 01bd 74f9 9e3e 6ae6 afbe
00000130: ad2d 2dbd 102f 3f3e 78e4 783e 4252 2e3e
00000140: eac4 05bf a48e f93c 1fcf fb3d 86c1 b2be
00000150: c390 56bd 7d94 2fbe 0764 323e 84cf 5fbe
00000160: ce05 08be 2ca3 543e 28de 25be 730c 4bbe
00000170: 1534 1dbe d6db 843d d541 7fbe e2c5 8cbe
00000180: cae9 6dbe 288c 0dbf 584f f7be 6cb0 ba3e
00000190: ea48 e63d 88e4 1a3e 8b11 483e abac 71be
000001a0: 8d39 70be 6fee 86be c86b 9cbe ed5c 02bf
000001b0: 3c06 b7bd dcf9 bb3e 71e2 603d 4625 96be
000001c0: 29fa 0f3e cbd2 1e3e 60c0 95bd 80d1 bf3e
000001d0: 6363 073e 2383 61be 4869 cebd 1265 c63a
000001e0: 7493 bcbe 00bb f5bc ed30 e3bc 891e 39be
000001f0: 3b06 82be 2ee0 6cbe 3bec 36be be6b 29be
00000200: 3079 363d 0727 f53d 070c 603d 11f7 c5be
00000210: 6a86 0e3f 370a 913e fc0c 55be 1685 eabd
00000220: 17e9 37be 0bb8 44bd 7f09 acbe 68cb 68be
00000230: d6d6 463e 6665 fb3d dd44 10be 1e17 1c3f
00000240: 6daf e53e ffce e23d ed3a 933d 45b8 783e
00000250: 2118 efbd d3c6 32be d909 9d3d 5fad 823e
00000260: ad93 683e c70e 443e b6ab f9bd 9735 7cbe
00000270: 5456 db3d b53a d83d 832f 6b3d 3c73 723e
00000280: 07d6 c03e 6042 b83e 674f b53d d7f9 cfbe
00000290: 6265 18bf d0b6 7ebe 58c0 c7bd cb7d 01bf
000002a0: 4885 2fbe 793b 7ebe fd89 87bd 1e86 11be
000002b0: 14d4 cfbe bcee 70be 45d1 9abd 9798 3ebd
000002c0: c3bf febe 6207 d1be 9dc2 b5be 5c6e 88be
000002d0: 9f2e 93be 8d5f 533e f9b1 e13d c528 89bd
000002e0: b8b3 a83e 7c90 2f3e 7eec da3e 13c6 0b3f
000002f0: 5491 a03e f5e0 1dbe f367 55bd bd0b 3dbe
00000300: 3993 8e3d 093e 8ebe a853 86be 9d2a 153e
00000310: 6e04 b0bd a514 b1be 397e 8e3c fad0 673e
00000320: 5a17 d73e 7125 ac3e ade5 2dbd ea8b 363c
00000330: 8090 de3e ccd5 05be c89d c23d 96cd b0bd
00000340: 5d6e a4bd eab8 2a3d ec95 ba3e bf06 1f3f
00000350: 9411 dd3e 8c1a 9e3e ec77 1e3f 506f 013f
00000360: f1f0 413e 7298 923e 447a 843e e7b8 51bf
00000370: 0260 8ebe 2265 c93d 335b ebbe c569 09bf
00000380: 2bdf 493e 03e1 ea3e 3a55 df3e b8ea 943e
00000390: a4fe c13d d79d 93bb 3a87 033e 3413 7b3e
000003a0: 0025 393e 96b4 5f3e 1071 dc3e 573a 123d
000003b0: 5966 1c3d 5ed1 f43e 16c7 733e cdc0 94bc
000003c0: 60aa 933e 055d 4dbd 2fef 803d 43a1 d53e
000003d0: 6b59 e73c 659d bd3d 0d83 4d3e bc89 4dbd
000003e0: 6ff3 38be c2fd 213d 9bf6 b5be e70f 85bd
000003f0: f673 a7be a43d dabe f6e3 d0be b7c7 0abf
0.34855658 0.40377808 0.20525473 0.09934314 0.30466583 0.278841 -0.20188169 -0.5587081
0.058429528 0.07252337 0.34409836 0.111771025 0.26756412 0.7748537 0.3393165 -0.05708713
0.20223892 -0.2828737 -0.64527684 -0.06725461 -0.27507806 -0.19944824 0.24338098 0.035044275
-0.1683262 -0.14749844 0.256532 -0.14735225 -0.5539734 -0.07372027 -0.3639951 -0.26560563
-0.12835808 -0.43805256 0.1974116 0.18680245 0.40618756 0.13396995 0.19213997 0.0028542578
-0.33393908 -0.3454058 0.1315699 -0.2691251 -0.24019712 0.43713623 0.23748028 0.30783117
0.20780145 -0.13857313 -0.2261475 0.4368612 -0.07711768 -0.18114352 -0.017476005 0.02425413
-0.091728434 0.044447776 -0.31807902 0.23341966 0.010549497 0.17534776 0.22859277 0.012741336
0.37152708 0.26739356 0.5395504 0.3569458 -0.035178106 0.06549214 -0.07260301 -0.047807477
-0.910712 -0.03153681 0.31049693 -0.3435548 -0.042279888 0.18670297 0.24305904 0.17023566
-0.5225359 0.030463524 0.122953646 -0.34913272 -0.05238415 -0.17146488 0.1742097 -0.21856505
-0.13283464 0.2076537 -0.16198027 -0.19828968 -0.15351899 0.06487243 -0.24927457 -0.27494723
-0.23233715 -0.55291986 -0.48302722 0.36462724 0.11244376 0.1512624 0.19537942 -0.23601024
-0.23459454 -0.26353785 -0.3055098 -0.50923043 -0.08936736 0.36714065 0.05490345 -0.29325312
0.14060272 0.15510099 -0.07312083 0.37464523 0.13221507 -0.22022681 -0.100786746 0.0015136322
-0.36831248 -0.029996395 -0.02773329 -0.18078054 -0.25395378 -0.23132393 -0.17863552 -0.16545007
0.044549167 0.119703345 0.05469897 -0.3866506 0.5567385 0.28328106 -0.20805734 -0.114511654
-0.1796001 -0.04802708 -0.33600995 -0.22733843 0.19417891 0.122751996 -0.1408877 0.60972774
0.44860402 0.110746376 0.071889736 0.24289043 -0.11674524 -0.17458658 0.07667894 0.25522897
0.22712584 0.19146262 -0.121909544 -0.24629818 0.10709825 0.105580725 0.057418358 0.23676771
0.3766329 0.3598814 0.088530354 -0.406203 -0.595297 -0.24874425 -0.097534835 -0.5058257
-0.17140687 -0.24827375 -0.06618116 -0.14211318 -0.4059149 -0.2352857 -0.07559446 -0.04653224
-0.49755678 -0.40825945 -0.3550004 -0.26646698 -0.28746507 0.20641918 0.11020274 -0.06697229
0.32949615 0.1714496 0.42758554 0.5459911 0.31360877 -0.15417846 -0.052101087 -0.18461509
0.06961674 -0.27781704 -0.262357 0.14567037 -0.08594595 -0.34586063 0.017394172 0.22638312
0.42010003 0.33622316 -0.042455364 0.011141757 0.4346962 -0.13069838 0.09502751 -0.086329624
-0.080288626 0.041680254 0.36442506 0.6211967 0.43177474 0.3087963 0.61901736 0.50560474
0.18939568 0.28631932 0.2587453 -0.81922764 -0.27807623 0.09833743 -0.45968017 -0.53677016
0.19714038 0.45874795 0.4361971 0.29085326 0.09472397 -0.0045049 0.12844554 0.24519044
0.1808052 0.21846232 0.4305501 0.03570017 0.038183544 0.47815984 0.23806414 -0.01815834
0.28840923 -0.05013754 0.06295621 0.41724595 0.02824088 0.09258536 0.20069523 -0.05018018
-0.18061613 0.039548643 -0.35539708 -0.06497174 -0.3270566 -0.42625153 -0.4079892 -0.5421099

conv1_0.1.conv2.bias f4 [8]
00000000: 7ade ca3d f1bd 09be ec15 05bd b08d 1c3d
00000010: 201c 6a3e 81da 44bc 50ce f6bd 737a f43e
0.09905715 -0.13451363 -0.03249161 0.03822106 0.22862291 -0.012014986 -0.1205107 0.4774967

conv1_0.1.bn2.weight f4 [8]
00000000: 1cd9 973f d4ba b33f 36ab 813f 085b 903f
00000010: 4dde 833f 8e40 863f af15 8d3f 2543 933f
1.1863132 1.404139 1.0130374 1.127778 1.0302216 1.048845 1.1022242 1.1504866

conv1_0.1.bn2.bias f4 [8]
00000000: 52aa f53d df4d d93e 4484 fc3c 7743 253f
00000010: 4a7f 1c3f b86d 43bd 5688 e83f 704e d93f
0.11995377 0.42442223 0.030824788 0.6455607 0.6113173 -0.047712058 1.8166606 1.6977062

conv1_0.1.bn2.running_mean f4 [8]
00000000: f2c5 3a3f d109 b0bf bdd7 c93f c570 e4bf
00000010: b1a6 a3bf 9733 90bf 85e4 e3bf 3851 aabf
0.7295829 -1.3752996 1.5768963 -1.7846915 -1.2785245 -1.1265744 -1.7804114 -1.3306036

conv1_0.1.bn2.running_var f4 [8]
00000000: b586 6240 29e8 9d40 956d ee40 de8e ca40
00000010: 8a12 cf40 6ac5 9840 18be 0d40 8629 8240
3.5394719 4.93459 7.4508767 6.32994 6.471013 4.7740984 2.2147274 4.067569

conv2_0.0.conv1.weight f4 [16, 8, 3, 3]
00000000: 4e6c cf3d 37ec c73e 736c 923e 6b32 38bd
00000010: 62d4 92bd 145f a53c 0557 8bbe 82da 073e
00000020: bcb6 563e 0bb5 9c3e f4be e1bc fb9b f53d
00000030: 0210 933e 9c88 793e 4807 f83e f338 c03e
00000040: 1868 993e b074 383e 84d9 a93e 5ccf 053e
00000050: 1916 95be b0fa c43e 2512 c7bb 69b8 05be
00000060: 42d0 993e 9c3c 7b3e e4b4 76be b0d5 85bd
00000070: e7cb 6a3e 7646 343f f7ea 1b3e 3e65 dd3d
00000080: 3ce6 de3e c35e 22be f453 bfbd c1cc 9d3c
00000090: e1d3 533e 3ebf 92bc c356 9a3c d93b d53b
000000a0: 4a9d 053e 46f4 2cbe f8f5 e03d 81d5 5f3e
000000b0: 9090 213e 06ae b03d 5e62 65be 5fa3 0ebe
000000c0: 25ab 503e 0094 06bd 400e a1be 965b a2bd
000000d0: 3c27 d8be de86 81be 953f 7b3e 5735 92bb
000000e0: 9719 59bd dae3 613e 4b03 a43d cfa8 d83e
000000f0: ad22 983e 6959 b5bd b7fb abbe 2923 c33e
00000100: 4dc5 a23e 2fcc 703e 6e51 183f deac 133f
00000110: a526 c73e 6268 463d d88d 063d fab8 793d
00000120: ad04 2c3e 61b0 613f f84c 433e d16c 97be
00000130: d544 1a3f 820b 1fbe 5988 e8bd 387d 943d
00000140: 5d3e 0abe e1ba 0c3e 5170 893e 06d9 343e
00000150: ef81 d03b 8391 d4be 15ee ccbd ec4c aa3e
00000160: d1bd a0be 06fd 7abe 63d8 a1bd 9f4e 803e
00000170: acfa bcbe cd8f 48bc df58 02bb 90c9 883d
00000180: a473 85be 1bdb 97be e308 043e db81 7a3e
00000190: 2ee6 c23e fe41 0b3f a9d4 babe 3ee4 893d
000001a0: 9001 573e 9076 46be 8122 21be 517b 91bb
000001b0: c42f 58be 6434 b3bd ec59 ccbd 1c24 b4be
000001c0: 8725 f2bd f87d cc3c c549 6fbe d251 90be
000001d0: 8d36 563d 06df 153f 3e7c 1d3f 8a12 f53e
000001e0: 0b14 e8bd 9687 22bd 23f1 19be 3f16 9cbe
000001f0: f9a9 26bc 8d1d 55bd ef2c 923e 1042 c4bd
00000200: 38c6 6ebd a874 f0be dbdc 10be a407 abbc
00000210: ec14 593e 8398 81be b064 26be de7a 963e
00000220: fe14 c43e 2bff b63c aa3b eabe a3db 9bbe
00000230: a14e e5bb b283 b43d 283a 7dbe a3dc e3be
00000240: 12f4 47bd 1be5 fdbd 7c0f 99be 4446 6a3f
00000250: a156 833e 6ebf 7abe fcd5 9d3e 593c d2bd
00000260: 8c04 123e e2b2 753e 5510 fcbd d547 0fbe
00000270: e8e3 ad3e 4564 6bbd 1479 0cbe dbd7 1f3e
00000280: 6a62 acbe 8159 c1bd 9d4c 553d 062c 6a3e
00000290: c8f8 213e 461c b93d 1777 a33e 30d8 153f
000002a0: ddae 93be 21f2 a7be c621 69bd 65ae 1a3d
000002b0: 1e79 5dbe 121e d1be 5b73 9f3e 7ad3 a2bd
000002c0: d471 ecbe a46d 083f 5ca3 98bd 1cce e43d
000002d0: 03b0 2dbd 550b 443e de9e 51be 5743 a43e
000002e0: fe27 263f 1912 9a3e 585d 6ebc c6b7 25be
000002f0: ef0e 49be e806 0cbf 4ac9 f83d 558b b33e
00000300: af9f 42bf cc2c 46be 2bed 9b3c 80d5 c5bc
00000310: e83a 36be 6ba2 13be 1edb ddbd c6f0 05be
00000320: 9c66 47bd 26a9 c93e 7f56 343e eabf 13be
00000330: cf75 253e 96cb 9fbe 53c9 8bbd 4ab5 9bbe
00000340: a6a0 93be 1a26 a7be 269e 613e 0f5d 3fbe
00000350: 6042 4fbe 5289 5c3e 1ecf 0a3e 7d97 603c
00000360: f6fd a43e 23e0 ad3d 1e72 a13e 55c8 d53e
00000370: 9a3c c03e d9bc 6ebd 26c9 303e 855d 733e
00000380: 5e15 bb3d e4d3 c9be 5a44 0fbe 19d2 0fbe
00000390: ff90 10be 6b6c 213d 59b3 843e 8f54 803d
000003a0: 4838 0c3f 4a49 593e f604 77be d363 ccbe
000003b0: e6d0 9cbe 0fd0 bfbe 5cc6 c1be d637 f9be
000003c0: edfa 0dbc 2d79 223d d0f9 243b e528 953e
000003d0: fd50 a13d cbf8 d03c a43a 383e 73b8 973c
000003e0: 146d 633d d326 633e 92e8 583c 5613 49be
000003f0: a1cc 133a 69d9 20be e3f6 cabe c665 27be
0.10128079 0.39047405 0.28598365 -0.044969957 -0.07169415 0.020186938 -0.27214828 0.13266948
0.20968145 0.30606875 -0.027556874 0.119926415 0.2872315 0.24368519 0.48443055 0.3754345
0.2996223 0.18013263 0.33173764 0.13067383 -0.29118422 0.3847251 -0.006075161 -0.13058628
0.300417 0.2453484 -0.24092442 -0.06534898 0.22929345 0.70420015 0.1522635 0.10810326
0.4353503 -0.15856461 -0.09342185 0.019262673 0.20686294 -0.017913457 0.0188402 0.0065073785
0.13048282 -0.16890058 0.10984415 0.21858789 0.15777802 0.08626942 -0.22400805 -0.13929509
0.20377786 -0.032855988 -0.31456184 -0.07927625 -0.42217433 -0.25298208 0.24535973 -0.004461925
-0.05300292 0.22059575 0.080084406 0.4231629 0.29713956 -0.08854944 -0.3359048 0.38112763
0.31791154 0.2351539 0.5949925 0.5768565 0.3889667 0.04843939 0.032850116 0.060967423
0.16798659 0.8815976 0.1907233 -0.29575208 0.6026128 -0.15531734 -0.11354131 0.07250446
-0.13500352 0.13743164 0.26843503 0.17660913 0.0063631455 -0.41517267 -0.10006348 0.33261812
-0.31394818 -0.24510583 -0.079026006 0.25059983 -0.36909997 -0.012241316 -0.0019889397 0.0667907
-0.2606479 -0.29659352 0.12894015 0.24463598 0.38066238 0.5439757 -0.36490372 0.06732987
0.2099669 -0.19381166 -0.15735818 -0.0044397493 -0.21111971 -0.08750227 -0.09978089 -0.351838
-0.11823564 0.02496241 -0.23367985 -0.28187424 0.052298117 0.5854343 0.61517704 0.47865707
-0.11331948 -0.039680086 -0.15033393 -0.30485722 -0.010172361 -0.052030135 0.28549907 -0.09582913
-0.058294505 -0.46964002 -0.1414675 -0.020877667 0.21199387 -0.2531167 -0.16249347 0.29390615
0.38297266 0.02233847 -0.45748645 -0.30441007 -0.0069978987 0.088141814 -0.24729216 -0.4450427
-0.048816748 -0.12397214 -0.29894626 0.91513467 0.2565203 -0.24487087 0.3082732 -0.10265417
0.14259547 0.2399402 -0.123078026 -0.13992245 0.3396294 -0.05746867 -0.13718063 0.15609686
-0.33668834 -0.094409 0.052075017 0.22868356 0.15817559 0.09038596 0.31926796 0.58533
-0.28844348 -0.32801917 -0.056916974 0.03776397 -0.21628234 -0.40843254 0.31142697 -0.07950492
-0.46180594 0.532923 -0.07453033 0.11172125 -0.042404186 0.19144948 -0.2047076 0.32082626
0.64904773 0.30091932 -0.014548622 -0.16183385 -0.19634603 -0.5469804 0.12147768 0.3506724
-0.7602491 -0.19353026 0.019033989 -0.024149656 -0.17795908 -0.14417426 -0.10832809 -0.13080129
-0.04868184 0.39386863 0.1761112 -0.14428678 0.16158222 -0.3121001 -0.06825509 -0.3041175
-0.28833503 -0.32646257 0.22032985 -0.18687843 -0.20240164 0.21536759 0.13555571 0.013707993
0.32225007 0.08490016 0.31532377 0.41754404 0.37546235 -0.058285568 0.17264232 0.23766144
0.09134935 -0.39419472 -0.13990918 -0.1404499 -0.14117812 0.039410036 0.2591808 0.06266128
0.5477338 0.21219364 -0.24122986 -0.3991991 -0.30628127 -0.37463424 -0.3784665 -0.48675412
-0.008665782 0.039666343 0.0025173314 0.29132763 0.078767754 0.025509259 0.1799112 0.01852057
0.055523947 0.22182779 0.013239043 -0.19636282 0.0005638097 -0.15707935 -0.39641485 -0.16347417

conv2_0.0.conv1.bias f4 [16]
00000000: 1326 a53d 21c3 ab3c 9e7b 273d 2ce5 15be
00000010: 4d4d f23e 91d3 bdbe 3990 183e e320 893e
00000020: 6fc9 4ebe 83da abbe 408b df3d eafc 033e
00000030: 8add 97be d493 b43e f0ce fb3d 3e1d 7c3e
0.08063903 0.020967068 0.040889375 -0.14638203 0.473246 -0.37075475 0.14898767 0.26782903
-0.20194028 -0.3356515 0.10915232 0.12889448 -0.29661208 0.35269034 0.122953296 0.2462053

conv2_0.0.bn1.weight f4 [16]
00000000: e18a 3a3f 10b8 873f f15d 9b3f 4d4f 8d3f
00000010: 8c14 3c3f fe10 a73f af61 6c3f 4339 713f
00000020: 99cd 903f 54ce a83f 9f0a 7c3f e859 663f
00000030: 5fe5 a03f 29d2 863f abb7 b13f aee1 8f3f
0.7286816 1.0603046 1.2138044 1.1039826 0.7346885 1.3052061 0.92336553 0.94228
1.1312743 1.3187966 0.98453707 0.89980936 1.2569999 1.0532886 1.3884176 1.1240747

conv2_0.0.bn1.bias f4 [16]
00000000: a280 5c3f 7cf5 403e f26c 34be 0668 963d
00000010: c412 5abe 4ae6 d3bd 23ce 963d 8931 dabd
00000020: eb31 b33d cb0b 7e3d 7f54 f43e b6dc 473e
00000030: 16e6 843e a823 3f3e 6842 943e 85a4 2c3e
0.8613378 0.18843645 -0.17619684 0.0734406 -0.21296221 -0.103466585 0.07363536 -0.10653979
0.087497555 0.062022965 0.47720715 0.19517788 0.25956792 0.18665946 0.28956914 0.16859634

conv2_0.0.bn1.running_mean f4 [16]
00000000: 155b 7741 00c8 8bc0 315b 51be f5e3 1ec1
00000010: d40f f940 d745 0cc1 8c79 bdbf d330 ff40
00000020: 3c32 38c1 7678 abc0 d6f5 0241 872f e340
00000030: d8ad cbbe 17ca 2441 9b3a cac0 2bdd d1c0
15.459737 -4.368164 -0.20444943 -9.930654 7.783182 -8.767051 -1.4802718 7.97471
-11.512264 -5.3584547 8.185019 7.0995517 -0.3978107 10.299338 -6.319654 -6.558248

conv2_0.0.bn1.running_var f4 [16]
00000000: f2a6 a242 4c62 6141 8b96 8941 99ed 9e41
00000010: 2447 6542 a94f 5641 2e8f 2141 f523 2542
00000020: c357 2042 bc7e 6741 5b52 6241 1cbc 2b42
00000030: 7607 7141 be51 1c42 ef93 a041 0c30 9541
81.326065 14.086498 17.198507 19.866014 57.319473 13.394448 10.097456 41.285114
40.085705 14.468441 14.145106 42.9337 15.0643215 39.079826 20.072233 18.64846
