result_WS/Dataset-mask/model_weight.pth.tar (torch, 84070 bytes, 127 tensors)

conv0_0.0.conv1.weight f4 [2, 3, 3, 3]
0	0xbcef08af	-0.029178945
1	0x3dfe6a14	0.124225765
2	0xbcb535d0	-0.022120386
3	0x3f088be9	0.53338486
4	0xbf1a5d19	-0.60298306
5	0xbf1c9338	-0.6116214
6	0x3efd4cdd	0.49472705
7	0x3cd960db	0.026535442
8	0x3ecbe433	0.3982254
9	0xbe2c286b	-0.16812293
10	0xbd1fdbcc	-0.039027974
11	0x3be0b354	0.006857315
12	0x3e267a88	0.1625768
13	0xbed3bc20	-0.41354465
14	0xbe21649f	-0.1576104
15	0xbe117e29	-0.14208283
16	0xbe972e74	-0.29527628
17	0x3f046d7e	0.5172957
18	0xbe32da37	-0.17466055
19	0x3e1f8737	0.15578924
20	0x3e27a54b	0.16371648
21	0x3e679c1a	0.22618142
22	0xbefb8bee	-0.49130195
23	0xbeb37dba	-0.3505686
24	0x3ecea5ff	0.4036102
25	0x3e92814b	0.28614268
26	0x3e0ec148	0.13940918
27	0xbe2650c9	-0.16241755
28	0x3da4f3c7	0.08054309
29	0xbe9a9a5c	-0.30195892
30	0xbf668245	-0.90042526
31	0x3f5ec482	0.870186
32	0x3f3f37d7	0.7469458
33	0xbe1bf018	-0.15228307
34	0xbddc75f3	-0.107646845
35	0x3e25a304	0.16175467
36	0xbec23eaf	-0.3793845
37	0xbcfc6583	-0.030810123
38	0xbe082139	-0.13293923
39	0x3cf28897	0.029606147
40	0x3dc74279	0.097294755
41	0x3ef4c055	0.47802988
42	0xbda04ffb	-0.07827755
43	0xbd8f1dfd	-0.06988142
44	0x3e576ecf	0.21038364
45	0x3cbab359	0.022790598
46	0xbe5f88e6	-0.21829566
47	0xbea5408e	-0.32275814
48	0xbed8e195	-0.42359605
49	0xbc4de6e1	-0.012567253
50	0x3f25cac9	0.6476255
51	0x3e85980f	0.26092574
52	0x3eb0da96	0.34541768
53	0xbee1e663	-0.44121084

conv0_0.0.conv1.bias f4 [2]
0	0xbe6ed68f	-0.23324035
1	0xbed3751d	-0.41300288

conv0_0.0.bn1.weight f4 [2]
0	0x3ef281c6	0.47364634
1	0x3ecdfcc3	0.40231904

conv0_0.0.bn1.bias f4 [2]
0	0x3f7f340b	0.99688786
1	0x3f8c4f5d	1.096172

conv0_0.0.bn1.running_mean f4 [2]
0	0xbe7c7a9b	-0.24656145
1	0xbee17b09	-0.4403918

conv0_0.0.bn1.running_var f4 [2]
0	0x3d9a98c1	0.07548667
1	0x3e11713c	0.14203352

conv0_0.0.conv2.weight f4 [2, 2, 3, 3]
0	0x3eac8288	0.33693337
1	0xbd9f11ec	-0.0776709
2	0x3ba94027	0.0051651183
3	0xbe894b2f	-0.26815173
4	0xbf2f435e	-0.6846217
5	0x3f213df3	0.6298515
6	0xbdc6b330	-0.09702146
7	0x3e336920	0.17520571
8	0xbdf14e2c	-0.11782488
9	0xbd5034c7	-0.050831582
10	0xbdfeb04b	-0.12435969
11	0xbd4355ef	-0.047689375
12	0x3e8f8eed	0.2803873
13	0x3e12e1cb	0.14343946
14	0xbf0692d1	-0.52567774
15	0xbed9c8d2	-0.42536026
16	0xbe3cf8eb	-0.1845433
17	0xbe68fb8b	-0.22752206
18	0x3e80a443	0.25125322
19	0x3e87e714	0.26543486
20	0x3dceba85	0.100941695
21	0x3e46561e	0.19368789
22	0xbe7877c5	-0.24264438
23	0x3e856fc4	0.26061833
24	0xbd31b29d	-0.04338323
25	0xbf33b091	-0.70191294
26	0xbe19f4d0	-0.15034795
27	0x3e624094	0.22094947
28	0xbeaf5600	-0.342453
29	0xbcd05c90	-0.025434762
30	0x3d56f1d2	0.05247671
31	0x3e04c0d1	0.12964179
32	0x3d85300b	0.06503304
33	0x3eaae82b	0.33380255
34	0x3f5738ac	0.8407085
35	0xbeb0a7dc	-0.34503067

conv0_0.0.conv2.bias f4 [2]
0	0x3eac7098	0.33679652
1	0x3eb1bbff	0.34713742

conv0_0.0.bn2.weight f4 [2]
0	0x3f39512e	0.72389495
1	0x3f5501a3	0.8320562

conv0_0.0.bn2.bias f4 [2]
0	0x3f24990f	0.6429605
1	0x3f903a72	1.1267836

conv0_0.0.bn2.running_mean f4 [2]
0	0xbf8556d5	-1.0417124
1	0x3fa5e3cb	1.2960142

conv0_0.0.bn2.running_var f4 [2]
0	0x3e4c74f6	0.19966492
1	0x3e838210	0.25685167

conv0_0.0.shortcut.0.weight f4 [2, 3, 1, 1]
0	0x3e80fc8b	0.25192675
1	0xbeaa49bb	-0.33259377
2	0x3f7c1047	0.9846234
3	0x3e0016de	0.12508723
4	0xbf2da2b3	-0.67826384
5	0xbe5db481	-0.21650888

conv0_0.0.shortcut.0.bias f4 [2]
0	0xbe590a43	-0.21195321
1	0xbdff0150	-0.12451422

conv0_0.0.shortcut.1.weight f4 [2]
0	0x3f900eeb	1.1254553
1	0x3f09fc16	0.5390028

conv0_0.0.shortcut.1.bias f4 [2]
0	0x4003226c	2.048976
1	0x3f162838	0.5865512

conv0_0.0.shortcut.1.running_mean f4 [2]
0	0xbe9f59a7	-0.31123087
1	0xbd24d6d5	-0.040243942

conv0_0.0.shortcut.1.running_var f4 [2]
0	0x3f483c23	0.7821676
1	0x3f114474	0.56745076

conv1_0.0.conv1.weight f4 [4, 2, 3, 3]
0	0x3f438c0c	0.7638557
1	0xbef53e0a	-0.47898895
2	0xbead30ce	-0.33826298
3	0xbe9d5708	-0.30730462
4	0xbed7b730	-0.42131948
5	0xbddd1b89	-0.107962675
6	0xba8b6ff2	-0.0010638221
7	0x3f0df671	0.55454165
8	0x3e539b75	0.20664771
9	0xbd2eeead	-0.042708088
10	0xbe318eda	-0.1733965
11	0xbe49b826	-0.19699153
12	0xbd665031	-0.05622882
13	0xbd006ef7	-0.031355824
14	0x3d3e1ed9	0.046416137
15	0xbdc50764	-0.0962055
16	0xbe8f327e	-0.2796821
17	0x3d0715bc	0.032979712
18	0x3ed23c9f	0.41061875
19	0x3f3410c5	0.7033809
20	0xbe563fcd	-0.20922776
21	0xbe70baca	-0.23508754
22	0x3e11a8fa	0.14224616
23	0x3e39f618	0.18160284
24	0xbecec945	-0.4038793
25	0xbdee5ac5	-0.11638407
26	0xbf075d75	-0.5287698
27	0xbd35efc0	-0.044418097
28	0xbed78c38	-0.42099166
29	0xbe10f738	-0.14156806
30	0x3e6d117a	0.23151198
31	0xbe9d49c0	-0.3072033
32	0xbe65dbca	-0.22447124
33	0xbde76f31	-0.11300505
34	0xbe77fa9a	-0.2421669
35	0x3e92fe4d	0.2870964
36	0xbe6f4f64	-0.23370129
37	0xbea00cf1	-0.31259874
38	0xbe863565	-0.26212612
39	0xbe7fdbf0	-0.24986243
40	0x3d449534	0.047993854
41	0x3e838e6d	0.256946
42	0xbe063dc4	-0.13109499
43	0x3db24b38	0.08705753
44	0x3f654734	0.8956177
45	0x3e62a33d	0.22132583
46	0x3de5e149	0.1122461
47	0x3d2064f2	0.03915877
48	0x3e17b1a5	0.1481386
49	0x3edc6f47	0.43053648
50	0xbe341c97	-0.17589031
51	0xbeaedb7b	-0.34151825
52	0xbe87e6f9	-0.26543406
53	0xbe7de153	-0.24792986
54	0xbef88369	-0.48537758
55	0x3c9d8df0	0.01923272
56	0x3d93afed	0.072112896
57	0x3e68caf5	0.22733672
58	0xbd530aff	-0.05152416
59	0x3d6d4c38	0.057934016
60	0xbc87d1d9	-0.016579555
61	0x3f38b973	0.72157973
62	0xbe196bbd	-0.14982505
63	0x3e33908e	0.17535612
64	0xbe2b9b9d	-0.1675858
65	0xbc100b9d	-0.008791831
66	0xbf1c923e	-0.6116065
67	0x3f3a9af5	0.72892696
68	0x3ea41eee	0.32054847
69	0x3cb36fca	0.021903891
70	0x3ed46d03	0.4148942
71	0xbd8a68e6	-0.06758289

conv1_0.0.conv1.bias f4 [4]
0	0xbc82426f	-0.015900819
1	0x3f121ec3	0.5707819
2	0x3d80f20c	0.06296167
3	0xbe8a3ad3	-0.26998004

conv1_0.0.bn1.weight f4 [4]
0	0x3fb1c72e	1.388891
1	0x3f605d49	0.8764234
2	0x3f77850d	0.96687394
3	0x3f7c04d3	0.9844486

conv1_0.0.bn1.bias f4 [4]
0	0x3e8629b4	0.26203692
1	0x3ea4f6ea	0.3221963
2	0x3ec5e3bf	0.3865032
3	0x3e1e43c4	0.15455538

conv1_0.0.bn1.running_mean f4 [4]
0	0xbfcbd977	-1.592574
1	0xbf861eb6	-1.0478122
2	0x3e53f3f7	0.20698534
3	0x400197bd	2.0248864

conv1_0.0.bn1.running_var f4 [4]
0	0x3f062b1a	0.5240952
1	0x3f3e35e7	0.74301
2	0x3f3b8785	0.7325366
3	0x3f3541a2	0.7080327

conv1_0.0.conv2.weight f4 [4, 4, 3, 3]
0	0x3dec67b0	0.11543214
1	0xbf0b32dc	-0.5437448
2	0xbe6bbb9c	-0.23020786
3	0x3e067a7f	0.13132666
4	0x3e94afcc	0.29040372
5	0x3b9bc72a	0.004753967
6	0x3dd3816c	0.1032742
7	0xbebc8f8c	-0.36828268
8	0x3e4434e2	0.19160798
9	0x3ef54f89	0.47912243
10	0xbdde2819	-0.10847492
11	0x3d2b9ff1	0.04190058
12	0xbf03ce3d	-0.5148657
13	0xbf1ac6d9	-0.6045967
14	0xbe2d13e8	-0.16902125
15	0x3e9f0be9	0.31063774
16	0xbf0f24a0	-0.5591526
17	0xbdd37d6a	-0.10326655
18	0x3a878062	0.0010337944
19	0xbe40df89	-0.18835272
20	0xbe5b4ffe	-0.21417233
21	0xbefe5ca0	-0.49680042
22	0xbe31994a	-0.17343631
23	0xbceae660	-0.028674304
24	0xbd96bdcb	-0.07360419
25	0xbe797575	-0.24361213
26	0x3ea385e2	0.31938082
27	0xbcc6bb8c	-0.024259351
28	0x3ebfc987	0.3745844
29	0x3e81b0c2	0.25330168
30	0x3edc24e9	0.4299691
31	0x3eee5e9c	0.46556556
32	0xbdb89d58	-0.09014386
33	0xbc053c02	-0.008131983
34	0xbed72cc6	-0.42026347
35	0x3f208256	0.62698877
36	0xbdb3e14b	-0.087832056
37	0x3eb45375	0.35219923
38	0xbe2d71de	-0.16937968
39	0xbe90acaf	-0.28256747
40	0x3cd33e3a	0.025786508
41	0x3e45692f	0.19278406
42	0xbf3d64c7	-0.739819
43	0xbeb8f5ea	-0.36125118
44	0x3f7b550a	0.98176634
45	0xbebba140	-0.3664646
46	0xbe8a49d5	-0.27009454
47	0xbdb98a9b	-0.0905964
48	0xbe3444fd	-0.17604442
49	0xbea22341	-0.31667522
50	0xbe378d39	-0.17924966
51	0x3e68046d	0.22657938
52	0x3f17dbd5	0.5931981
53	0xbe0134ae	-0.12617752
54	0x3ec2766b	0.3798097
55	0xbd802b4f	-0.062582605
56	0xbeb6a8ec	-0.35675752
57	0x3dc12663	0.0943115
58	0xbd5a3f50	-0.053283036
59	0xbd1a821d	-0.037721742
60	0x3e21e555	0.1581014
61	0xbcfb5084	-0.030678041
62	0xbe34b42d	-0.17646857
63	0xbe3bc9a5	-0.1833864
64	0x3e65c891	0.22439791
65	0x3c97113a	0.018440831
66	0xbdd911ea	-0.1059912
67	0xbf0e224b	-0.55521077
68	0x3f11b938	0.56923246
69	0x3e1c991c	0.15292782
70	0x3df8de84	0.121518165
71	0xbe876491	-0.26443914
72	0x3da2ee3d	0.079555966
73	0x3de1db26	0.11028127
74	0xbeb1abc5	-0.34701362
75	0xbd273f43	-0.040831815
76	0xbe88ec30	-0.26742697
77	0xbe9e3207	-0.30897543
78	0x3e38d953	0.18051653
79	0xbcd8ed9f	-0.026480494
80	0x3f135a25	0.57559425
81	0xbc6b23ea	-0.014351824
82	0xbcef74b1	-0.029230447
83	0x3e569fb0	0.20959353
84	0xbebc5647	-0.36784574
85	0xbc936fed	-0.017997706
86	0x3d0bb084	0.034103885
87	0xbec74dc1	-0.3892651
88	0x3dfec1b8	0.12439293
89	0x3ed50df5	0.4161221
90	0xbe8e95ab	-0.27848563
91	0x3e1a4014	0.15063506
92	0x3d9f1e54	0.077694565
93	0xbe51cadf	-0.20487545
94	0x3e0c3e5b	0.13695662
95	0x3cde9338	0.027169809
96	0xbef8c42c	-0.48587167
97	0xbf62d7db	-0.8861062
98	0xbf266149	-0.64992195
99	0x3e8c463f	0.27397344
100	0x3eb2d408	0.34927392
101	0xbe2f5ba3	-0.171248
102	0x3dbaaaa7	0.091145806
103	0x3e27700e	0.16351339
104	0xbcf442b0	-0.029816955
105	0xbd079157	-0.03309759
106	0xbeb24647	-0.34819242
107	0xbd8113b5	-0.06302587
108	0x3ed2dd6c	0.41184556
109	0x3d38fa11	0.045160357
110	0x3e345437	0.1761025
111	0xbf02a209	-0.51028496
112	0xbdf17aff	-0.11791038
113	0x3e7327d8	0.23745668
114	0xbe519a01	-0.20468904
115	0x3ed06fc5	0.40710273
116	0xbcdd0027	-0.026977612
117	0xbd846b44	-0.06465772
118	0xbcffb925	-0.031216213
119	0x3e7d2be7	0.24723779
120	0xbf279221	-0.6545735
121	0x3e3c8130	0.18408656
122	0xbc5a43ee	-0.01332186
123	0x3c2a162c	0.010381263
124	0x3e4bad0d	0.19890232
125	0x3d1ce831	0.038307372
126	0xbd915538	-0.07096332
127	0xbe05ffd5	-0.13085873
128	0xbe9806c8	-0.29692674
129	0xbda3c952	-0.07997383
130	0x3eafcf93	0.34338054
131	0xbf0cb646	-0.5496563
132	0xbdf9aace	-0.121907815
133	0xbdb4cdd1	-0.08828319
134	0xbee005f7	-0.4375455
135	0x3f4f700a	0.81030333
136	0xbd2ac6a4	-0.041693345
137	0xbe32f9a7	-0.17478047
138	0xbe91af0b	-0.2845386
139	0x3e1979eb	0.14987914
140	0xbd5e7d71	-0.05431885
141	0xbe791971	-0.24326111
142	0x3dcbe9bc	0.09956691
143	0xbdf28392	-0.11841501

conv1_0.0.conv2.bias f4 [4]
0	0xbe840169	-0.25782326
1	0x3d9bb4d2	0.07602848
2	0x3f34b2a0	0.7058506
3	0xbe030dbf	-0.12798212

conv1_0.0.bn2.weight f4 [4]
0	0x3f5023a1	0.81304365
1	0x3f6336d8	0.8875556
2	0x3fa94265	1.3223387
3	0x3f825bcf	1.0184268

conv1_0.0.bn2.bias f4 [4]
0	0x3f042f80	0.5163498
1	0x3f1f1e93	0.6215603
2	0x3e540f70	0.20709014
3	0xbdd1a852	-0.10237183

conv1_0.0.bn2.running_mean f4 [4]
0	0xbf8bd4ac	-1.0924277
1	0xbea2d51e	-0.3180322
2	0xbe92c0fc	-0.2866286
3	0xbf110ed7	-0.5666327

conv1_0.0.bn2.running_var f4 [4]
0	0x3fe423a2	1.7823374
1	0x3fbff53f	1.4996718
2	0x3fd260b3	1.643576
3	0x3fa7b944	1.3103414

conv1_0.0.shortcut.0.weight f4 [4, 2, 1, 1]
0	0x3f62a2f1	0.8852988
1	0x3fad436a	1.3536198
2	0x3f358f3b	0.7092168
3	0x3f7998a1	0.9749852
4	0x3f0ec076	0.5576242
5	0xbf86b194	-1.0522943
6	0xbf252e3c	-0.64523673
7	0xbd2024bb	-0.03909753

conv1_0.0.shortcut.0.bias f4 [4]
0	0x3b15df3c	0.0022868654
1	0xbe349f7e	-0.17638966
2	0x3f093104	0.53590417
3	0xbf2c3d34	-0.6728089

conv1_0.0.shortcut.1.weight f4 [4]
0	0x3f8c5ca8	1.0965776
1	0x3f3a117c	0.7268293
2	0x3e3586fd	0.17727275
3	0x3fb7ccd1	1.435938

conv1_0.0.shortcut.1.bias f4 [4]
0	0x3e7c387d	0.24630924
1	0xbd3fb47d	-0.046802986
2	0xbeb9ff85	-0.36327758
3	0xbe9c25ba	-0.30497533

conv1_0.0.shortcut.1.running_mean f4 [4]
0	0x408e2eae	4.443198
1	0x404d9824	3.212411
2	0x3eca43ea	0.3950494
3	0xc01cb46c	-2.448512

conv1_0.0.shortcut.1.running_var f4 [4]
0	0x3fd2a08c	1.6455245
1	0x3f763af5	0.9618371
2	0x3f6d3a35	0.9266694
3	0x3efd3845	0.49456993

conv2_0.0.conv1.weight f4 [8, 4, 3, 3]
0	0xbf0d6b94	-0.55242276
1	0xbdca7477	-0.09885495
2	0xbeaed88b	-0.34149584
3	0xbea06219	-0.31324843
4	0x3f084b21	0.5323964
5	0x3cba85d3	0.02276889
6	0x3e962056	0.29321545
7	0xbd1d8e10	-0.03846556
8	0x3eaf143c	0.34195125
9	0xbed19004	-0.40930188
10	0xbf153e5f	-0.58298296
11	0xbed39220	-0.41322422
12	0xbd0a404b	-0.03375272
13	0x3e70cb33	0.23515014
14	0x3e218820	0.15774584
15	0x3da63e4f	0.08117353
16	0x3e132958	0.1437124
17	0x3d7e4a9b	0.062082868
18	0xbe3f0bc7	-0.18656836
19	0xbdafb973	-0.085802935
20	0xbc002b15	-0.007822772
21	0xbe1e3491	-0.1544974
22	0x3ee35ff5	0.44409147
23	0xbddc79e3	-0.107654355
24	0xbcf5680f	-0.029956846
25	0x3bf08ab6	0.0073407544
26	0xbe9376b4	-0.288015
27	0x3d8e4f0a	0.06948669
28	0xbe78bcc0	-0.24290752
29	0x3ec5d75f	0.38640878
30	0x3da3e807	0.0800324
31	0x3f48861b	0.7832963
32	0x3f334434	0.70025945
33	0x3dc58b3d	0.09645698
34	0x3bbbca74	0.0057309214
35	0x3cee80f9	0.029114233
36	0x3ca83894	0.020534791
37	0xbe7e42c0	-0.2483015
38	0xbe178382	-0.1479626
39	0x3e7e9a36	0.24863514
40	0x3e4e8932	0.20169523
41	0x3e57bf39	0.2106904
42	0xbe27127a	-0.16315642
43	0x3bad7a07	0.005294088
44	0x3ef80e8b	0.48448595
45	0xbef8852e	-0.48539108
46	0xbe8bb9c8	-0.27290177
47	0xbe067cc2	-0.13133529
48	0xbd5ff1e6	-0.05467405
49	0xbe07585b	-0.13217299
50	0xbe304c9b	-0.17216723
51	0x3d2740ca	0.040833272
52	0x3e902224	0.28151047
53	0x3ee99cf0	0.45627546
54	0xbf03f64a	-0.5154768
55	0xbe910c83	-0.28329858
56	0xbe659143	-0.22418694
57	0xbec0d239	-0.37660387
58	0xbe9523c6	-0.29128855
59	0xbf172581	-0.590416
60	0xbe4a60a0	-0.19763422
61	0x3f4d0efc	0.8010099
62	0x3eeb1532	0.45914608
63	0xbdb24cb3	-0.087060355
64	0xbe79079a	-0.24319306
65	0xbe380071	-0.17968918
66	0xbd271ab8	-0.040796965
67	0xbdb59e27	-0.08868056
68	0xbdbf81f1	-0.09350956
69	0x3d7600c8	0.06005934
70	0x3d0dfb8b	0.03466372
71	0x3eab5d50	0.3346963
72	0x3e42a721	0.19009067
73	0x3e65b6d3	0.22433023
74	0x3d44e81a	0.04807291
75	0xbd41acc9	-0.04728392
76	0xbe99b4cc	-0.3002075
77	0xbdf4ff83	-0.119627975
78	0xbc0245bb	-0.007951195
79	0xbc92a06b	-0.017898759
80	0x3f03a8e8	0.51429605
81	0x3d424dd3	0.0474375
82	0x3e7e6813	0.24844389
83	0x3e26147a	0.16218749
84	0x3ea9a0be	0.3313045
85	0x3d23b31f	0.039965745
86	0xbd07ade4	-0.03312482
87	0x3eb8a546	0.36063594
88	0xbdcee582	-0.10102369
89	0x3ea4e7b4	0.32208025
90	0x3eaf08be	0.34186357
91	0x3ba9b22c	0.0051787104
92	0x3e11b5ce	0.14229509
93	0x3ebb999d	0.36640635
94	0x3ead8c39	0.33896044
95	0x3eb89f8f	0.36059234
96	0x3e6a8364	0.22901684
97	0xbddd4d98	-0.108058155
98	0x3ef4d026	0.47815055
99	0x3d8eefb2	0.06979312
100	0xbe03c13b	-0.1286668
101	0xbf3209f1	-0.6954642
102	0x3d264fd8	0.04060349
103	0xbf0be24c	-0.54642177
104	0xbf744056	-0.9541067
105	0xbe8f2a33	-0.27961883
106	0xbea6d2cb	-0.32582697
107	0xbf45a445	-0.7720378
108	0xbe8b648e	-0.27225155
109	0xbd82a947	-0.06379943
110	0xbe0bdc95	-0.13658364
111	0x3da8768f	0.08225738
112	0x3d883d3a	0.06652303
113	0xbb9ed14f	-0.004846729
114	0x3ecac605	0.39604202
115	0x3d88e239	0.066837735
116	0x3e68ea7c	0.22745699
117	0xbf0f20e5	-0.5590957
118	0xbd8a0d0a	-0.06740768
119	0x3e8653e6	0.26235884
120	0xbeda4dba	-0.42637426
121	0xbe0358b8	-0.12826812
122	0x3edd7ff7	0.43261692
123	0x3f0d0865	0.55090934
124	0xbd862284	-0.06549552
125	0x3e752ce3	0.23942904
126	0xbd935027	-0.07193022
127	0xbec0db66	-0.37667388
128	0xbe328945	-0.17435177
129	0x3d005a86	0.03133633
130	0xbe0a666d	-0.13515635
131	0xbe9f31af	-0.31092593
132	0x3e48c18b	0.19605081
133	0x3e8f01d7	0.2793109
134	0xbde02905	-0.10945324
135	0xbddd4150	-0.10803473
136	0xbe2202d8	-0.15821397
137	0xbee7895d	-0.45221987
138	0xbc72b544	-0.014813725
139	0xbe010343	-0.125989
140	0xbdf2219b	-0.11822816
141	0x3e56a9a2	0.20963147
142	0xbd9a56d7	-0.07536095
143	0xbf072a96	-0.52799356
144	0x3cf9c70c	0.03049042
145	0xbe4a8d82	-0.19780543
146	0x3d2ea226	0.042635106
147	0x3d537193	0.051621985
148	0x3f048308	0.5176244
149	0xbc8dd4ac	-0.017313324
150	0xbd95ab8c	-0.073081106
151	0xbec99d0f	-0.3937764
152	0xbf0bfb5c	-0.5468042
153	0xbe2189d7	-0.15775238
154	0xbe83d3e5	-0.257476
155	0x3b967898	0.0045920126
156	0x3d1fcc9f	0.0390135
157	0x3f56e1fc	0.83938575
158	0x3c31730c	0.010830652
159	0x3d02c315	0.031924326
160	0x3e17aba7	0.14811574
161	0xbe765f92	-0.24059895
162	0xbe3aa3d6	-0.18226561
163	0xbe9f8285	-0.31154266
164	0xbc750eb4	-0.014957119
165	0x3e3c6d2a	0.18401018
166	0x3ea8a4d5	0.32938257
167	0x3e057ae9	0.13035168
168	0x3ea45eab	0.32103476
169	0x3ea2e02f	0.31811664
170	0xbe6a76c4	-0.22896868
171	0x3e0fa307	0.14027034
172	0xbda7adff	-0.08187484
173	0x3d2242a6	0.039614342
174	0x3e13aa63	0.14420466
175	0xbf114c26	-0.5675682
176	0xbec7b1c4	-0.39002812
177	0x3e71dcee	0.23619434
178	0x3de7bad3	0.11314931
179	0xbd499b38	-0.049220294
180	0xbe6c395c	-0.23068756
181	0x3e890c82	0.26767355
182	0xbdde6658	-0.10859364
183	0x3d1f693b	0.038918715
184	0x3d648294	0.05578859
185	0xbcae7c39	-0.021299468
186	0x3e7f939d	0.24958654
187	0xbd503f37	-0.050841536
188	0xbe3d4bf7	-0.1848601
189	0xbf00aa92	-0.5026027
190	0xbe84f45e	-0.25967687
191	0xbdf7ad09	-0.12093551
192	0xbdb105eb	-0.08643707
193	0xbd8b2e62	-0.06795956
194	0xbe87821b	-0.2646645
195	0x3e5309a5	0.20609148
196	0x3dce78af	0.10081612
197	0xbf4d1821	-0.8011494
198	0xbed14bf7	-0.4087827
199	0xbec52960	-0.3850813
200	0xbe963e1b	-0.29344258
201	0x3ed6f3b0	0.41982794
202	0x3e9b141c	0.3028878
203	0xbeffdf5a	-0.4997509
204	0xbd921d7f	-0.07134532
205	0x3e9b48bc	0.3032893
206	0xbe0093c4	-0.12556368
207	0x3e1ff5c8	0.15621102
208	0xbd14a22c	-0.03628747
209	0xbdd6fc37	-0.10497325
210	0x3c9a3f33	0.018828964
211	0x3e730b5d	0.23734803
212	0x3d33235f	0.043734904
213	0xbdf6e5a8	-0.12055522
214	0x3e62b3b0	0.22138858
215	0x3d604768	0.0547556
216	0xbe54055b	-0.20705168
217	0x3ed8c621	0.4233866
218	0xbd2057ae	-0.039146118
219	0xbe9fe471	-0.31228974
220	0x3f193901	0.59852606
221	0x3ed6a3fc	0.41921985
222	0xbe02be26	-0.12767848
223	0x3c90bd82	0.01766849
224	0x3e92bd73	0.28660163
225	0xbe269bd3	-0.1627038
226	0x3f0b51ba	0.5442158
227	0x3d6ad62d	0.05733316
228	0xbe6548e7	-0.22391091
229	0x3ed56d5b	0.41684994
230	0xbdf4e2b2	-0.11957301
231	0x3cbe4a62	0.023228828
232	0xbdf5ab54	-0.11995569
233	0x3dc056c1	0.09391547
234	0xbed3b9d1	-0.41352704
235	0x3e4a0512	0.19728497
236	0x3e8f36ed	0.27971593
237	0x3e1acc2c	0.15116948
238	0x3ea9ea85	0.33186737
239	0x3e88ce21	0.26719764
240	0xbd763f83	-0.060119163
241	0x3e016e23	0.1263967
242	0x3e8f3e5c	0.27977264
243	0x3e362e27	0.17791043
244	0x3da86da9	0.08224041
245	0x3c546e39	0.012965732
246	0xbe88a254	-0.26686347
247	0x3d1c9e9c	0.0382372
248	0xbf1a6445	-0.6030925
249	0x3e88b89f	0.26703355
250	0x3e8af8a6	0.2714283
251	0xbd97bc39	-0.074089475
252	0xbec3e7ad	-0.38262692
253	0x3e9bfcff	0.30466458
254	0x3db583a3	0.08862998
255	0xbecf29eb	-0.40461668

conv2_0.0.conv1.bias f4 [8]
0	0xbe1bbb0a	-0.15208068
1	0x3ea3f6eb	0.3202432
2	0x3d94cb2b	0.07265314
3	0xbda990bd	-0.0827956
4	0x3e9498ec	0.2902292
5	0x3d874445	0.06604818
6	0x3ebccaf6	0.36873597
7	0x3e8f48eb	0.2798532

conv2_0.0.bn1.weight f4 [8]
0	0x3f71dcdb	0.94477624
1	0x3f7227d2	0.9459201
2	0x3f8bed06	1.0931709
3	0x3f5f033f	0.8711433
4	0x3f521b78	0.82073164
5	0x3facb15e	1.3491628
6	0x3f846c44	1.034554
7	0x3f9b60fc	1.2138972

conv2_0.0.bn1.bias f4 [8]
0	0x3eac333a	0.33632833
1	0xbd08eff9	-0.03343198
2	0xbea663c5	-0.32497993
3	0xbe6402cb	-0.2226669
4	0xbe088c92	-0.13334873
5	0x3dd5a382	0.10431577
6	0x3dc82a86	0.09773736
7	0x3e043b7a	0.12913314

conv2_0.0.bn1.running_mean f4 [8]
0	0xbd07b561	-0.03313196
1	0x3d0a4702	0.033759125
2	0x3ef6c233	0.48195037
3	0xbee5a8f6	-0.4485547
4	0x3bf8f0bb	0.0075970567
5	0xbfb52025	-1.4150435
6	0x40137a15	2.3043263
7	0xbfa9bc12	-1.326052

conv2_0.0.bn1.running_var f4 [8]
0	0x40d8b71e	6.772353
1	0x40a4e131	5.152489
2	0x416e1528	14.880165
3	0x408e835b	4.4535346
4	0x4060caa5	3.5123684
5	0x40f3ea17	7.6223254
6	0x4137d10b	11.488536
7	0x41062a19	8.385278

conv2_0.0.conv2.weight f4 [8, 8, 3, 3]
0	0xbdb204e3	-0.08692338
1	0xbd1e7d22	-0.038693555
2	0x3eb8510b	0.3599933
3	0xbe14cf5b	-0.14532225
4	0x3cec9635	0.028880218
5	0x3e9ee2dd	0.31032458
6	0xbee63f02	-0.44969946
7	0xbf160f08	-0.58616686
8	0xbe75ebb5	-0.24015696
9	0x3daa4088	0.083130896
10	0x3ecd82d7	0.40138885
11	0x3ea84202	0.3286286
12	0xbe362647	-0.17788039
13	0x3edb22c0	0.4279995
14	0x3f1cca5a	0.61246264
15	0x3e8afe9d	0.2714738
16	0xbdf5ac1e	-0.119957194
17	0x3e62de6b	0.22155158
18	0xbdaa73b4	-0.0832285
19	0x3eb24639	0.348192
20	0x3e54a463	0.20765834
21	0xbcacb43b	-0.021082034
22	0x3dce51cb	0.100741945
23	0x3e91c4d5	0.28470483
24	0xbd4cbd32	-0.04998512
25	0x3dc74863	0.097306035
26	0x3f40d5e5	0.7532638
27	0x3e0e5c9b	0.13902514
28	0xbeb5f503	-0.35538492
29	0xbe54e41d	-0.20790143
30	0x3d36d026	0.0446321
31	0x3ebaee74	0.3651005
32	0xbde07805	-0.10960392
33	0x3d8fe19f	0.07025456
34	0xbc3dab19	-0.011576437
35	0xbdfd89c9	-0.12379796
36	0xbdbd7ac7	-0.092519335
37	0x3da5492f	0.08070599
38	0x3cf87006	0.030326854
39	0xbe1192f7	-0.14216219
40	0x3dc3fc9c	0.09569666
41	0x3f23a655	0.6392568
42	0xbe3561b2	-0.17713049
43	0xbe475f14	-0.19469863
44	0xbe7dc3f6	-0.24781784
45	0xbe36a489	-0.17836203
46	0xbb1b961d	-0.0023740598
47	0xbe27f129	-0.16400589
48	0xbe2ec42c	-0.17067021
49	0xbe8764cd	-0.26444092
50	0xbd4a38f3	-0.049370717
51	0xbf09dda9	-0.5385385
52	0xbf244302	-0.64164746
53	0xbe9dcfc2	-0.3082257
54	0x3dbc9974	0.09208956
55	0x3e01b47e	0.12666509
56	0x3c245072	0.010028945
57	0xbda39a5e	-0.079884276
58	0x3ef98a5a	0.48738366
59	0x3e822bfd	0.25424185
60	0x3d80da07	0.062915854
61	0x3ec66325	0.38747516
62	0x3e804af7	0.25057194
63	0xbe52254b	-0.20522039
64	0xbf0e103d	-0.5549353
65	0xbe57c5b8	-0.21071517
66	0x3c0317e1	0.008001299
67	0x3c73e9f8	0.0148873255
68	0x3eaa6ad6	0.33284634
69	0xbdce4728	-0.10072166
70	0xbd3d0fe8	-0.046157748
71	0x3ed6fc28	0.41989255
72	0xbe944d47	-0.28965208
73	0xbee812c4	-0.45326817
74	0x3eeabbf4	0.45846522
75	0x3d59a8ff	0.053139683
76	0xbd9c6a74	-0.07637492
77	0x3ea80d78	0.32822776
78	0x3e365a2a	0.17807832
79	0x3c370c12	0.011172311
80	0xbdab546e	-0.08365713
81	0xbdb7a16c	-0.08966336
82	0x3bdfbf88	0.006828252
83	0x3f0fcc93	0.5617153
84	0xbe8e39b8	-0.2777841
85	0xbed1bd70	-0.40964842
86	0x3f399b55	0.7250264
87	0xbe22098a	-0.15823951
88	0xbdb6d817	-0.089279346
89	0x3e4351c8	0.19074166
90	0xbe55f823	-0.20895438
91	0x3ebbf08f	0.3670697
92	0x3e8305ad	0.25590268
93	0xbe5ad2b1	-0.21369435
94	0xbe951242	-0.29115492
95	0x3e2ab153	0.16669206
96	0xbd99330d	-0.0748044
97	0xbe5ec3bd	-0.21754356
98	0xbda1de26	-0.079036996
99	0xbe0f5c93	-0.14000158
100	0xbe02a4d7	-0.12758194
101	0x3e41b1c9	0.18915476
102	0x3e6b7b61	0.22996284
103	0xbecb763c	-0.39738643
104	0xbe916253	-0.28395328
105	0xbc1ab178	-0.009441726
106	0xbde00061	-0.10937572
107	0xbef1df14	-0.47240508
108	0xbf1a1873	-0.60193557
109	0xbcd4631d	-0.025926167
110	0x3f1c1887	0.60974926
111	0xbcf5b613	-0.029994046
112	0xbeeebe28	-0.46629453
113	0xbb4da9d8	-0.0031381752
114	0x3cab2910	0.020893604
115	0xbe00bcdb	-0.12572043
116	0xbe23cea3	-0.15996794
117	0xbe0627b2	-0.1310108
118	0xbe6ae400	-0.22938538
119	0xbef7febe	-0.4843654
120	0x3e895c07	0.26828024
121	0xbde51873	-0.11186304
122	0xbd866832	-0.065628424
123	0x3e63d92b	0.22250812
124	0x3e761583	0.24031644
125	0xbe8ae446	-0.27127284
126	0xbda44f5d	-0.0802295
127	0x3eaabb84	0.33346188
128	0x3dc808ba	0.097672895
129	0xbdff85fb	-0.124767266
130	0x3da51258	0.080601394
131	0x3e1453ee	0.14485142
132	0x3de6b3fa	0.112647966
133	0xbdf4c94d	-0.119524576
134	0xbdd9b10f	-0.10629474
135	0x3e4fc1c7	0.20288764
136	0x3f62fa90	0.8866358
137	0x3e443dc4	0.19164187
138	0xbefc7ce4	-0.49314034
139	0x3e956fee	0.29186958
140	0x3edfd5e6	0.4371788
141	0xbecb5036	-0.39709634
142	0x3d123eba	0.035704352
143	0xbc30b1af	-0.010784551
144	0x3eeb875e	0.46001714
145	0xbd749e90	-0.05972153
146	0xbc3ef050	-0.011653975
147	0xbdbeb7d6	-0.09312408
148	0xbdb557ba	-0.08854623
149	0xbd34489a	-0.04401455
150	0xbee47f9e	-0.44628614
151	0xbe399cfc	-0.18126291
152	0xbf41930f	-0.7561502
153	0xbdabddd9	-0.083919235
154	0xbe19b0a5	-0.15008791
155	0x3d555b9f	0.05208933
156	0x3e7c71d8	0.24652803
157	0xbe3060b5	-0.17224391
158	0x3e66f104	0.22552878
159	0x3d92d1ec	0.07168946
160	0x3d311bfe	0.043239586
161	0xbe39728a	-0.181101
162	0x3e14a3cc	0.14515609
163	0xbf350ac7	-0.7071957
164	0xbec95979	-0.39326075
165	0xbeb62b12	-0.35579735
166	0xbf0923b8	-0.5357013
167	0x3dcb60a1	0.0993054
168	0xbf08a22f	-0.5337247
169	0xbf1a6a4e	-0.6031846
170	0xbeb4245a	-0.35183984
171	0xbe125d67	-0.14293443
172	0x3e3f335b	0.18671934
173	0xbd97d2c1	-0.07413245
174	0x3e6f4099	0.23364486
175	0x39ade404	0.00033167016
176	0xbecf089a	-0.4043625
177	0x3ebf4474	0.37356913
178	0xbdf3fa8a	-0.11913021
179	0xbf1f080d	-0.6212166
180	0xbd0f1a47	-0.03493717
181	0x3dcb3c5a	0.099236205
182	0xbe0e87c3	-0.13918976
183	0x3e67eacb	0.2264816
184	0xbd9dbcd5	-0.077020325
185	0x3df92b09	0.121664114
186	0xbe712fd7	-0.23553406
187	0xbea07f43	-0.31347093
188	0xbf04a348	-0.5181165
189	0xbe40fa28	-0.18845427
190	0xbe0e0cb5	-0.13872035
191	0xbd88929b	-0.06668588
192	0xbe69d617	-0.22835575
193	0xbea40ce9	-0.320411
194	0xbf05ebe1	-0.5231305
195	0xbebb07c3	-0.3652936
196	0xbec7ff4e	-0.3906197
197	0xbf12c1a3	-0.57326716
198	0x3e676af2	0.2259939
199	0xbdfca325	-0.12335805
200	0x3e67798a	0.22604957
201	0x3dcdbfd3	0.10046353
202	0x3d38b54f	0.045094784
203	0x3e4ef694	0.2021125
204	0x3ef90e55	0.48643747
205	0x3e8d1a2c	0.2755903
206	0x3e2a07be	0.16604516
207	0xbe172181	-0.14758874
208	0xbe80940e	-0.25112957
209	0xbe8bf9e8	-0.273391
210	0xbe815ccf	-0.2526612
211	0xbea06f4f	-0.31334922
212	0x3da4e635	0.08051721
213	0xbed09afe	-0.4074325
214	0xbe896156	-0.26832074
215	0x3ec85c23	0.39132795
216	0x3de298a5	0.11064271
217	0xbe863ad9	-0.26216772
218	0xbeb3b87c	-0.35101688
219	0x3ecdaa16	0.40168828
220	0xbdaf43f2	-0.085578814
221	0xbbe34510	-0.006935723
222	0x3dd0e978	0.10200781
223	0xbe4478af	-0.19186662
224	0xbf0529a3	-0.5201666
225	0x3f00b30a	0.5027319
226	0xbe1e3ed4	-0.15453655
227	0xbe99ddc5	-0.3005201
228	0x3e861f72	0.26195866
229	0xbe02afb1	-0.12762333
230	0x3e88ee9a	0.2674454
231	0x3d9dda96	0.077077076
232	0xbe63fb91	-0.22263934
233	0xbdbf751c	-0.09348509
234	0x3eef5d18	0.46750712
235	0xbdf95683	-0.12174704
236	0xbd83cb43	-0.064352535
237	0x3e9cd20f	0.30629012
238	0x3e9039d3	0.28169116
239	0xbe370b41	-0.17875387
240	0x3ee1e132	0.44117123
241	0xbbf93b9b	-0.0076059825
242	0x3e062fc7	0.13104163
243	0x3e39f58e	0.18160078
244	0x3f1192ff	0.56864923
245	0x3dd0ccef	0.10195338
246	0x3eb1a6b9	0.34697512
247	0x3ebd00d9	0.3691471
248	0x3e162d18	0.1466564
249	0x3eb310ce	0.34973758
250	0x3cbb32c8	0.022851363
251	0x3d9eb5e6	0.07749538
252	0x3e3e0934	0.18558198
253	0x3ed65c42	0.41867262
254	0x3dcda4ce	0.100411996
255	0x3f1b4963	0.60658854

conv2_0.0.conv2.bias f4 [8]
0	0xbe704665	-0.23464353
1	0xbed6ab32	-0.41927487
2	0x3c9e4fca	0.019325156
3	0xbd906e37	-0.07052272
4	0xbdabe032	-0.08392371
5	0x3e9cba98	0.3061111
6	0xbe5c2fe7	-0.21502648
7	0xbe57242f	-0.21009897

conv2_0.0.bn2.weight f4 [8]
0	0x3f9f30a6	1.2436721
1	0x3faa6ae6	1.3313873
2	0x3f61ee96	0.8825468
3	0x3f76441e	0.9619769
4	0x3f62478c	0.8839042
5	0x3f0aeb32	0.5426513
6	0x3f902f2a	1.1264393
7	0x3fa7528a	1.3072064

conv2_0.0.bn2.bias f4 [8]
0	0x3ec0abe0	0.3763113
1	0xbdb3a4fb	-0.08771702
2	0xbef2ce9a	-0.4742325
3	0x3e1369f6	0.1439589
4	0xbe813ae4	-0.25240242
5	0x3e813089	0.25232342
6	0x3fbd9a69	1.4812747
7	0x3dd99412	0.10623945

conv2_0.0.bn2.running_mean f4 [8]
0	0xbf0cdc26	-0.5502342
1	0xbe948530	-0.29007864
2	0xc055eee1	-3.342705
3	0x3ecfe430	0.4060378
4	0xc020db94	-2.513402
5	0xbebc081f	-0.36724946
6	0x3fc9a63e	1.5753858
7	0xbe2b590e	-0.1673319

conv2_0.0.bn2.running_var f4 [8]
0	0x415f94c4	13.97382
1	0x3fd24140	1.6426163
2	0x403301bd	2.796981
3	0x4023454c	2.5511045
4	0x40be5274	5.947565
5	0x3ff3a723	1.9035381
6	0x41669480	14.411255
7	0x3fed31af	1.8530787

conv2_0.0.shortcut.0.weight f4 [8, 4, 1, 1]
0	0xbf288d05	-0.6584018
1	0xbe6f8b1c	-0.2339291
2	0xbe2a44dc	-0.1662783
3	0x3e3e97fb	0.18612663
4	0xbe5a61d0	-0.21326375
5	0xbe3904b0	-0.18068194
6	0xbf0a1913	-0.5394451
7	0xbe0ba81b	-0.13638346
8	0x3f45639a	0.77105105
9	0x3dffc4e4	0.12488726
10	0xbe92c3bd	-0.2866496
11	0x3d68c11f	0.0568248
12	0xbf419605	-0.75619537
13	0xbf636380	-0.888237
14	0xbd4d9059	-0.05018649
15	0x3ea3f1db	0.3202046
16	0x3eb21778	0.3478353
17	0x3eb072ad	0.3446249
18	0x3e7ade9a	0.24498978
19	0xbeb23ea0	-0.34813404
20	0xbd93e04c	-0.072205156
21	0x3e3e2963	0.18570475
22	0x3d8a9e4e	0.067684755
23	0x3fa02eff	1.2514342
24	0xbea691d5	-0.32533136
25	0xbe7d2ac0	-0.24723339
26	0xbecb63ff	-0.39724728
27	0x3dfb12f7	0.12259477
28	0xbf888491	-1.0665456
29	0xbe37848d	-0.17921658
30	0xbed3314c	-0.41248548
31	0x3dc7b057	0.09750431

conv2_0.0.shortcut.0.bias f4 [8]
0	0xbf23dbb4	-0.64007115
1	0xbe4ebda1	-0.20189525
2	0xbe6a0a92	-0.22855595
3	0x3e7387e3	0.23782305
4	0x3e2664e5	0.16249426
5	0x3ebf774e	0.3739571
6	0x3c1bfc6d	0.009520632
7	0xbf1f4f77	-0.6223063

conv2_0.0.shortcut.1.weight f4 [8]
0	0x3f50ecc1	0.8161126
1	0x3f0c07a7	0.54699177
2	0x3f93ee90	1.1557178
3	0x3f46b516	0.77620065
4	0x3f6e1916	0.9300703
5	0x3fab991d	1.3406101
6	0x3f998429	1.1993457
7	0x3ebb6800	0.36602783

conv2_0.0.shortcut.1.bias f4 [8]
0	0xbe6d27c6	-0.23159704
1	0xbee24a64	-0.4419738
2	0xbed00062	-0.40625292
3	0xbe8f8f78	-0.28039145
4	0x3dfabaa9	0.12242634
5	0x3d1137ad	0.035453487
6	0x3d8b3dd8	0.06798905
7	0xbebe0843	-0.37115678

conv2_0.0.shortcut.1.running_mean f4 [8]
0	0xbfc4e07a	-1.5381005
1	0xbf5950df	-0.84889024
2	0x3f307a21	0.68936354
3	0xbf9f92c9	-1.246667
4	0x3f3f370a	0.7469336
5	0x3f961947	1.1726464
6	0xbf2282f2	-0.63481057
7	0xc00391a3	-2.055764

conv2_0.0.shortcut.1.running_var f4 [8]
0	0x4041e143	3.029374
1	0x3f707e5b	0.93942803
2	0x402fc445	2.7463543
3	0x40fda209	7.9260297
4	0x3fdfd6c0	1.7487411
5	0x3f2a1186	0.6643299
6	0x3fb6a836	1.4270084
7	0x40d8d839	6.7763944

conv3_0.0.conv1.weight f4 [16, 8, 3, 3]
0	0xbdef5dcb	-0.116878115
1	0xbec67ddd	-0.387679
2	0xbd9d9a7c	-0.07695481
3	0x3e9b732a	0.303613
4	0xbe604f3b	-0.21905224
5	0xbdaec04e	-0.08532773
6	0xbd26cff6	-0.04072567
7	0xbde3fbf4	-0.111320406
8	0xbdae334e	-0.08505879
9	0xbec8ff32	-0.392572
10	0x3d9019b7	0.07036155
11	0x3e82dd76	0.25559586
12	0x3e0a92f8	0.13532627
13	0xbe09e01b	-0.13464396
14	0xbe9700bd	-0.2949275
15	0xbdfa09c9	-0.122088976
16	0xbe8f5f91	-0.280026
17	0xbf1b8e1e	-0.6076373
18	0x3e2cf770	0.16891265
19	0xbe864109	-0.26221493
20	0xbe95db95	-0.2926909
21	0x3ee0cd1c	0.43906486
22	0xbe0b6df2	-0.1361616
23	0xbde1d842	-0.11027576
24	0x3ba89494	0.005144665
25	0x3d571cc9	0.052517686
26	0x3cbf3f8b	0.02334573
27	0x3c087190	0.008327857
28	0xbf0f1c91	-0.55902964
29	0xbf2c9c29	-0.6742578
30	0x3dc23982	0.09483625
31	0xbea314df	-0.3185186
32	0xbcf3b744	-0.029750474
33	0x3efb47f6	0.4907834
34	0x3cc2e13d	0.023789043
35	0xbe05439f	-0.13014077
36	0x3d1be937	0.038064208
37	0xbeaf8a89	-0.3428538
38	0xbebd5bee	-0.369842
39	0x3e454639	0.19265069
40	0xbe992149	-0.29908207
41	0xbf2e02be	-0.67972934
42	0x3d56918e	0.052384906
43	0xbe3c0bfc	-0.18363947
44	0x3ca50437	0.020143611
45	0x3de617ce	0.11235009
46	0xbe0be60a	-0.13661972
47	0xbdc894d2	-0.0979401
48	0x3e839a3f	0.25703618
49	0xbdc63df1	-0.09679783
50	0x3d8d118e	0.06888114
51	0x3ea093b8	0.313627
52	0x3d17daa6	0.037073754
53	0xbd0fbc1f	-0.035091516
54	0x3e6000fe	0.21875378
55	0x3e70bf21	0.2351041
56	0xbd338a1b	-0.04383288
57	0x3e9896ad	0.29802456
58	0x3eecf95a	0.4628399
59	0x3ec42776	0.38311356
60	0x3dadc736	0.08485262
61	0x3e854441	0.26028636
62	0x3e6a1a0e	0.22861502
63	0xbef43e44	-0.47703755
64	0xbe202f4c	-0.15643042
65	0x3e1c8f55	0.15289052
66	0xbf154dda	-0.5832192
67	0xbedf0843	-0.4356099
68	0xbe72ccf1	-0.23710991
69	0x3e4e5f55	0.20153554
70	0x3d2ada72	0.041712232
71	0xbe4bf5dc	-0.19918007
72	0xbe195115	-0.14972337
73	0x3d750ca6	0.059826516
74	0xbe53e012	-0.20690945
75	0x3f142bdf	0.5787944
76	0x3e4ecd82	0.20195583
77	0x3db8d185	0.09024338
78	0x3e95651d	0.29178706
79	0x3e2fbceb	0.1716191
80	0x3e85432b	0.26027808
81	0xbf11689c	-0.56800246
82	0xbf160ad7	-0.5861029
83	0xbe22023c	-0.15821165
84	0x3aba060f	0.001419248
85	0x3df604ba	0.1201262
86	0x3d995aa1	0.07487989
87	0x3ea4362c	0.3207258
88	0x3e39350c	0.18086642
89	0xbe8778e8	-0.26459432
90	0xbe282dcb	-0.16423719
91	0xbed7f018	-0.42175364
92	0xbe35304e	-0.17694208
93	0xbeb858d7	-0.3600528
94	0x3f15be88	0.5849385
95	0x3e9676f6	0.29387635
96	0x3e888818	0.2666633
97	0x3ebdd639	0.370775
98	0x3b89d467	0.0042062285
99	0xbe809669	-0.25114754
100	0xbe2e023e	-0.16993043
101	0x3d921fde	0.071349844
102	0xbf786e86	-0.97043645
103	0xbc6f1325	-0.014591967
104	0xbeb68b39	-0.35653093
105	0xbf8904c9	-1.0704585
106	0xbedc55a4	-0.4303409
107	0xbe5d6c16	-0.21623263
108	0xbd9d060e	-0.076671705
109	0xbee39527	-0.44449732
110	0xbe9e1004	-0.30871594
111	0xbeaed616	-0.3414771
112	0xbdc96bc0	-0.09835005
113	0xbd5283fc	-0.0513954
114	0xbd334a3e	-0.043771975
115	0x3e0d30f2	0.13788202
116	0x3ea0f4cf	0.31436774
117	0x3c417ec1	0.011810006
118	0xbe1fe4a1	-0.15614559
119	0xbe853c9a	-0.26022798
120	0xbd76c52a	-0.060246624
121	0x3e93e319	0.288842
122	0xbd6be842	-0.057594545
123	0xbe65facf	-0.22458957
124	0x3e2cdaef	0.16880392
125	0x3dc4b33a	0.09604497
126	0xbdc35885	-0.09538368
127	0x3ec05981	0.37568286
128	0xbde1b1cd	-0.11020241
129	0x3e86ed11	0.26352742
130	0x3ef250a8	0.4732716
131	0x3d9b11cb	0.07571753
132	0x3eb40946	0.35163325
133	0x3e0f1a14	0.13974792
134	0xbcacf1b9	-0.021111356
135	0xbdf5e0cd	-0.12005768
136	0x3da64210	0.08118069
137	0x3e67b52a	0.22627702
138	0xbd609bc3	-0.054836046
139	0x3eaad331	0.3336425
140	0x3c256db7	0.010096959
141	0x3d14bba0	0.036311746
142	0xbdbba624	-0.09162548
143	0xbe7ef786	-0.2489911
144	0x3e838953	0.25690708
145	0x3c687844	0.01418883
146	0xbfa96e21	-1.3236734
147	0x3f0e65b1	0.5562392
148	0x3c9fb0c7	0.019493474
149	0xbf360ab0	-0.7111006
150	0xbd723542	-0.05913282
151	0xbe61bcbb	-0.22044651
152	0xbe9271a0	-0.28602314
153	0xbea7652d	-0.32694378
154	0x3d3951e0	0.045244098
155	0xbd0f4b11	-0.0349837
156	0xbcd7d6d0	-0.026347548
157	0x3e1b490c	0.15164584
158	0xbe92875b	-0.28618893
159	0xbc68c354	-0.014206726
160	0x3ac5aeaa	0.0015081961
161	0xbe8f1190	-0.27943087
162	0x3c649b88	0.013953097
163	0x3e91cf3b	0.28478417
164	0xbe82765d	-0.2548093
165	0xbe8b7855	-0.27240244
166	0xbdf941da	-0.12170763
167	0x3d02a7e2	0.031898387
168	0xbe88eb0c	-0.26741827
169	0xbd0f858d	-0.035039473
170	0xbf0d30f9	-0.5515285
171	0x3eba6019	0.36401442
172	0x3dda6570	0.10663879
173	0x3f03882f	0.51379675
174	0x3ecc6892	0.3992353
175	0xbe92591f	-0.2858362
176	0xbefbcec3	-0.49181184
177	0xbe387a29	-0.1801535
178	0x3d47ae7f	0.048750397
179	0xbea55c7a	-0.32297117
180	0x3f09c3d7	0.5381445
181	0x3e9c3b04	0.30513775
182	0xbf1a2c55	-0.60223895
183	0x3e86a92d	0.26300946
184	0xbc718cb0	-0.014743015
185	0x3d418de5	0.04725446
186	0x3e97cbdc	0.2964772
187	0xbdf47107	-0.11935621
188	0xbd7c6c94	-0.061626986
189	0x3e67af1f	0.22625397
190	0x3e998927	0.2998745
191	0xbda99f7f	-0.082823746
192	0x3e1a3e98	0.1506294
193	0x3daace87	0.08340173
194	0xbf3dcc58	-0.7413993
195	0x3dbc58fa	0.091966584
196	0x3d3c6370	0.04599327
197	0xbeae962c	-0.34098947
198	0xbc6d8866	-0.014497852
199	0xbda23e17	-0.07921999
200	0x3eeaa567	0.45829317
201	0x3e8d5ac3	0.27608308
202	0x3e696887	0.2279378
203	0x3ead16ec	0.3380655
204	0xbe8463c6	-0.2585737
205	0xbf10ed00	-0.56611633
206	0xbea8ae76	-0.32945603
207	0x3da3ac47	0.07991844
208	0xbd139cf1	-0.036038343
209	0x3e414214	0.18872863
210	0xbc96969c	-0.018382363
211	0xbd350782	-0.044196613
212	0xbe181915	-0.14853318
213	0xbbd82baf	-0.0065970044
214	0xbdb5da71	-0.08879555
215	0x3ca84506	0.020540725
216	0xbe896dd1	-0.26841596
217	0x3de635e7	0.1124075
218	0xbeddcf75	-0.4332234
219	0x3d053b37	0.032527175
220	0xbdfdf858	-0.124008834
221	0xbe0acccb	-0.13554685
222	0xbe9e7dd9	-0.3095539
223	0x3e762fc3	0.24041657
224	0x3e8d5e13	0.27610835
225	0xbd50139e	-0.05079996
226	0xbe95b3c5	-0.29238716
227	0xbeb0318a	-0.34412795
228	0xbbda701f	-0.006666198
229	0xbea4eb60	-0.32210827
230	0xbf43dad7	-0.765058
231	0xbecc8bfb	-0.39950547
232	0xbf643462	-0.8914243
233	0xbea8cda2	-0.32969385
234	0x3eb465ad	0.35233822
235	0xbc9ad085	-0.018898258
236	0x3dc22b7d	0.09480951
237	0xbd7ba52a	-0.06143681
238	0xbebd00af	-0.36914584
239	0xbcb25c74	-0.0217726
240	0xbdee938a	-0.116492346
241	0xbe886d4c	-0.26645887
242	0xbe062a71	-0.13102128
243	0xbe082c29	-0.13298096
244	0xbba6e9dd	-0.0050937966
245	0x3e95d25d	0.29262057
246	0xbec1028f	-0.37697265
247	0xbe7a63ee	-0.24452183
248	0xbea07636	-0.31340188
249	0xbe496ae9	-0.19669689
250	0xbed253fe	-0.41079706
251	0x3e2b2471	0.1671312
252	0x3df3589b	0.118821345
253	0x3e137331	0.14399411
254	0x3ea8fc8b	0.33005175
255	0xbe5d91e8	-0.2163769

conv3_0.0.conv1.bias f4 [16]
0	0xbe258e00	-0.1616745
1	0x3e3bc8b7	0.18338285
2	0xbec9f800	-0.3944702
3	0xbe987619	-0.297776
4	0x3e03728f	0.1283667
5	0xbd035a0e	-0.032068305
6	0xbe873e94	-0.2641493
7	0x39dc6b26	0.00042041502
8	0xbc31e6c8	-0.010858245
9	0x3d0203bf	0.031741854
10	0xbde5d129	-0.11221535
11	0xbd12d50d	-0.035847712
12	0xbe741b46	-0.23838529
13	0xbc7b1c31	-0.015326546
14	0xbe0852f7	-0.13312899
15	0x3ed19337	0.4093263

conv3_0.0.bn1.weight f4 [16]
0	0x3f82ee04	1.0228887
1	0x3f87124e	1.0552461
2	0x3f7c2b2a	0.98503363
3	0x3f8cd2b9	1.1001807
4	0x3f91ee66	1.1400878
5	0x3f2ee5ec	0.6831958
6	0x3f9d55b1	1.2291776
7	0x3f6d1182	0.9260484
8	0x3fa8ce51	1.3187963
9	0x3f99b56f	1.2008494
10	0x3f76934c	0.9631851
11	0x3f950dfb	1.1644892
12	0x3fa879c2	1.3162158
13	0x3f8c943c	1.0982738
14	0x3f822928	1.016881
15	0x3f985791	1.1901723

conv3_0.0.bn1.bias f4 [16]
0	0xbe762f66	-0.24041519
1	0x3d8c40e7	0.06848317
2	0x3e4219f2	0.1895521
3	0x3d8e7f15	0.06957833
4	0xbe670dbe	-0.22563836
5	0x3e3ce372	0.18446139
6	0xbf00d6c7	-0.50327724
7	0xbeb0d4a0	-0.3453722
8	0xbd66ef3a	-0.056380488
9	0xbc1e3f19	-0.009658598
10	0xbe2d637f	-0.16932486
11	0x3e6a407b	0.2287616
12	0x3df9ca7b	0.12196823
13	0x3dfae00a	0.12249763
14	0x3eefb2fa	0.46816236
15	0xbe541b87	-0.20713626

conv3_0.0.bn1.running_mean f4 [16]
0	0x3f2876e2	0.658064
1	0x3f9d15df	1.22723
2	0xbfcc70c6	-1.5971916
3	0x3e8ff460	0.2811613
4	0x3f9364da	1.1515152
5	0x4041665f	3.0218732
6	0xc01cc32c	-2.4494123
7	0xbfb8bdf6	-1.4432971
8	0xbf50a667	-0.8150391
9	0xc058f725	-3.3900845
10	0xbf37b804	-0.7176516
11	0x3fd8d488	1.6939859
12	0xbf8a2f85	-1.0795752
13	0xbff5c6ef	-1.9201335
14	0xbfff0387	-1.9922951
15	0xbfaed1ae	-1.3657739

conv3_0.0.bn1.running_var f4 [16]
0	0x40d31105	6.5958276
1	0x40ed9bb1	7.4252553
2	0x412ffa22	10.998568
3	0x4103d017	8.238303
4	0x41459685	12.349248
5	0x411c78a5	9.779454
6	0x416a5da6	14.647863
7	0x4101823f	8.094298
8	0x40fb2258	7.8479424
9	0x412e027c	10.875607
10	0x4114af41	9.292787
11	0x4163eb5b	14.24496
12	0x40eea69f	7.4578395
13	0x40e28457	7.078655
14	0x41828762	16.316105
15	0x40ae1424	5.4399586

conv3_0.0.conv2.weight f4 [16, 16, 3, 3]
0	0x3c58cdf4	0.013232697
1	0x3eaa2f4e	0.33239216
2	0xbce1e97d	-0.027577156
3	0x3c97761b	0.018488934
4	0x3d0f6cc2	0.03501583
5	0xbec6aadd	-0.38802233
6	0x3dfcd19c	0.12344667
7	0x3d9bd5fe	0.07609175
8	0xbde171d2	-0.110080376
9	0xbf6d02b5	-0.92582256
10	0xbe7e3c70	-0.24827743
11	0xbe7283f6	-0.23683152
12	0xbe826ac4	-0.2547208
13	0x3e9e4448	0.3091147
14	0x3e7d6dfd	0.24748988
15	0xbe299d29	-0.16563858
16	0x3e688aeb	0.22709243
17	0xbcb05200	-0.021523476
18	0x3d611baf	0.05495804
19	0xbea24d93	-0.3169981
20	0x3da413af	0.08011567
21	0x3d7346e6	0.059393786
22	0xbec49f07	-0.38402578
23	0xbf0c24a8	-0.54743433
24	0x3e79e56c	0.24403924
25	0xbe6c5b80	-0.2308178
26	0x3e4c9b13	0.19981031
27	0x3e82905b	0.2550076
28	0x3dbc7a1f	0.0920298
29	0x3e7e7ac4	0.24851519
30	0xbdd10812	-0.102066174
31	0xbe97eb26	-0.29671592
32	0xbe78cb82	-0.24296382
33	0xbdc12df6	-0.094325945
34	0x3c123630	0.008924052
35	0x3db72b09	0.08943755
36	0xbdebacc5	-0.115075625
37	0xbd8c8012	-0.06860365
38	0x3dd06c0a	0.10176857
39	0xbc96d236	-0.018410783
40	0x3ca60130	0.020264238
41	0x3d48a6c2	0.048987158
42	0xbd89c920	-0.06727815
43	0x3eafaeb7	0.34312984
44	0x3df41be3	0.119193815
45	0xbed55824	-0.41668808
46	0xbebedbe5	-0.3727714
47	0xbdfa8b22	-0.12233569
48	0xbeab6e62	-0.33482653
49	0xbe92317f	-0.28553388
50	0x3e3aa4b1	0.18226887
51	0xbea9f10c	-0.33191717
52	0x3e1c5863	0.15268092
53	0x3e67f734	0.22652894
54	0x3f1210f2	0.57057106
55	0x3f5b0bae	0.85564697
56	0x3efc2f76	0.4925496
57	0x3e832112	0.25611168
58	0x3eaca215	0.3371741
59	0xbd510b55	-0.051036198
60	0x3dcf6902	0.101274505
61	0x3ee7f06b	0.45300612
62	0x3e9a0085	0.3007852
63	0xbd2cd1f2	-0.042192407
64	0xbdc3d8a2	-0.09562804
65	0x3e9e13bc	0.3087443
66	0x3dba9a34	0.09111443
67	0xbe233bd7	-0.15940796
68	0xbe7a94d6	-0.24470839
69	0xbe45301d	-0.19256635
70	0xbea68f31	-0.3253112
71	0xbecb136a	-0.3966325
72	0xbe1058c3	-0.1409636
73	0x3e347cf3	0.1762579
74	0x3dc73d81	0.09728528
75	0x3e05dced	0.13072558
76	0x3e7201c4	0.23633486
77	0x3ede6426	0.43435782
78	0x3d557046	0.052109025
79	0x3c09e514	0.008416433
80	0xbdecd1ed	-0.11563478
81	0x3ea3c0a6	0.31982917
82	0x3e84604c	0.2585472
83	0x3d14d3a1	0.036334638
84	0x3ea507d5	0.32232538
85	0x3e796c09	0.24357618
86	0xbc8bdf74	-0.017074324
87	0x3e5c05db	0.21486609
88	0x3ece5716	0.40300816
89	0x3e2d40c0	0.16919231
90	0x3e5be452	0.21473816
91	0x3e89a65d	0.26884738
92	0x3ec2d932	0.38056332
93	0x3ddc8dbe	0.10769223
94	0xbcfcd2e9	-0.030862289
95	0x3dfdbfd9	0.12390108
96	0x3d53f0e9	0.05174342
97	0xbcb3e0d2	-0.021957789
98	0xbbf91d0c	-0.0076023396
99	0xbded2334	-0.1157898
100	0x3e2c1f7d	0.16808887
101	0x3eb08ae2	0.3448096
102	0xbf8f4d3f	-1.1195449
103	0xbf184e42	-0.5949441
104	0xbf1689ed	-0.5880421
105	0x3d4f2ad1	0.050577942
106	0x3dbc3998	0.09190673
107	0x3e41964a	0.18904987
108	0x3e7e1fbe	0.24816796
109	0x3c817c6c	0.0158064
110	0xbd8f6aaf	-0.0700277
111	0x3d0c59f6	0.03426548
112	0xbe8e8660	-0.27836895
113	0xbe1ab364	-0.15107495
114	0x3e8d9738	0.27654433
115	0x3d2fc3be	0.042911284
116	0xbd92c261	-0.07165981
117	0x3d6c0cdc	0.05762945
118	0x3eb370d6	0.35047024
119	0x3c31a630	0.010842845
120	0x3d79be1a	0.06097231
121	0xbe27210b	-0.16321199
122	0xbe89da22	-0.26924235
123	0x3e52ff69	0.20605244
124	0x3e846e61	0.25865462
125	0x3c30a094	0.010780472
126	0xbf567d8e	-0.8378533
127	0xbecbfb5f	-0.39840218
128	0x3c0ecf21	0.008716376
129	0xbe1ec270	-0.1550386
130	0x3eb72e87	0.35777685
131	0x3e959398	0.29214168
132	0xbf1c4830	-0.6104765
133	0xbe0f91a5	-0.14020403
134	0xbe585429	-0.21125855
135	0x3ef01791	0.4689298
136	0x3f0b91b6	0.5451921
137	0x3e6e0002	0.2324219
138	0x3e6d9395	0.2320083
139	0x3e56adf5	0.20964797
140	0x3e4a3c91	0.19749667
141	0x3e8284e6	0.25492018
142	0xbdbdcb36	-0.09267275
143	0xbd8ae328	-0.06781608
144	0x3e9e9660	0.30974102
145	0x3bbcdd4f	0.0057636867
146	0x3d561288	0.052263767
147	0x3cabd5d1	0.020975979
148	0xbd3d0ca3	-0.04615463
149	0x3e870730	0.2637267
150	0x3eec0cb8	0.46103454
151	0x3e80c56e	0.25150627
152	0x3e781a88	0.24228871
153	0x3f2c99ec	0.67422366
154	0xbd121094	-0.03566034
155	0xbe5c376e	-0.2150552
156	0x3e79ba09	0.24387373
157	0xbec48e77	-0.38389942
158	0xbe0cef29	-0.13763107
159	0x3d2037e2	0.039115794
160	0xbeda9b30	-0.42696524
161	0xbe10b1bc	-0.141303
162	0xbe723cdc	-0.23656029
163	0xbe2f2a34	-0.17105943
164	0xbe1bcc49	-0.15214647
165	0x3de2c613	0.11072936
166	0x3e2fa109	0.17151274
167	0x3df52f69	0.119719334
168	0xbdf8d5c2	-0.12150146
169	0xbd67beba	-0.056578375
170	0x3de96a51	0.11397231
171	0xbe0997b9	-0.13436784
172	0xbef0e764	-0.47051537
173	0xbdeb9dd7	-0.11504715
174	0xbd70717e	-0.058701985
175	0x3c31b55a	0.01084646
176	0x3d0578ef	0.032586034
177	0x3edf5808	0.4362185
178	0x3e313105	0.17303856
179	0xbe05e821	-0.13076831
180	0xbeda322f	-0.42616412
181	0xbe49608a	-0.19665733
182	0xbe08f0bd	-0.13373084
183	0xbf1b10ad	-0.6057232
184	0x3e94883e	0.29010195
185	0x3e01944f	0.12654231
186	0xbf45d4d6	-0.77277887
187	0x3dff70e3	0.12472703
188	0xbe8f5177	-0.2799184
189	0x3e0f2c04	0.13981634
190	0xbe8225c0	-0.25419426
191	0xbf7f0c0a	-0.99627745
192	0x3df14fe3	0.11782815
193	0x3de84bbf	0.113425724
194	0xbe72103e	-0.23639008
195	0x3ecca827	0.3997204
196	0x3e8e45a9	0.2778752
197	0xbea2e994	-0.3181883
198	0xbf22cf4e	-0.6359757
199	0xbe0291a0	-0.12750864
200	0x3c1b4b75	0.00947844
201	0xbdb9c5b5	-0.09070913
202	0x3d93f270	0.07223976
203	0xbd4a92d5	-0.049456436
204	0x3dfa1323	0.12210681
205	0x3d075820	0.033043027
206	0xbec97399	-0.39346007
207	0xbf0e48de	-0.55579937
208	0xbeb17521	-0.34659675
209	0xbeb9516c	-0.36194932
210	0xbe6f3ed1	-0.23363806
211	0x3e948f49	0.29015568
212	0xbd6ef51e	-0.05833923
213	0xbe03fc56	-0.12889227
214	0x3d9326c5	0.07185129
215	0xbed5c0ba	-0.417486
216	0xbdba1297	-0.09085577
217	0x3d290465	0.041263957
218	0xbce1dd69	-0.027571397
219	0xbe112628	-0.14174712
220	0xbe16ad8c	-0.1471464
221	0xbd97f1d5	-0.07419173
222	0xbd838a3f	-0.06422853
223	0xbe9f1ba2	-0.3107577
224	0xbcb15a2f	-0.021649448
225	0xbeac4f22	-0.33654124
226	0x3cb14ce5	0.021643111
227	0xbe5ee5bd	-0.21767326
228	0xbdd3179c	-0.103072375
229	0x3cdf83b3	0.027284479
230	0xbcbd9aa1	-0.023145022
231	0xbde9a31d	-0.114080645
232	0x3e695ab3	0.22788505
233	0xba161c90	-0.0005726302
234	0xbf49d6fc	-0.78843665
235	0x3d6b933e	0.057513468
236	0xbe3fd87d	-0.18734927
237	0xbf23dbc1	-0.6400719
238	0xbc394850	-0.011308745
239	0xbe80947e	-0.2511329
240	0xbf848f2b	-1.0356191
241	0xbe9ab454	-0.30215704
242	0xbe6f84de	-0.23390529
243	0x3ebfe04b	0.3747581
244	0x38b99afe	8.850357e-05
245	0x3d8da9d0	0.06917155
246	0x3ed20d04	0.41025555
247	0x3e022a1d	0.12711377
248	0x3dbcda25	0.09221295
249	0x3ec23299	0.37929228
250	0xbe4246f1	-0.18972374
251	0x3cf9aebd	0.03047883
252	0xbe91fbfa	-0.28512555
253	0x3e02772b	0.12740771
254	0x3e8195d8	0.25309634
255	0xbe672005	-0.22570808

conv3_0.0.conv2.bias f4 [16]
0	0x3c12cd2d	0.0089600505
1	0x3bafeaef	0.0053685824
2	0x3db414e1	0.08793045
3	0x3eb9865b	0.36235318
4	0xbe52af22	-0.2057462
5	0xbd4f4cf6	-0.050610505
6	0xbe0e00c4	-0.1386748
7	0xbee08d48	-0.4385779
8	0xbe0acb92	-0.13554218
9	0x3e9786f1	0.2959514
10	0x3e0cd163	0.1375175
11	0xbd2a6bee	-0.041606836
12	0x3e93a3ac	0.2883581
13	0xbe43b962	-0.19113687
14	0xbd26c5ec	-0.040716097
15	0x3e5e50f2	0.21710566

conv3_0.0.bn2.weight f4 [16]
0	0x3fcc6c35	1.5970522
1	0x3fd0723e	1.6284864
2	0x3f685599	0.9075561
3	0x3fad4ad7	1.3538464
4	0x3f9344b1	1.1505338
5	0x3fc4b5ee	1.536802
6	0x3fc2e4dd	1.5226094
7	0x3f9afc6c	1.2108283
8	0x3f67ebb4	0.9059403
9	0x3f927a58	1.1443586
10	0x3fdabd6a	1.7089055
11	0x3fa0961e	1.2545812
12	0x3f9aff22	1.210911
13	0x3f53cc03	0.8273317
14	0x3f91bb97	1.1385373
15	0x3f92122c	1.1411796

conv3_0.0.bn2.bias f4 [16]
0	0x3e87efbf	0.265501
1	0x3f337259	0.70096356
2	0x40392ae7	2.8932436
3	0xbe0bd1e0	-0.1365428
4	0x3f531862	0.8245908
5	0x3dffc9bf	0.12489652
6	0x3f10ad53	0.5651447
7	0xbe6e65fb	-0.2328109
8	0x3eb97ed9	0.3622959
9	0x3c4e5cdc	0.012595382
10	0x3da76b66	0.081747815
11	0x3e9187c4	0.28423893
12	0xbd545ef3	-0.051848363
13	0x3e4f8089	0.20263876
14	0xbe8c4cc5	-0.2740232
15	0x3ee6d766	0.4508621

conv3_0.0.bn2.running_mean f4 [16]
0	0xbf85c36e	-1.0450265
1	0xc0164401	-2.3479006
2	0xc07daf28	-3.9638157
3	0x3e4b6b85	0.19865234
4	0xc01abf22	-2.4179158
5	0xc03d69bb	-2.9595783
6	0xbf9ca79a	-1.2238648
7	0x407bd14d	3.9346497
8	0xc085a5ba	-4.1764803
9	0xc0843716	-4.1317244
10	0xc010264a	-2.252337
11	0xc06d9177	-3.7120035
12	0xc09ade7f	-4.83966
13	0xbfa16f65	-1.261212
14	0x408e28d7	4.4424853
15	0x3fae7773	1.3630203

conv3_0.0.bn2.running_var f4 [16]
0	0x40b606ac	5.6883144
1	0x41bcb9d7	23.590742
2	0x41d40530	26.502533
3	0x41141cad	9.257001
4	0x41654507	14.329352
5	0x4207129d	33.768177
6	0x41994e42	19.163212
7	0x4165e504	14.368412
8	0x40eb079c	7.344679
9	0x4099fc12	4.8120203
10	0x40d62263	6.6916976
11	0x413a7340	11.653137
12	0x410598e9	8.349832
13	0x40996244	4.7932453
14	0x40e07ed8	7.015484
15	0x409d77b7	4.9208636

conv3_0.0.shortcut.0.weight f4 [16, 8, 1, 1]
0	0x3d8b1b20	0.06792283
1	0x3dc40e5a	0.0957305
2	0xbeb7d8c4	-0.35907567
3	0xbf3cd084	-0.7375567
4	0x3da8da3f	0.08244752
5	0xbf302143	-0.68800753
6	0x3eb5d2b3	0.35512313
7	0xbebee7a1	-0.37286094
8	0xbe9be6ab	-0.30449423
9	0x3c4941bd	0.01228374
10	0xbef8bf95	-0.48583665
11	0x3e313519	0.17305411
12	0xbe8b76a3	-0.2723895
13	0xbe9fb616	-0.31193608
14	0xbe82c167	-0.2553818
15	0x3e397113	0.1810954
16	0x3e35aa09	0.17740645
17	0x3e9cfe5d	0.30662814
18	0xbebc084d	-0.36725083
19	0x3ba4df38	0.0050314926
20	0x3e6f2c01	0.2335663
21	0x3f6a5f1f	0.91551393
22	0x3e2d5b5b	0.1692938
23	0x3d012614	0.031530455
24	0x3e3eac4a	0.1862041
25	0x3e3f7cb8	0.1869992
26	0x3f0671df	0.52517503
27	0x3e4fa0b4	0.20276147
28	0x3f2b3107	0.66871685
29	0x3db16f09	0.086637564
30	0xbc3f477b	-0.011674757
31	0xbdde4fba	-0.108550504
32	0xbe2ecda9	-0.1707064
33	0x3d8d9010	0.06912243
34	0x3e1cca25	0.15311487
35	0xbda665ec	-0.08124909
36	0x3e19c677	0.15017115
37	0xbf8af501	-1.0856019
38	0x3e31ed16	0.17375597
39	0x3cd96974	0.026539542
40	0xbe6b9c14	-0.23008758
41	0xbed47c64	-0.41501153
42	0x3f1439e7	0.5790085
43	0x3c1955ca	0.009358833
44	0x3d5ed024	0.054397717
45	0x3e7ee271	0.24891068
46	0x3e38bebd	0.18041511
47	0x3ef77c40	0.48336983
48	0x3d828a1d	0.06373999
49	0x3cd51208	0.026009575
50	0x3eb68039	0.356447
51	0x3e0393d0	0.12849355
52	0x3ed1407f	0.4086952
53	0x3f3a9da0	0.72896767
54	0xbde1f0a7	-0.11032229
55	0x3e6052b8	0.21906555
56	0xbcbc6b09	-0.023000257
57	0xbe175101	-0.14776994
58	0xbed47fbe	-0.4150371
59	0x3de5b0d4	0.11215368
60	0x3cf2dcce	0.029646304
61	0xbf3d8cec	-0.74043155
62	0xbee526bf	-0.44756123
63	0xbcedd8a3	-0.029033964
64	0xbea20874	-0.31647074
65	0xbea203be	-0.3164348
66	0xbecc480c	-0.39898717
67	0xbed1bbfd	-0.40963736
68	0xbf3a146d	-0.7268742
69	0xbdfada60	-0.12248683
70	0xbd1871de	-0.037217967
71	0xbe862bdb	-0.26205334
72	0x3e3de5a5	0.18544634
73	0xbe52d9fe	-0.2059097
74	0xbe21950e	-0.15779516
75	0xbda7e1b8	-0.08197349
76	0xbeaa3a30	-0.3324752
77	0xbf809e82	-1.0048373
78	0xbe5fddb5	-0.21861918
79	0x3d17d6f8	0.037070245
80	0x3ebd71ac	0.37000787
81	0xbd94ca3d	-0.072651364
82	0x3f2d11f2	0.6760551
83	0xbebd4fd8	-0.36974978
84	0x3e9e137e	0.30874246
85	0x3da28650	0.07935774
86	0xbbc6cd28	-0.006066937
87	0xbe339284	-0.1753636
88	0xbf1ab7c4	-0.60436654
89	0xbe52c8ac	-0.20584363
90	0xbce4ea75	-0.02794383
91	0xbecdfd66	-0.4023239
92	0xbeb3e179	-0.3513296
93	0xbeb9bcd9	-0.36276892
94	0x3c9bc0fc	0.01901292
95	0xbeb4e75c	-0.35332763
96	0xbf1cff90	-0.6132746
97	0xbf3377ae	-0.7010449
98	0x3c7a8454	0.015290339
99	0x3e8054d8	0.2506473
100	0x3c5aeed7	0.013362608
101	0x3de4858f	0.11158287
102	0xbf356474	-0.70856404
103	0x3defc3ed	0.11707292
104	0x3dba7c38	0.09105724
105	0xbebcc65a	-0.3687008
106	0xbe914164	-0.28370202
107	0xbedcb28a	-0.43104964
108	0xbd124c5a	-0.035717346
109	0xbed19726	-0.4093563
110	0x3df372a0	0.11887097
111	0xbe1a8aad	-0.15091963
112	0x3ec5ed4b	0.38657603
113	0x3e0d1f34	0.13781434
114	0xbe019c16	-0.12657198
115	0x3f4fc81b	0.8116471
116	0xbd9fb340	-0.07797861
117	0x3eea0d25	0.45713153
118	0x3c952ea9	0.018210726
119	0x3e96deed	0.29466954
120	0xbec53f1a	-0.38524705
121	0xbd5ed482	-0.054401882
122	0xbec3e834	-0.38263094
123	0x3eddcb68	0.4331925
124	0xbf1e969a	-0.6194855
125	0xbea0ec10	-0.314301
126	0x3ee280f9	0.44239023
127	0xbde9dc2c	-0.114189476

conv3_0.0.shortcut.0.bias f4 [16]
0	0x3e448498	0.19191206
1	0x3e161b4e	0.14658853
2	0xbede6d59	-0.434428
3	0x3cfcebb5	0.030874113
4	0x3e2e7d77	0.17040049
5	0xbd637ed0	-0.05554086
6	0xbdb0d130	-0.08633649
7	0xbdcbc25a	-0.09949179
8	0x3ea742b5	0.3266808
9	0x3f033be3	0.51263255
10	0x3e944501	0.28958896
11	0x3d824aa0	0.0636189
12	0x3e36be31	0.1784599
13	0x3cafe33d	0.02147066
14	0xbe8c89a3	-0.27448758
15	0x3e9b95bf	0.30387685

conv3_0.0.shortcut.1.weight f4 [16]
0	0x3f020f00	0.5080414
1	0x3f0d3d02	0.55171216
2	0x3e4ecac4	0.20194536
3	0x3f7cc36a	0.9873568
4	0x3ee355c8	0.44401383
5	0x3efe9fe4	0.49731362
6	0x3f0fc3f3	0.5615837
7	0x3f858de0	1.0433922
8	0x3f5e7f07	0.8691258
9	0x3faabae6	1.3338287
10	0x3f45517f	0.7707748
11	0x3f733dd2	0.95016205
12	0x3f4fea78	0.81217146
13	0x3f667958	0.90028906
14	0x3f67fb03	0.9061739
15	0x3f1088c2	0.56458676

conv3_0.0.shortcut.1.bias f4 [16]
0	0x3e7dc20a	0.24781051
1	0xbebbac7f	-0.36655042
2	0xbf93ecd3	-1.1556648
3	0x3f01d927	0.50721973
4	0xbed04e06	-0.40684527
5	0xbeed05fd	-0.4629363
6	0xbeb3da75	-0.35127607
7	0xbe1999d6	-0.1500009
8	0xbe979cba	-0.2961176
9	0x3e1b0ab3	0.151408
10	0x3dc7dac7	0.09758525
11	0xbde8cdcb	-0.11367377
12	0x3e6021ef	0.21887945
13	0xbf0e0610	-0.55478
14	0xbd556278	-0.05209586
15	0x3e855737	0.26043102

conv3_0.0.shortcut.1.running_mean f4 [16]
0	0xbef497df	-0.47772118
1	0xbf718cc1	-0.943554
2	0x3f5a491b	0.852678
3	0x3f626f9c	0.8845155
4	0xbf2323f7	-0.63726753
5	0x3f4a8580	0.79109955
6	0x3f8d44d6	1.1036632
7	0xbfdf7959	-1.7458907
8	0xbf5b5825	-0.8568137
9	0xbf8fd9c1	-1.1238328
10	0x3f5e5517	0.86848587
11	0xbf7d511c	-0.9895189
12	0xbf7313ac	-0.9495189
13	0xbf29c5ae	-0.6631726
14	0x3f16c6f0	0.58897305
15	0xbd9cc291	-0.07654298

conv3_0.0.shortcut.1.running_var f4 [16]
0	0x40721698	3.782629
1	0x40001877	2.0014932
2	0x40623d45	3.5349896
3	0x4014cc4e	2.3249698
4	0x4089a5aa	4.3014727
5	0x3fd74070	1.681654
6	0x4095b4e2	4.6783304
7	0x406b27b8	3.6742992
8	0x40332e36	2.7996955
9	0x40b7fec1	5.749848
10	0x3fe08b05	1.7542425
11	0x40081533	2.126294
12	0x3f55b765	0.8348296
13	0x3fdab6fb	1.7087091
14	0x3fdf8fb1	1.7465726
15	0x4015c9a4	2.3404322
